weights/best_model_safmn.pth (torch, 599169 bytes, 11 tensors)

conv1.weight f4 [64, 1, 3, 3]
0	0x3ebeb264	0.37245476
1	0x3f048cfc	0.51777625
2	0x3eb08cb1	0.3448234
3	0x3edb9479	0.42886713
4	0x3eed14a3	0.46304807
5	0x3f05ed95	0.52315646
6	0x3f1acfca	0.6047331
7	0x3f272971	0.6529761
8	0x3f07fde3	0.53121775
9	0x3deac786	0.11463837
10	0xbe979cde	-0.29611868
11	0x3e360528	0.17775404
12	0x3e80a77a	0.25127774
13	0x3dbb9256	0.09158771
14	0xbe84735b	-0.2586926
15	0x3e8579fe	0.26069635
16	0x3e4cb9d8	0.19992769
17	0xbe25bffb	-0.16186516
18	0xbe4f4be6	-0.20243797
19	0xbded75a6	-0.11594705
20	0xbe689906	-0.22714624
21	0xbe9fb33c	-0.31191432
22	0xbe556f50	-0.20843244
23	0x3e9f55f8	0.31120276
24	0xbd974e96	-0.07388036
25	0xbd6cfb8b	-0.057857078
26	0xbc78862b	-0.015168707
27	0x3e8b3767	0.27190706
28	0x3edb5ed7	0.42845795
29	0x3d809659	0.062786765
30	0x3e8a4b72	0.27010685
31	0x3e681b4d	0.22666664
32	0x3de4c5da	0.1117055
33	0x3d7a4e8a	0.061110057
34	0x3ee413d0	0.44546366
35	0x3e56a32f	0.20960687
36	0xbed39b38	-0.4132936
37	0x38c47983	9.3686416e-05
38	0xbef06665	-0.4695312
39	0xbe2ed149	-0.17072023
40	0xbe7a3f9b	-0.24438326
41	0xbd1f1a46	-0.038843416
42	0xbdc0de33	-0.09417381
43	0x3d85f1c2	0.06540252
44	0xbdedd4b1	-0.11612833
45	0xbe3030e7	-0.17206155
46	0xbd9b6893	-0.07588305
47	0x3b14f47c	0.0022728732
48	0x3e4e3558	0.20137537
49	0x3de6653d	0.112497784
50	0x3ebf94fe	0.3741836
51	0x3e5ad75f	0.2137122
52	0x3e931bd7	0.28732178
53	0x3cefa550	0.029253632
54	0x3f142b28	0.5787835
55	0x3f00151a	0.500322
56	0x3cd5fef1	0.026122542
57	0x3f43ca9d	0.7648104
58	0x3f400af5	0.7501672
59	0x3f2a7817	0.6658949
60	0x3f2e2032	0.68017876
61	0x3ed1d901	0.40985873
62	0x3eab97ce	0.33514255
63	0xbf0398cd	-0.5140503
64	0xbdc2a4e3	-0.09504106
65	0xbef87eb2	-0.4853416
66	0xbf255cbe	-0.6459464
67	0xbf180b79	-0.59392506
68	0xbecc3d09	-0.39890316
69	0xbca11821	-0.019664826
70	0xbf238378	-0.6387248
71	0xbd3bf419	-0.045887087
72	0x3f1ab389	0.604302
73	0x3ebd1d8c	0.36936605
74	0x3f0c06f4	0.5469811
75	0x3edf31f0	0.43592787
76	0x3f4eef3d	0.808338
77	0x3f169fdf	0.58837694
78	0x3e0f7579	0.14009656
79	0x3f2622bc	0.6489675
80	0x3f385910	0.720109
81	0xbedb1089	-0.42786053
82	0xbef8a70e	-0.48564953
83	0xbdce8240	-0.10083437
84	0xbdf56b53	-0.11983361
85	0xbee3d320	-0.44497013
86	0xbf282a5e	-0.6568965
87	0xbf1e9647	-0.61948055
88	0xbf46ba35	-0.7762788
89	0xbf19611a	-0.5991379
90	0x3de22cd0	0.110437036
91	0xbddd946b	-0.10819324
92	0x3e1e410e	0.15454504
93	0x3e9ce1a7	0.3064091
94	0x3ea02e48	0.3128531
95	0x3e5a2818	0.21304357
96	0xbe229808	-0.15878308
97	0xbd305b40	-0.043055773
98	0x3e365180	0.17804527
99	0xbe685d10	-0.2269175
100	0xbd958820	-0.073013544
101	0x3e36e668	0.1786133
102	0xbe1d15b8	-0.15340316
103	0x3dc4084b	0.09571894
104	0xbe8cb1bf	-0.2747936
105	0xbe180b7b	-0.1484813
106	0x3e3e6d50	0.18596387
107	0xbe959cf0	-0.29221296
108	0xbf1a77a9	-0.60338837
109	0xbf85b4ce	-1.0445802
110	0xbf0d3c74	-0.5517037
111	0xbf4503ad	-0.76958734
112	0xbf8e4b4a	-1.1116726
113	0xbf4103e7	-0.7539658
114	0xbf0c05ad	-0.5469616
115	0xbee90bfe	-0.45516962
116	0xbf5ef1e2	-0.87087834
117	0xbe652339	-0.22376718
118	0xbea7ce18	-0.32774425
119	0xbe548568	-0.20754015
120	0xbed15603	-0.40885934
121	0xbd887219	-0.066623874
122	0xbccec240	-0.02523911
123	0xbead7439	-0.33877733
124	0xbdc3b8bb	-0.09556719
125	0xbe369631	-0.17830731
126	0xbedc659d	-0.43046275
127	0xbde06c5c	-0.10958168
128	0xbe8689e1	-0.26277068
129	0xbea1d6f3	-0.31609306
130	0xbe871ffb	-0.26391587
131	0x3dc18d1f	0.09450745
132	0xbec5c365	-0.38625637
133	0xbeaeea90	-0.34163332
134	0xbec499b9	-0.3839853
135	0x3e39670e	0.18105718
136	0xbe19d5fe	-0.15023038
137	0xbd2c0576	-0.041997395
138	0xbe8f9d93	-0.28049907
139	0x3c9f46eb	0.019442996
140	0xbe5990c3	-0.21246628
141	0xbe8c9c7a	-0.27463132
142	0xbe20fb38	-0.15720832
143	0xbe310bb8	-0.17289627
144	0x3e89496c	0.2681383
145	0x3e61ffb6	0.22070202
146	0xbe369538	-0.1783036
147	0xbe8bcb92	-0.2730375
148	0xbcc3b940	-0.023892045
149	0xba140556	-0.0005646547
150	0x3e37bf4b	0.17944066
151	0x3a04daab	0.00050679845
152	0xbe51b023	-0.20477347
153	0x3c6413ab	0.013920705
154	0xbe6c758b	-0.23091714
155	0x3e778158	0.24170434
156	0xbe7d8236	-0.24756703
157	0xbe3e8c36	-0.18608174
158	0x3daf2eeb	0.08553871
159	0x3e7af9c6	0.24509344
160	0xbe401df8	-0.18761432
161	0xbea7c744	-0.32769215
162	0x3e0790c1	0.13238813
163	0xbe936db7	-0.28794643
164	0x3d91a419	0.07111377
165	0xbdc69535	-0.09696428
166	0xbec32d84	-0.38120663
167	0xbdd69fbf	-0.10479688
168	0xbe84ab81	-0.25912097
169	0xbe5881a8	-0.2114321
170	0x3e717f5e	0.23583743
171	0xbd77a236	-0.06045743
172	0x3de730f6	0.112886354
173	0x3e957120	0.2918787
174	0x3ddf3b96	0.10900037
175	0xbe4132b8	-0.18867004
176	0xbe825f9c	-0.2546357
177	0x3d9bd366	0.076086804
178	0x3e33a19e	0.17542121
179	0x3e8c0ea3	0.27354917
180	0x3e25419e	0.16138312
181	0xbe836298	-0.2566116
182	0xbecfe906	-0.4060747
183	0xbef5e878	-0.48028922
184	0xbeb0b6fd	-0.3451461
185	0xbd19bf4e	-0.037535958
186	0xbea36401	-0.31912234
187	0xbe0ce942	-0.13760856
188	0x3d3776d4	0.044791058
189	0x3d18c532	0.037297435
190	0xbdd069b8	-0.10176414
191	0x3e8432c8	0.25819993
192	0x3efc905f	0.49328896
193	0x3e873229	0.26405457
194	0x3e85d6d4	0.26140463
195	0x3ecc0406	0.3984682
196	0x3ec32085	0.38110748
197	0x3ec11355	0.37710062
198	0xbe4dc338	-0.20094001
199	0x3ce2cdeb	0.02768608
200	0x3e0c0106	0.13672265
201	0x3d83d730	0.06437528
202	0x3de0221b	0.10944005
203	0x3defc516	0.11707513
204	0x3dd07940	0.101793766
205	0x3dd13646	0.1021543
206	0xbe6a5d3e	-0.22887132
207	0xbe47cef1	-0.19512536
208	0x3d7b8834	0.06140919
209	0xbe5ac9b6	-0.21366009
210	0xbe016eba	-0.12639895
211	0xbe22a98c	-0.1588499
212	0x3ed15e59	0.40892294
213	0x3ee39657	0.44450638
214	0x3d759069	0.059952173
215	0x3ecaf1fc	0.39637744
216	0xbeff310d	-0.4984211
217	0xbf9e8058	-1.2382917
218	0xbfb5ee9e	-1.4213445
219	0xbf84ac29	-1.0365039
220	0xbfc79ad6	-1.5594127
221	0xbfc3f221	-1.5308267
222	0xbf9d07ee	-1.2268045
223	0xbfd78ff9	-1.6840812
224	0xbf8491c4	-1.0356984
225	0xbe3b5375	-0.18293555
226	0xbe7a95f7	-0.2447127
227	0xbedcd89c	-0.4313401
228	0xbed244a7	-0.41068003
229	0xbf583204	-0.8445132
230	0xbf259b3b	-0.6468999
231	0xbf015c29	-0.5053125
232	0xbe2f060c	-0.1709215
233	0xbf2cf30a	-0.6755835
234	0x3ed83618	0.4222877
235	0x3ee37a0b	0.4442905
236	0x3eaa3f6c	0.33251512
237	0x3ed1774c	0.4091133
238	0x3f258709	0.6465917
239	0x3e9e79be	0.30952257
240	0x3f1069b7	0.5641131
241	0x3ee27ce5	0.44235912
242	0x3dc93439	0.09824414
243	0x3de22445	0.11042074
244	0x3e974686	0.29545993
245	0x3eec896a	0.4619859
246	0x3eb2c943	0.34919176
247	0x3f1842a0	0.5947666
248	0x3eba7be2	0.3642264
249	0x3dd49b42	0.103811756
250	0x3f25ebb7	0.648128
251	0x3eb2e607	0.34941122
252	0x3e13d713	0.14437513
253	0x3e8e70a8	0.27820325
254	0x3e21c9c9	0.15799631
255	0xbd2c6737	-0.04209062

conv1.bias f4 [64]
0	0x3dae4d2a	0.085108116
1	0xbe9464a7	-0.28983042
2	0xbddef940	-0.108873844
3	0x3e49c607	0.19704448
4	0x3dde914d	0.10867558
5	0x3dbded37	0.09273761
6	0x3af736a3	0.0018860888
7	0x3e1b6a50	0.15177274
8	0x3bd6c7a1	0.0065545593
9	0x3e7ab8fc	0.24484628
10	0xbe80467c	-0.25053775
11	0xbdea4870	-0.114395976
12	0x3d0c5642	0.03426195
13	0x3df8f530	0.12156141
14	0x3e36527f	0.17804907
15	0xbe2b4348	-0.16724885
16	0xbd8b4bc6	-0.06801562
17	0xbdac92b0	-0.08426416
18	0x3d053d6a	0.032529272
19	0xbe887682	-0.26652914
20	0x3e4bb135	0.19891818
21	0xbd83c087	-0.06433206
22	0xbda6e2f0	-0.08148754
23	0x3ddda074	0.1082162
24	0x3c8791cb	0.016549012
25	0x3de15810	0.11003125
26	0x3da0c3e1	0.07849861
27	0x3d181757	0.037131634
28	0x3e46e904	0.19424826
29	0xbdee48b0	-0.11634958
30	0xbe0058d0	-0.1253388
31	0x3d21b6fe	0.039481156
32	0x3ac8d366	0.0015321791
33	0x3ce42bc0	0.027852893
34	0x3db9ce10	0.090725064
35	0x3e8edb2f	0.279016
36	0x3db863f3	0.09003439
37	0x3e7b6172	0.24548891
38	0x3e1269bf	0.14298151
39	0x3cedf1cd	0.029045964
40	0xbdf8aefb	-0.1214275
41	0xbe353210	-0.17694879
42	0xbe3d3bc6	-0.18479833
43	0x3d20f5ff	0.0392971
44	0xbe5da87b	-0.21646301
45	0xbd48cd2b	-0.04902379
46	0xbe73aa28	-0.23795378
47	0xbe1aeb3b	-0.15128796
48	0x3c8def72	0.01732609
49	0x3e01b787	0.12667666
50	0x3dcc5830	0.09977758
51	0x3d29d7cf	0.041465577
52	0xbe8dd902	-0.27704626
53	0xbe43c14e	-0.19116709
54	0xbe449816	-0.19198641
55	0x3cf1022b	0.02941998
56	0x3dad9ed7	0.08477562
57	0xbe53dd68	-0.20689929
58	0xbe5df4ae	-0.21675369
59	0x3e6003a3	0.21876387
60	0x3e188d52	0.1489766
61	0x3aa00be0	0.001221057
62	0xbcec24f1	-0.028826209
63	0xbe8f3b1b	-0.2797478

conv2.weight f4 [64, 64, 3, 3]
0	0x3d1f5f8e	0.038909487
1	0x3cacd2e0	0.021096647
2	0xbb1e5816	-0.002416139
3	0xbcc75673	-0.024333214
4	0xbc6939a0	-0.01423493
5	0x3d120a1e	0.03565418
6	0x3d0fa128	0.0350658
7	0xbcb62480	-0.022234201
8	0xbc56ddfb	-0.013114448
9	0xbca24b26	-0.019811224
10	0xbc92914b	-0.017891547
11	0xbcfab0de	-0.030601915
12	0x3c2b8d66	0.010470724
13	0xbc764f60	-0.015033573
14	0x3aa96e2b	0.0012926509
15	0xbc2cb246	-0.010540551
16	0xbd16fb07	-0.036860492
17	0x3b64976b	0.0034880291
18	0x3ca3a3ae	0.01997551
19	0x3c290e90	0.010318413
20	0x3b86ccf6	0.0041137887
21	0xbb9a0636	-0.0047004474
22	0xbc9fe3c6	-0.01951779
23	0x3d1f8963	0.03894938
24	0xbd02d647	-0.031942632
25	0x3c2fc980	0.010729194
26	0xbbb92356	-0.0056499643
27	0x3cc12c33	0.023580646
28	0xbc55294b	-0.013010333
29	0xbca0b7a8	-0.019618824
30	0xbd2133e8	-0.039356142
31	0x3d0d6853	0.03452332
32	0x3c37bc20	0.011214286
33	0xbc854ace	-0.016271021
34	0xbc8b2ef6	-0.016990166
35	0xbd0a2c37	-0.033733573
36	0xbd255a07	-0.04036906
37	0x3d1d9b68	0.038478285
38	0x3c11f750	0.008909062
39	0xbc04df6b	-0.008109908
40	0x3c1a17f0	0.009405121
41	0x3b1b9ec0	0.0023745745
42	0xbcf681d3	-0.030091202
43	0x3d1bf7d8	0.03807816
44	0xbc8e4543	-0.017367011
45	0x3c6c7380	0.014431834
46	0xbc7a3a70	-0.015272722
47	0xbce32ad3	-0.027730381
48	0x3c9e1028	0.019294813
49	0xbcadf610	-0.021235496
50	0xbc85b400	-0.016321182
51	0x3c129fc0	0.00894922
52	0xbd1d7c83	-0.03844882
53	0x3b5c3c96	0.0033605448
54	0x3cefe840	0.02928555
55	0x3c45ea40	0.012079775
56	0x3ce15446	0.027506005
57	0xbbfbaeb6	-0.0076807393
58	0x3c11e840	0.00890547
59	0x3b896c56	0.004193823
60	0xbcb41c93	-0.021986281
61	0xbc4ab8db	-0.012373175
62	0x3c45e506	0.012078529
63	0xbc441170	-0.011967048
64	0xbbf217eb	-0.007388105
65	0xbcce4483	-0.025179153
66	0x3ce79a86	0.028271925
67	0x3d25e698	0.040503114
68	0x3ce89db8	0.028395519
69	0x3af6e856	0.0018837552
70	0xbce92120	-0.028458178
71	0x3bd22536	0.0064131273
72	0x3d0f8c28	0.035045773
73	0xbc40b5fb	-0.0117621375
74	0xbc8d1eb3	-0.017226553
75	0xbcce1a93	-0.025159156
76	0xbd273ddb	-0.040830474
77	0x3c202916	0.009775421
78	0x3c559f90	0.013038531
79	0xbcd0c59b	-0.02548485
80	0x3d0e918f	0.034806784
81	0xbd1141bc	-0.03546308
82	0xbc69e78b	-0.014276396
83	0x3ca57be6	0.020200681
84	0x3c0245c0	0.0079512
85	0x3be71016	0.007051478
86	0xbd144d3a	-0.03620646
87	0xbc7f5510	-0.015584245
88	0xbca7f3f0	-0.02050206
89	0xbcde024e	-0.027100708
90	0x3c8ce69b	0.017199805
91	0xbce39180	-0.02777934
92	0xbcd2dcde	-0.025740083
93	0xbc993e53	-0.018706476
94	0xbcc2b79b	-0.02376919
95	0xbb3ecf40	-0.002911523
96	0xbcb793c6	-0.022409331
97	0x3b0185eb	0.001976366
98	0x3b55c1eb	0.0032616805
99	0x3d065d5b	0.032803874
100	0x3d10f44a	0.035389222
101	0x3cc44828	0.023960188
102	0xbd03d3bc	-0.032184348
103	0xbd2a8bd4	-0.041637257
104	0xbcb50f66	-0.02210207
105	0x3cddbc30	0.027067274
106	0xbc214d30	-0.009845063
107	0x3c53f720	0.012937337
108	0x3b3f86c0	0.0029224604
109	0x3be2e0cb	0.00692377
110	0xbcbd6f4e	-0.023124363
111	0x3cc260b8	0.02372776
112	0x3cf05576	0.029337626
113	0x3d124b42	0.035716303
114	0xbd1ab587	-0.037770774
115	0x3cecd836	0.028911691
116	0xbbd70760	-0.0065621585
117	0x3c0328d6	0.0080053415
118	0x3d2419ca	0.040063657
119	0x3cb7ae96	0.022422116
120	0xbd29318b	-0.041307013
121	0xbca00798	-0.019534871
122	0x3c34f220	0.011044055
123	0x3d01080a	0.031501807
124	0xbcc7cb76	-0.02438901
125	0xbcd761f0	-0.026291817
126	0x3c75ee26	0.015010392
127	0xbce0cf7e	-0.02744269
128	0xbc7f699b	-0.015589143
129	0x3d12e6e0	0.03586471
130	0x3cce553e	0.025187131
131	0x3c926c60	0.017873943
132	0x3bef364b	0.0073001734
133	0xbd0e5e9f	-0.034758206
134	0xbcfa9abe	-0.030591365
135	0xbd0558cf	-0.032555398
136	0xbc366bc0	-0.011134088
137	0x3ac12d56	0.0014738243
138	0x3d26397e	0.040582173
139	0x3b81fdb6	0.0039670123
140	0xbcf476db	-0.029841831
141	0x3c96c100	0.018402576
142	0xbd177c9a	-0.036984064
143	0xbc379020	-0.011203796
144	0x3cccc3ee	0.02499577
145	0xbae4952b	-0.0017439475
146	0xbd0ff344	-0.035144106
147	0xbc6eb5db	-0.014569725
148	0x3c6b34ab	0.014355819
149	0xbd06d972	-0.032922216
150	0xbc94a10e	-0.018143203
151	0xbc2f21a6	-0.010689175
152	0xbd1d298f	-0.03836971
153	0x3d17380e	0.036918692
154	0x3d0be223	0.034151208
155	0x3c20a870	0.009805784
156	0x3d0ad9bb	0.03389905
157	0x3bc76a4b	0.006085669
158	0x3c0a72bb	0.008450205
159	0x3c968656	0.018374603
160	0xbce08c23	-0.027410572
161	0xbca62c4b	-0.020284792
162	0xbbec5280	-0.007211983
163	0xbd1d1a98	-0.03835544
164	0xbcbc88b3	-0.023014402
165	0xbd0c1746	-0.034201883
166	0xbc15a3eb	-0.009133319
167	0x3ceb4ef8	0.028724179
168	0xbcbbedb3	-0.022940492
169	0xbb5502d6	-0.003250291
170	0x3d1d8e72	0.038465925
171	0x3c4d7bf0	0.012541756
172	0xbcd23cab	-0.025663694
173	0x3cd1cf5b	0.02561157
174	0x3be1fc36	0.006896521
175	0x3b6a0c6b	0.0035712968
176	0xbb3b3e40	-0.002857104
177	0x3cc2f5d0	0.023798853
178	0x3c315506	0.010823494
179	0x3d00acdf	0.031414863
180	0xbd182fbb	-0.037154894
181	0xbd1bfa4a	-0.03808049
182	0xbc3729c0	-0.011179388
183	0xbc862cb0	-0.01637873
184	0x3c3dd086	0.01158536
185	0x3d2434cf	0.040089425
186	0x3cd14fee	0.025550809
187	0x3cd891a8	0.026436642
188	0x3c2bd66b	0.010488133
189	0x3cbbf92b	0.022945961
190	0xbca240db	-0.019806316
191	0x3d14c830	0.036323726
192	0x3bcb75eb	0.0062091253
193	0x3b4f3600	0.003161788
194	0xbcb265db	-0.021777084
195	0xbc91df9b	-0.017806819
196	0x3d03a31e	0.032137983
197	0x3c26674b	0.010156463
198	0x3cf32a5e	0.029683288
199	0x3cf0801b	0.02935796
200	0x3c4751fb	0.012165542
201	0xbb9e5840	-0.0048322976
202	0xbc842ba0	-0.016134083
203	0xbcce0e1b	-0.02515321
204	0xbcf1a4cb	-0.029497525
205	0xbc8194b3	-0.015817976
206	0x3be91f4b	0.007114326
207	0xbd198ba7	-0.0374867
208	0xbcebf6e3	-0.028804248
209	0xbced1856	-0.028942268
210	0xbcaea178	-0.021317229
211	0x3aec1800	0.0018012524
212	0x3c7ac436	0.015305569
213	0xbcf1b7a8	-0.02950652
214	0x3bd303cb	0.006439661
215	0x3bd2c60b	0.0064323
216	0x3cb4fb20	0.022092402
217	0xbca18cce	-0.019720461
218	0x3d1b4f38	0.037917346
219	0xbcb9f978	-0.022701964
220	0x3c397c56	0.011321148
221	0xbcfad9e3	-0.030621475
222	0xbcc1ab08	-0.023641124
223	0xbc2024bb	-0.009774382
224	0x3d068827	0.03284469
225	0x3b10add6	0.002207627
226	0xbc65de80	-0.014030099
227	0xbcb14bb6	-0.021642547
228	0x3c3ad1f6	0.011402598
229	0xbaa7d580	-0.0012804717
230	0xbc433096	-0.011913439
231	0xbd0a2318	-0.033724874
232	0x3ca17f70	0.019714087
233	0x3c1ce710	0.009576574
234	0xbd039f70	-0.032134473
235	0x3c145610	0.009053722
236	0x3d22b153	0.03971989
237	0x3cd38240	0.025818944
238	0xbcf19828	-0.029491499
239	0xbc9c18c3	-0.019054776
240	0x3cf42ae3	0.029805606
241	0xbca56023	-0.020187443
242	0xbc34a74b	-0.011026214
243	0x3c5c952b	0.013463299
244	0xbc15e24b	-0.009148191
245	0xbcaa866b	-0.020816049
246	0xbd059d78	-0.032620877
247	0xbcbe69eb	-0.023243865
248	0x3c43b080	0.011943936
249	0xbc9d6ea3	-0.019217795
250	0xbcdd4a78	-0.027013049
251	0x3cef8498	0.02923803
252	0xbcfddb16	-0.030988257
253	0xbce75a5b	-0.028241327
254	0x3b332500	0.0027335286
255	0x3c93097b	0.017948857

conv2.bias f4 [64]
0	0xbd1db0a3	-0.038498532
1	0xb9bcd00d	-0.00036013164
2	0xbbb20906	-0.0054332046
3	0xbc32c834	-0.01091199
4	0xbd0e9862	-0.034813292
5	0x3cfcffdd	0.030883724
6	0xbd44f970	-0.048089445
7	0x3cf0b738	0.02938424
8	0x3bf0944f	0.0073418985
9	0x3c78bfd2	0.015182452
10	0x3d099efb	0.03359888
11	0x3b86cc26	0.004113692
12	0xbcd098f8	-0.025463566
13	0xbd22bb6c	-0.03972952
14	0x3cac4f66	0.021033954
15	0xbd270e59	-0.040785167
16	0x3d05d01f	0.032669183
17	0xbd34e5da	-0.044164516
18	0xbd122f66	-0.035689734
19	0x3cc642f5	0.02420185
20	0xbd1a17c0	-0.037620306
21	0xbc118be9	-0.008883455
22	0xbd0d4318	-0.034487814
23	0xbc7622ab	-0.015022914
24	0xbd107349	-0.035266194
25	0xbd16b2f0	-0.03679174
26	0x3cbb9235	0.022896865
27	0x3b7d3a17	0.003863936
28	0xbcb51780	-0.022105932
29	0xbc0e4ae5	-0.008684848
30	0xbd31143e	-0.043232195
31	0xbd0f7d5d	-0.035031665
32	0x3b8bb1c5	0.004263135
33	0xbc275013	-0.010211962
34	0x3cb3e9e8	0.021962121
35	0xbd164d93	-0.036695074
36	0xbbe6cbfc	-0.00704336
37	0x3d0c7b07	0.034297016
38	0x3b9fcf6c	0.0048770215
39	0x3cda7e89	0.026671665
40	0x3c0684ba	0.008210355
41	0xbca37b3b	-0.019956222
42	0xbd052e7f	-0.032515045
43	0x3d0a64e8	0.033787638
44	0xbc1431a3	-0.009045037
45	0xbb7271b9	-0.0036994054
46	0xbcc1cab0	-0.02365622
47	0x3cc01726	0.023448538
48	0x3c3f9f63	0.011695716
49	0xbd0f26ee	-0.034949236
50	0xbcde93d7	-0.027170105
51	0xbd0a7f10	-0.033812582
52	0x3a7244ae	0.00092418015
53	0xbb1824ad	-0.002321522
54	0xbb847656	-0.004042427
55	0xbd471a5c	-0.048609123
56	0xbc98d442	-0.0186559
57	0x3c6d58a0	0.014486462
58	0xbd13e8d2	-0.036110707
59	0x3c75dd6c	0.015006404
60	0x3cde7c40	0.027158856
61	0x3a0d034e	0.00053792156
62	0xbd167c0c	-0.036739394
63	0xbcc01cda	-0.023451257

conv3.weight f4 [64, 64, 3, 3]
0	0x3d22f7a7	0.03978696
1	0x3ac6bc80	0.0015162379
2	0xbc564066	-0.013076877
3	0xbc09f74b	-0.008420776
4	0x3d0901b7	0.0334489
5	0xbd158b52	-0.03650982
6	0x3d0a9cfc	0.03384112
7	0x3d04fe2f	0.03246897
8	0x3d081e0e	0.033231787
9	0x3cf84c7d	0.03030991
10	0xbceab230	-0.02864942
11	0x394b1000	0.00019365549
12	0x3d48a326	0.048983715
13	0x3acbd622	0.0015551487
14	0xbcfbb940	-0.030727983
15	0x3d151e0a	0.0364056
16	0x3bac6b9d	0.005261852
17	0x3d54a543	0.05191542
18	0xbb8f9040	-0.0043812096
19	0x3c412116	0.011787673
20	0xbd08c928	-0.033394963
21	0xbcab677e	-0.020923372
22	0xba8a03c2	-0.0010529684
23	0xbd170edb	-0.0368794
24	0xbafd3056	-0.0019316773
25	0x3d0c6690	0.0342775
26	0xbd279154	-0.04091008
27	0xbcb93c60	-0.022611797
28	0x3ba0433b	0.004890827
29	0x3cd2bc54	0.025724567
30	0x3ca05450	0.019571453
31	0xbd409a25	-0.047022004
32	0x3c9a3bf3	0.018827414
33	0xbcba8010	-0.022766143
34	0xbc22dfe6	-0.009941077
35	0xbd036198	-0.032075495
36	0x3b148c96	0.0022666804
37	0xbc670f6a	-0.014102796
38	0x3c258d6b	0.010104517
39	0xbcc7f974	-0.02441094
40	0xbd164224	-0.03668417
41	0xbd1b4826	-0.037910603
42	0x3bb42e25	0.005498665
43	0xbd1665dc	-0.036718234
44	0xbd0f1dd2	-0.03494055
45	0xbca478d6	-0.02007715
46	0x3d5c5cf6	0.053799592
47	0x3d4ad65a	0.049520828
48	0xbc431815	-0.011907597
49	0x3c70cc26	0.01469711
50	0x3ddf6ef7	0.10909837
51	0xbc3f030e	-0.011658443
52	0x3c1039ce	0.008802844
53	0x3d73e5d0	0.05954534
54	0x3d2a4bf6	0.04157635
55	0x3d213d8c	0.039365336
56	0xbcdf3dd6	-0.027251165
57	0xbb0040d7	-0.0019569898
58	0x3d185ce5	0.037197966
59	0x3c941169	0.018074708
60	0xbcc69e0b	-0.024245283
61	0xbb7fa540	-0.0039008409
62	0x3cd1965e	0.025584396
63	0x3c8d551d	0.0172525
64	0x3d06b962	0.03289164
65	0xbcb3f321	-0.021966519
66	0x3b3bc3c4	0.002865062
67	0x3d128cc9	0.035778794
68	0x3d175535	0.036946494
69	0x3d07e0be	0.033173315
70	0xbd296437	-0.041355338
71	0x3cea2746	0.02858318
72	0x3d14b8df	0.03630912
73	0x3c6c6e33	0.01443057
74	0x3cecddbb	0.028914323
75	0xbd2ccd66	-0.04218807
76	0xbcd76257	-0.02629201
77	0x3c56b64a	0.013104985
78	0xbd087330	-0.033312976
79	0xbcfc5e1e	-0.030806597
80	0xbd0b59f9	-0.03402135
81	0xbcbf38c7	-0.023342503
82	0xbc1d8104	-0.009613279
83	0x3c87e3ca	0.01658811
84	0x3ad061c8	0.0015898282
85	0xbb94d706	-0.0045422344
86	0xbcf78b0e	-0.030217674
87	0x3b97a2c6	0.0046275584
88	0x3d22f594	0.039784983
89	0xbc507b0d	-0.01272465
90	0xbccc6626	-0.024951052
91	0x3c81fd38	0.015867814
92	0x3cb44ade	0.022008356
93	0xbc629056	-0.013828358
94	0xbcdea765	-0.02717943
95	0x3cb67c3f	0.022276042
96	0xbd23779b	-0.039908987
97	0xbc967f7b	-0.018371334
98	0xbd0e2d0f	-0.03471094
99	0xbb8c3257	-0.004278462
100	0x3c07a727	0.008279598
101	0xbceba418	-0.02876477
102	0x3caafe70	0.020873278
103	0x3d2f15cb	0.042745393
104	0xbcea40d0	-0.028595358
105	0x3c2b644e	0.010460926
106	0x3cd63a71	0.026150914
107	0xbd0dcd18	-0.03461942
108	0xbc033aaa	-0.008009592
109	0xbd299a6d	-0.041407038
110	0xbcf4352e	-0.029810514
111	0xbd1c4711	-0.03815371
112	0xbd0c1821	-0.0342027
113	0x3d163bf5	0.036678273
114	0x3ad4aa95	0.0016225154
115	0xbd019c2b	-0.031643074
116	0x3c05f303	0.008175614
117	0xbd0e6526	-0.03476443
118	0xbbc4ea95	-0.0060094097
119	0x3d02cbe4	0.031932727
120	0xbc02927d	-0.007969496
121	0x3d35855b	0.04431663
122	0x3d1614dc	0.036640987
123	0x3d201a32	0.03908748
124	0x3c3d9321	0.011570723
125	0x3c6a7243	0.014309469
126	0xbce5e7a5	-0.028064558
127	0x3cb90c62	0.022588912
128	0x3c857643	0.016291743
129	0xbbd9a981	-0.006642521
130	0x3bb7faba	0.0056146057
131	0xbcf65ae2	-0.030072633
132	0x3d0d6792	0.0345226
133	0x3c8dc131	0.017304035
134	0xbcfb26ab	-0.030658087
135	0xbb8fe66a	-0.004391481
136	0xbc560c50	-0.013064459
137	0x3d197c34	0.037471965
138	0xbc93f407	-0.018060697
139	0xbc77c0b3	-0.015121627
140	0xbc7349b0	-0.014849111
141	0x3c457d18	0.01205375
142	0x3b9a0400	0.004700184
143	0xbd1c3416	-0.03813561
144	0x3cfaabe3	0.03059954
145	0x3d1cb088	0.03825429
146	0xbbee6df5	-0.0072762915
147	0x3c37ccdf	0.011218279
148	0x3bca5d61	0.0061756824
149	0xbc89a749	-0.0168034
150	0x3d1f0795	0.03882559
151	0x3d1fe32a	0.039035
152	0xbb337aa1	-0.0027386325
153	0xbd14517e	-0.03621053
154	0xbd1a3034	-0.037643626
155	0x3b37ecc4	0.0028064707
156	0xbc854e05	-0.016272554
157	0xbd284e77	-0.041090455
158	0x3cba5401	0.022745134
159	0x3c4d0085	0.012512331
160	0xbd245d62	-0.04012812
161	0xbbefe11d	-0.0073205368
162	0x3c8e5e66	0.017378997
163	0xbac0bbaa	-0.0014704366
164	0xbd0b5013	-0.03401191
165	0xbc0ed03b	-0.008716638
166	0xbcdac594	-0.02670554
167	0xbb9d4682	-0.004799665
168	0xbd231a52	-0.039820023
169	0xbd0a7f0c	-0.033812568
170	0xbd1ba2ec	-0.03799717
171	0xbc8a032f	-0.016847221
172	0xbd510c28	-0.051036984
173	0xbd67c76b	-0.056586664
174	0xbdde9599	-0.10868377
175	0xbdbf406f	-0.093384616
176	0xbd85ac64	-0.065270215
177	0xbe015b85	-0.12632568
178	0xbe6cbc8b	-0.23118798
179	0xbe090563	-0.13380961
180	0xbcf1b52e	-0.029505339
181	0x3c62b270	0.013836488
182	0xbc3ed0e4	-0.011646483
183	0x3c79092b	0.01519994
184	0xbd0b62c3	-0.034029733
185	0xbce1369a	-0.027491856
186	0xbcf15153	-0.029457724
187	0xbc09de49	-0.008414813
188	0x3a912999	0.0011075019
189	0x3d118442	0.03552652
190	0xbcda0fed	-0.026618922
191	0xbcdba9f2	-0.026814435
192	0x3b584c26	0.0033004372
193	0x3c840b81	0.016118767
194	0x3cec93a1	0.028878989
195	0x3c94b9f0	0.018155068
196	0xbc3ac626	-0.011399781
197	0x3cd25878	0.02567695
198	0x3cae7380	0.021295309
199	0xbcaf6aca	-0.021413226
200	0x3b39a305	0.0028325927
201	0xbc1e1fad	-0.009651107
202	0x3d06973e	0.03285908
203	0x3c5d3354	0.013501007
204	0xbca49d4a	-0.020094533
205	0xbc8e8ce4	-0.017401166
206	0x3bf9204d	0.0076027275
207	0xbcf4ba67	-0.02987404
208	0x3cfc25df	0.030779777
209	0x3bac26b0	0.0052536353
210	0x3bc554ba	0.006022063
211	0x3d1b900e	0.037979178
212	0x3d1551a1	0.0364548
213	0x3c084bab	0.008318822
214	0xbd067de2	-0.032834895
215	0xbbbc1c38	-0.0057406686
216	0xbb7b58c0	-0.003835246
217	0x3c327a8d	0.010893476
218	0x3d1980eb	0.03747646
219	0x3d20f777	0.0392985
220	0xbd2e12d3	-0.04249842
221	0xbc58adc2	-0.013225021
222	0x3c88fa58	0.016720936
223	0xbc92d88e	-0.017925527
224	0xbd0dd79c	-0.03462945
225	0x3cfed558	0.03110759
226	0x3b921164	0.0044576395
227	0xbc9b21da	-0.01893704
228	0x3c993362	0.018701259
229	0x3ccf22ae	0.025285091
230	0xba6d3620	-0.0009048898
231	0x3d2498e0	0.040184855
232	0xbcd05803	-0.025432592
233	0x3c97ef8f	0.018546848
234	0xbd0bf23f	-0.03416657
235	0x3ccd2978	0.025044188
236	0xbc8e2aec	-0.017354451
237	0xbc0f1663	-0.008733365
238	0x3d2114f5	0.039326627
239	0xbc8cb65c	-0.0171768
240	0xbc67d4eb	-0.014149885
241	0xbcd67f6f	-0.026183812
242	0x3c6c72d2	0.014431672
243	0xbcb06b00	-0.021535397
244	0xbd90565c	-0.07047722
245	0xbd218392	-0.039432116
246	0xbdfc0d5b	-0.12307235
247	0xbdf8b110	-0.12143147
248	0xbd8a9b69	-0.067679234
249	0xbd6f428f	-0.058413085
250	0xbe17dd61	-0.14830543
251	0xbdecd162	-0.11563374
252	0xbcf31dd1	-0.029677304
253	0xbb55160b	-0.003251436
254	0x3c976a12	0.018483195
255	0x3d1cb9b9	0.038263056

conv3.bias f4 [64]
0	0xbc985384	-0.01859451
1	0x3d4ae23e	0.049532168
2	0xbbf318d7	-0.0074187326
3	0xbd541257	-0.051775303
4	0xbc8137f7	-0.015773756
5	0xbd0f0c48	-0.03492382
6	0xbdd1dd7d	-0.10247324
7	0xbc12e362	-0.008965345
8	0xbc19ec96	-0.009394785
9	0xbcde6b57	-0.027150793
10	0x3b63b1a5	0.0034743336
11	0xbc2fb3a8	-0.010723986
12	0xbd1585c5	-0.036504526
13	0x3c5e63fd	0.013573644
14	0x3cf56d7e	0.029959437
15	0xbb479573	-0.003045407
16	0x3be571eb	0.0070021055
17	0x3c87938e	0.016549852
18	0xbd240db8	-0.040052146
19	0x3cc19292	0.02362946
20	0xbcd653c6	-0.026162993
21	0x3c268f19	0.010165953
22	0xbc9bed55	-0.019034067
23	0x3d56948b	0.052387755
24	0x3d36a826	0.044593953
25	0x3c138b33	0.009005356
26	0xbc820e37	-0.015875919
27	0x3d46ea4e	0.048563294
28	0xbca030e4	-0.019554563
29	0xbc90f5b8	-0.017695293
30	0xbdb622e0	-0.08893371
31	0xbca880a0	-0.020569146
32	0xbabbfc87	-0.0014342227
33	0xbd081e47	-0.033232
34	0xbd0eb3e7	-0.034839537
35	0xbc0c6983	-0.008570078
36	0xbc65a840	-0.014017165
37	0x3d445f8e	0.04794269
38	0x3bfa9b86	0.0076479344
39	0xbcb0b219	-0.021569299
40	0x3ca7fd8d	0.020506645
41	0xbc934a90	-0.01797989
42	0xbc57ff34	-0.013183404
43	0x3d3362fd	0.043795574
44	0xbd1bc910	-0.038033545
45	0x3cd7e7a6	0.026355576
46	0x3b3637e9	0.002780432
47	0xbd119400	-0.035541534
48	0x3d1bb9e4	0.038019076
49	0x3b57db9a	0.003293729
50	0xbd259d53	-0.04043324
51	0x3aba4a73	0.0014212861
52	0xbc945d3a	-0.01811086
53	0xbc69d9b6	-0.014273098
54	0xbd2a4e8a	-0.041578807
55	0xbc96db29	-0.01841505
56	0x3c9cc074	0.019134738
57	0x3cde925b	0.027169397
58	0x3d2231f9	0.03959844
59	0xbcb177c5	-0.021663556
60	0x3c64a516	0.013955375
61	0x3d95411e	0.07287811
62	0xbd25120c	-0.040300414
63	0xbd1a509a	-0.037674524

conv4.weight f4 [64, 64, 3, 3]
0	0xbe934f10	-0.28771257
1	0xbe9080fa	-0.282234
2	0xbdc6d6ee	-0.09708963
3	0xbdbeecc0	-0.093225
4	0xbe21f055	-0.15814336
5	0xbdcb1cb8	-0.09917587
6	0x3e2b226c	0.1671235
7	0x3c77525a	0.015095318
8	0xbd31c1f2	-0.04339785
9	0xbd04c6d9	-0.0324162
10	0xbdd6297d	-0.10457132
11	0xbdd75fc9	-0.105163164
12	0xbd8b131d	-0.06790755
13	0xbd8625f8	-0.06550211
14	0xbd85715f	-0.065157644
15	0xbd61d370	-0.055133283
16	0xbdc9c280	-0.09851551
17	0xbe121a68	-0.14267886
18	0xbd38445a	-0.04498706
19	0xbc8cea6d	-0.017201627
20	0x39856538	0.0002544315
21	0xbb648f57	-0.0034875476
22	0x3bc06a1e	0.005872025
23	0xbcd82da4	-0.02638895
24	0xbcedfaa5	-0.02905018
25	0xbd128da1	-0.0357796
26	0xba3475d6	-0.0006884014
27	0x3c5add1f	0.013358383
28	0x3cf502df	0.029908596
29	0x3b818289	0.0039523286
30	0x3c62beff	0.013839482
31	0xbd0b0601	-0.033941273
32	0xbd0d7054	-0.034530953
33	0xba38ff81	-0.0007057116
34	0x3b77d8ba	0.0037818388
35	0x3d07a8e0	0.033120036
36	0x3c3d6403	0.011559489
37	0x3c83a52f	0.016069977
38	0xbc34545d	-0.011006442
39	0x3c86f3f9	0.016473757
40	0xbd18cb31	-0.037303153
41	0xbd57fcfb	-0.052731495
42	0x3ca4552c	0.020060144
43	0xbbc2e46f	-0.0059476416
44	0xbca67e25	-0.020323822
45	0xbd36babc	-0.044611678
46	0x3bc7c105	0.006096008
47	0xbd014ab8	-0.031565398
48	0xbccabeb5	-0.02474914
49	0x3c145280	0.009052873
50	0xbcbe69da	-0.023243833
51	0x3c5a8133	0.013336468
52	0xbd0f4e5f	-0.03498685
53	0xbcf649fd	-0.030064577
54	0xbe49a387	-0.19691287
55	0xbe3c9f53	-0.18420152
56	0xbd5b9998	-0.053613275
57	0xbe18c93b	-0.14920513
58	0xbe1cd8aa	-0.15317026
59	0xbe03f3f9	-0.12886037
60	0x3cd91f61	0.02650422
61	0xbda6885c	-0.08131477
62	0xbddcb365	-0.10776404
63	0x3c19c89a	0.009386206
64	0xba63f423	-0.0008695742
65	0xbd13c778	-0.0360789
66	0x3cf81d2a	0.030287344
67	0xbad7b0c1	-0.0016455875
68	0x3c7ba793	0.015359777
69	0xbcd901c5	-0.026490102
70	0x3a2eca7b	0.0006667745
71	0xbd0cdf2e	-0.03439253
72	0xbc263be4	-0.010146115
73	0xbd30dfcb	-0.043182176
74	0xbdd46811	-0.103714116
75	0x3d205b43	0.039149534
76	0x3cf0a20a	0.029374141
77	0xbb91b5db	-0.0044467277
78	0xbccda7f9	-0.02510451
79	0xbc9e0670	-0.019290179
80	0xbcdef5dc	-0.027216844
81	0xbc7e114e	-0.015507055
82	0x395fc1b9	0.00021339105
83	0xbb617245	-0.0034400385
84	0x3caa4e99	0.020789431
85	0x3d1df59f	0.03856432
86	0xbc6914ba	-0.014226133
87	0xbd4181f0	-0.04724306
88	0xbd4446fd	-0.047919262
89	0xbd3cf6b0	-0.046133697
90	0xbd26ac34	-0.04069157
91	0x3ca2b7a8	0.019862965
92	0xbc21035f	-0.009827464
93	0xbbe577ae	-0.0070027923
94	0x3bcb1976	0.0061981035
95	0xbc00f14b	-0.007870029
96	0xbcfb31bf	-0.03066337
97	0x3bbd4de4	0.0057771076
98	0x3cd2fe14	0.02575592
99	0x3d0ea624	0.034826413
100	0x3a709a96	0.00091783085
101	0x3cf24df6	0.02957819
102	0xbcb30013	-0.021850621
103	0xbd19615d	-0.03744637
104	0x3c3388a0	0.010957867
105	0x3c7b5a85	0.015341406
106	0x3c1675f0	0.009183392
107	0xbc6cec1d	-0.014460591
108	0xbcf012d8	-0.02930586
109	0x3d2c8c89	0.042126212
110	0xbc26f12b	-0.010189335
111	0xba577c24	-0.00082200975
112	0xbc9cd265	-0.019143293
113	0xbd08e580	-0.033421993
114	0x3a2e8003	0.00066566485
115	0x3c36d049	0.0111580575
116	0x3c5d2ab7	0.013498954
117	0x3ca10805	0.019657144
118	0x3ac033c2	0.0014663863
119	0x3c3254e0	0.010884494
120	0x3c9db205	0.019249925
121	0x3c10ac4c	0.008830141
122	0xbd312890	-0.043251574
123	0xbd16132e	-0.036639385
124	0xbbae9dc6	-0.0053288667
125	0x3bdaa316	0.0066722734
126	0x3d63c7c1	0.055610422
127	0x3c0f3b59	0.008742177
128	0x3bf0bd90	0.0073468164
129	0x3d1e204a	0.038605012
130	0x3d1babe5	0.03800573
131	0x3d18c814	0.037300184
132	0x3d112136	0.035432063
133	0x3dd44213	0.10364165
134	0x3d8cf1d5	0.06882063
135	0x3d0fdcf1	0.035122816
136	0x3ba85749	0.0051373583
137	0xbcf807db	-0.030277183
138	0xbd26d42c	-0.040729687
139	0xbd2453b5	-0.04011889
140	0xbd265335	-0.040606696
141	0xbca4761b	-0.020075848
142	0xbd0b3d58	-0.03399405
143	0x3af1fd93	0.0018462412
144	0x3d29b083	0.0414281
145	0x3c2b2b13	0.010447281
146	0x3cf72d59	0.03017299
147	0xbd318c8b	-0.043346923
148	0xbc9bc00e	-0.019012477
149	0x3cb38f8a	0.02191903
150	0x3ce432c0	0.02785623
151	0xb8c615f0	-9.445462e-05
152	0xbba4b324	-0.005026238
153	0x3d9487bc	0.07252452
154	0x3d915b1d	0.070974566
155	0x3c4f816d	0.012665135
156	0x3d1379f7	0.036004987
157	0x3d973a6f	0.07384192
158	0xbe87d56a	-0.2653001
159	0x3d348b78	0.04407832
160	0x3dda61f2	0.10663213
161	0xbee6475f	-0.44976327
162	0xbb2c42a2	-0.0026284833
163	0xbce70f80	-0.028205633
164	0x3bf89ac7	0.0075868103
165	0x3cc6c4f1	0.02426383
166	0xbcb565ec	-0.022143327
167	0xbd4933e8	-0.049121767
168	0x3cfcf6ec	0.03087946
169	0xbcecec88	-0.02892138
170	0x3cc25f14	0.023726977
171	0xbc30dad2	-0.010794358
172	0x3b189850	0.0023284145
173	0xbc3e3a9a	-0.011610651
174	0x3bc9b218	0.0061552636
175	0x3c8b3d09	0.016996877
176	0x3bdeedeb	0.0068032644
177	0xbbcefeda	-0.006317002
178	0x3b68035a	0.0035402388
179	0x3c95b611	0.018275293
180	0x3cdc5082	0.026893858
181	0xbd4340a6	-0.047669075
182	0xbbb70196	-0.005584906
183	0x3cd58659	0.026065039
184	0xbcf41ba6	-0.02979834
185	0x3c4bc3c6	0.012436813
186	0x3c874c99	0.016516017
187	0xbcbe966f	-0.023265092
188	0x3cb7c842	0.022434358
189	0xb96596ec	-0.00021895365
190	0xba77a727	-0.000944721
191	0x3c0417d0	0.008062318
192	0x3cdc521a	0.026894618
193	0x3bec3df9	0.007209536
194	0xbbfe56a5	-0.0077617937
195	0xbcac8db2	-0.02106366
196	0xbcf30875	-0.029667119
197	0xbca3076b	-0.019900998
198	0xbc87b31f	-0.016564904
199	0xbd1fd6ee	-0.039023332
200	0x3ce21fde	0.027603086
201	0xbc8d10fe	-0.017220017
202	0x3c287cbc	0.010283645
203	0x3c9bf08a	0.019035596
204	0x3ce89696	0.028392117
205	0xbb5e644e	-0.0033934298
206	0x3d19c2ac	0.03753917
207	0x3c73fc1e	0.014891652
208	0x3c5f20c6	0.013618654
209	0x3cf55632	0.029948328
210	0xbe0a85cc	-0.13527602
211	0xbdc07797	-0.0939781
212	0xbdaf5730	-0.085615516
213	0x3ad5f7da	0.0016324476
214	0xbd08f521	-0.0334369
215	0x3c87a86f	0.016559808
216	0x3b6549fb	0.0034986723
217	0x3d494ac6	0.049143575
218	0x3e2ac800	0.16677856
219	0xbd1513d8	-0.036395878
220	0xbc631ba2	-0.013861569
221	0x3e05a435	0.13050921
222	0xbd7cc729	-0.06171337
223	0xbcc0b7a8	-0.023525074
224	0x3c2e71ff	0.010647296
225	0x3bd4bcfc	0.0064922553
226	0x3c2ca4e0	0.010537356
227	0x3c8f6195	0.017502585
228	0xbd7f36e7	-0.06230822
229	0xbd33eff3	-0.043930005
230	0xbc9c041e	-0.019044932
231	0xbc3d8ada	-0.011568749
232	0xbd304343	-0.043032896
233	0xbc57fa64	-0.013182256
234	0xbc4f4bb4	-0.012652326
235	0xbd017e6c	-0.031614706
236	0x3c84b02f	0.016197292
237	0xbbd75d7f	-0.006572425
238	0xbb8429c7	-0.0040333006
239	0x3bda7dea	0.006667842
240	0xbd20080c	-0.039070174
241	0xbd2bc07c	-0.041931614
242	0xbd37595e	-0.04476296
243	0xbd1dcaa7	-0.038523342
244	0xbcc862be	-0.024461146
245	0xbcafe6c9	-0.021472352
246	0xbc805f0b	-0.01567032
247	0xbdaca63b	-0.084301434
248	0xbcc18873	-0.023624634
249	0xbd7eda2c	-0.062219784
250	0xbc895c05	-0.016767511
251	0xbd61cabf	-0.055124994
252	0xbc439746	-0.011937922
253	0xbd1c5b17	-0.038172808
254	0xbc5981a1	-0.013275535
255	0x3d14859b	0.03626023

conv4.bias f4 [64]
0	0x3cb0a27e	0.021561857
1	0x3ba7abb4	0.005116904
2	0xbd705b66	-0.058680914
3	0x3d07dd39	0.03316996
4	0x3d0be208	0.034151107
5	0x3d0901ef	0.03344911
6	0x3ce0f009	0.027458208
7	0x3b521fbd	0.0032062375
8	0x3d1ecf71	0.03877205
9	0x3cab4443	0.020906573
10	0x3d402d15	0.046917994
11	0xbd7d0fe2	-0.061782725
12	0xbc56dfc3	-0.013114872
13	0xbc9185ca	-0.01776399
14	0x3cf00958	0.02930133
15	0x3cf01c65	0.029310415
16	0xbc26076b	-0.0101336045
17	0xbd50339b	-0.050830465
18	0x3b82268c	0.0039718803
19	0x3d460af0	0.048350275
20	0xbd3a9884	-0.045555606
21	0xbd0168e3	-0.03159417
22	0x3d635c3c	0.055507883
23	0xbcb8f82d	-0.022579277
24	0x3cd39510	0.025827914
25	0x3b5e743f	0.00339438
26	0x3c6735c5	0.014111941
27	0xbd42344e	-0.047413163
28	0x3c9ba146	0.0189978
29	0x3cafee13	0.021475827
30	0xbd2ffe80	-0.04296732
31	0x3d4f09c0	0.050546408
32	0xbd3710ff	-0.044693943
33	0x3a396a79	0.00070730556
34	0x3d01bfca	0.031677045
35	0xbc9c8937	-0.019108398
36	0xbcdc10f7	-0.026863558
37	0x3d0fd730	0.03511733
38	0x3d13ae6f	0.036055025
39	0x3cd2a5e9	0.025713878
40	0x3d3cf5ce	0.046132855
41	0x3c50c81d	0.012743023
42	0x3cb46010	0.022018462
43	0x3b710032	0.0036773798
44	0xbcf2a4ef	-0.029619662
45	0xbc8dc3f8	-0.01730536
46	0xbc8cb87d	-0.017177815
47	0xbd8fe71d	-0.07026503
48	0x3be44f74	0.0069674794
49	0xbd372b60	-0.0447191
50	0x3d31a5d4	0.043371037
51	0x3d107a8b	0.035273116
52	0x3d955122	0.072908655
53	0x3d1399a8	0.03603521
54	0xbb533826	-0.0032229512
55	0x3c2872ef	0.010281309
56	0x3a7a1bee	0.0009540905
57	0x3ca6bfdb	0.020355156
58	0xbd30ad13	-0.043133806
59	0x3d26315c	0.040574417
60	0x3d819759	0.063276954
61	0x3d5dedf2	0.054182
62	0x3bdd5345	0.0067543113
63	0xbcf6449d	-0.030062014

conv5.weight f4 [64, 64, 3, 3]
0	0xbdbfe1fd	-0.09369276
1	0x3d7ec308	0.062197715
2	0x3d87a54a	0.06623323
3	0xbe160ea6	-0.14654025
4	0x3dafbc4e	0.08580838
5	0x3ca20bce	0.01978102
6	0xbe745b58	-0.2386297
7	0x3ce79707	0.028270258
8	0xbd252b6f	-0.040324625
9	0xbd3ab90c	-0.04558663
10	0x3d4ae7e9	0.049537573
11	0x3cf1353b	0.029444328
12	0xbdb7ed5c	-0.089808196
13	0x3dea2f89	0.11434848
14	0x3cecbfe9	0.028900104
15	0x3b4a97ea	0.0030913302
16	0xbb565c55	-0.0032708843
17	0xbdad98f3	-0.084764384
18	0x3cd86e8c	0.0264199
19	0xbd10bfb4	-0.035339072
20	0x3b60b5cb	0.0034288045
21	0xbc023137	-0.007946304
22	0x3b1e5295	0.002415811
23	0xbd5a6a20	-0.053323865
24	0xbc4173e1	-0.011807413
25	0x3cbadff7	0.022811873
26	0x3cafa270	0.02143976
27	0x3c90c5f5	0.017672518
28	0xbd18a026	-0.037262104
29	0xbb727e85	-0.003700168
30	0x3b3823d7	0.0028097534
31	0xba4c8007	-0.000780106
32	0x3dcea83d	0.10090683
33	0x3c75b266	0.014996147
34	0x3d106202	0.035249718
35	0x3d9ff895	0.07811085
36	0xbd98481a	-0.07435627
37	0x3dd0595f	0.10173296
38	0x3e848eda	0.25890237
39	0xbc3b0b6b	-0.0114162965
40	0xbd1ea4ab	-0.03873126
41	0x3e396694	0.18105537
42	0x3e1192db	0.14216177
43	0xbe30e6f8	-0.17275608
44	0xbb014b16	-0.0019728593
45	0xbd744530	-0.059636295
46	0x3dfed3fe	0.12442778
47	0x3e3e4972	0.18582705
48	0xbe1b4c27	-0.15165769
49	0xbc6f709c	-0.0146142505
50	0xbd1a8612	-0.037725516
51	0xbdafc3d5	-0.08582274
52	0x3e2ce8a9	0.16885628
53	0xbd8112b1	-0.06302393
54	0xbd0e5414	-0.034748152
55	0xbce88094	-0.028381623
56	0xbdc3a52e	-0.0955299
57	0xbc1d25b3	-0.009591508
58	0xbc64ba77	-0.013960472
59	0xbcbc2ef6	-0.022971611
60	0x3d062d54	0.032758072
61	0xbb0fa0b7	-0.0021915862
62	0xbc92517d	-0.017861122
63	0x3d4866b6	0.048926078
64	0xbd2562ba	-0.040377356
65	0xbd858039	-0.06518597
66	0x3d0b9a05	0.03408243
67	0xbca5a0bf	-0.020218251
68	0xbd835177	-0.064120226
69	0x3b741c5e	0.0037248353
70	0x3c086732	0.008325385
71	0xbb8ac69b	-0.0042351014
72	0x3d79b423	0.060962807
73	0x3b5cf154	0.0033713179
74	0xbcc2d55d	-0.02378338
75	0x3d99ef65	0.07516364
76	0x3c9f7bf0	0.019468278
77	0x3da3bc74	0.07994929
78	0xbc82aeb9	-0.015952455
79	0xbc95d0ec	-0.018288098
80	0x3d6f4bfc	0.058422074
81	0x3c98c327	0.018647743
82	0x3d3a7f6b	0.04553167
83	0x3d0d52e8	0.034502894
84	0x3cf7665e	0.03020018
85	0x3d94e167	0.072695546
86	0x3d59dd1e	0.05318939
87	0x3c90a449	0.017656462
88	0x3d9e0dd5	0.07717482
89	0x3de94783	0.11390593
90	0x3db3c45f	0.08777689
91	0xbcb1c853	-0.021701967
92	0x3d79d93b	0.060998183
93	0x3dcc3859	0.09971685
94	0xbc2e4c06	-0.010638243
95	0x3da1cd07	0.07900434
96	0x3d77b354	0.060473755
97	0x3cf057aa	0.029338676
98	0x3dd01740	0.101606846
99	0xbe5aab41	-0.2135439
100	0xbf1b055f	-0.6055507
101	0xbd360a0c	-0.044443175
102	0xbe639600	-0.22225189
103	0xbf33affc	-0.70190406
104	0xbebcc419	-0.3686836
105	0x3c8ad2c8	0.016946211
106	0xbea0866d	-0.3135256
107	0xbee7ac52	-0.45248657
108	0x3b938230	0.0045016035
109	0x3cbf05a0	0.023318112
110	0xbca6f5e8	-0.02038093
111	0xbd12347c	-0.035694584
112	0xbdfb6a46	-0.122761294
113	0xbdf49811	-0.11943067
114	0xbc902df1	-0.017600032
115	0x3d11dcba	0.035610892
116	0x3c365f6e	0.011131151
117	0x3c60f176	0.013729444
118	0xbc312bf0	-0.010813698
119	0x3c0fa996	0.00876846
120	0xbcb71b15	-0.02235178
121	0x3b4ae31c	0.0030958122
122	0xbc259856	-0.0101071205
123	0xbb5da068	-0.0033817533
124	0xbcc90934	-0.024540521
125	0xbcc991d4	-0.02460567
126	0x3d0503f3	0.03247447
127	0xbd9251a1	-0.07144476
128	0xbca46fc1	-0.02007282
129	0x3cf242ae	0.029572811
130	0xbd929b46	-0.07158522
131	0xbb99cb7a	-0.0046934457
132	0x3d012eb3	0.031538676
133	0xbd21ff6a	-0.039550222
134	0xbc6b5185	-0.0143626975
135	0xbda0f8d8	-0.07859963
136	0xbcae3583	-0.02126575
137	0xbb603d71	-0.003421631
138	0xbdc16c04	-0.094444305
139	0xbab29b4f	-0.0013626608
140	0x3cbae221	0.022812905
141	0xbdaccb9e	-0.084372744
142	0x3d82a6e6	0.063794896
143	0x3d9b5513	0.07584586
144	0x3b08fa72	0.002090123
145	0x3d5e6fb0	0.054305732
146	0x3cd008cf	0.025394825
147	0xbe0fdba6	-0.14048633
148	0x3cc9eff5	0.024650553
149	0xbbe26927	-0.006909508
150	0xbe8f53b0	-0.27993536
151	0xbce9d957	-0.028546019
152	0xbd346713	-0.04404361
153	0xbce14038	-0.027496442
154	0xbb3d8696	-0.002891933
155	0xbd202ee0	-0.039107203
156	0xbcc54020	-0.024078429
157	0x3d15a532	0.036534496
158	0xbcc9eb3b	-0.0246483
159	0xbd0a1aba	-0.033716895
160	0x3bc067b6	0.0058717383
161	0x3cd62216	0.0261393
162	0x3b35adf8	0.0027722102
163	0xbeb54568	-0.35404515
164	0xbdcef4d9	-0.10105295
165	0x3f04e021	0.51904494
166	0x3eac15e4	0.3361045
167	0x3ece3294	0.40272963
168	0x3d6135d2	0.054982968
169	0xbebbf593	-0.36710796
170	0x3d182506	0.037144683
171	0x3da286bc	0.07935855
172	0x3b04a3b9	0.0020239188
173	0x3c7839f2	0.015150534
174	0x3d822261	0.063542135
175	0x3ca261d7	0.019822044
176	0x3d1cf2ab	0.038317364
177	0xbb69af8e	-0.0035657617
178	0x3b0bbde4	0.00213229
179	0x3cfdc2d1	0.030976685
180	0x3b2c4756	0.0026287637
181	0xbbfd92cb	-0.0077384464
182	0x3c59d5f0	0.013295636
183	0x3b237a80	0.0024944842
184	0xbd11b19f	-0.035569783
185	0xbcefb166	-0.029259395
186	0x3be8e600	0.0071074963
187	0xbbcfcc6b	-0.006341507
188	0xbcafe670	-0.021472186
189	0x3cac65bc	0.021044604
190	0xbca9e3e7	-0.020738555
191	0x3c223492	0.009900229
192	0x3c5c879a	0.013460064
193	0x3cd9e09c	0.02659636
194	0x3c92af04	0.01790572
195	0xbd1d6b26	-0.038432263
196	0xbc18fbb1	-0.009337352
197	0x3b270aad	0.002548854
198	0xbd79073a	-0.060797907
199	0x3ce9b1f6	0.028527241
200	0x3dcc0946	0.09962706
201	0xbd9fcdff	-0.078029625
202	0xbbba5769	-0.0056866896
203	0x3cc90166	0.0245368
204	0xbd25fdc7	-0.040525224
205	0x3cec13f6	0.028818112
206	0x3de46793	0.11152568
207	0xbc9e02e3	-0.019288486
208	0xbc9e2160	-0.019303024
209	0xbcc51988	-0.024060026
210	0x3cdd9c18	0.02705197
211	0x3caa2313	0.020768678
212	0x3c91f4f3	0.017816996
213	0xbc614566	-0.013749456
214	0xbc022b7b	-0.007944937
215	0xbd1e3266	-0.038622282
216	0x3b940d4a	0.0045181857
217	0x3d8282a4	0.06372574
218	0x3c90f313	0.017694032
219	0x3ca000fd	0.019531721
220	0x3de8ce54	0.11367479
221	0x3d9bc4c4	0.076058894
222	0xbd60fe46	-0.054929994
223	0x3dfc52d6	0.12320487
224	0x3d9950ac	0.0748609
225	0x3bdbfaae	0.006713233
226	0x3dde82fb	0.10864826
227	0xbd5dd8e7	-0.054161932
228	0xbdd9069b	-0.10596963
229	0x3e2e69a4	0.17032486
230	0x3de6be11	0.11266721
231	0xbe773725	-0.2414213
232	0xbdc6e2fb	-0.09711262
233	0xbd3160ca	-0.043305196
234	0xbaf7dbc3	-0.0018910099
235	0xbe417387	-0.18891726
236	0xbe2709c5	-0.1631232
237	0xbe07a3c5	-0.13246067
238	0xbe2517c2	-0.16122344
239	0xbd7b503b	-0.06135581
240	0xbe332858	-0.17495859
241	0xbe5dcca0	-0.2166009
242	0xbe1d7ff7	-0.15380846
243	0x3d1c0a3c	0.038095698
244	0x3cb5c0c5	0.022186646
245	0x3cf748c3	0.030186063
246	0x3d274f46	0.040847085
247	0xbd1b8808	-0.037971526
248	0xbcc8b923	-0.024502343
249	0xbb1b8a07	-0.0023733394
250	0xbbdb9a5e	-0.0067017516
251	0xbb8f4b2d	-0.0043729753
252	0x3d4d7dca	0.05016879
253	0x3d46a91d	0.048501123
254	0xbd9b5607	-0.07584768
255	0x3d5b2f8e	0.05351215

conv5.bias f4 [64]
0	0xbc67a061	-0.014137358
1	0xbd886e48	-0.066616595
2	0x3ce131d7	0.027489586
3	0xbcad08ac	-0.0211223
4	0xbd93bbb8	-0.07213539
5	0xbc531c9c	-0.012885239
6	0x3c802cfe	0.015646454
7	0x3d75cb4e	0.06000834
8	0xbb832a36	-0.0040028347
9	0xbd50d6df	-0.050986167
10	0x3d679e51	0.056547467
11	0x3d18bf2c	0.03729169
12	0x3cc2519a	0.023720551
13	0x3a848302	0.0010109844
14	0xbcd3eeab	-0.025870642
15	0xbd1ebca2	-0.038754113
16	0x3cb00cda	0.021490503
17	0x3d58e7d5	0.052955467
18	0x3c261ac3	0.010138216
19	0x3c27a828	0.010232963
20	0xbd055635	-0.032552917
21	0x3c5f81b0	0.01364176
22	0x3d1c2481	0.03812075
23	0xbc1631bd	-0.009167132
24	0x3b801937	0.003909256
25	0x3cb436a3	0.021998709
26	0xbd839681	-0.06425191
27	0xbd14fbd5	-0.03637298
28	0xbc12de52	-0.008964138
29	0x3d2ba35c	0.04190384
30	0x3cf0d1c3	0.029396897
31	0xbd4c5925	-0.049889702
32	0x3d3177d8	0.043327183
33	0x3c91e549	0.017809527
34	0xbc600cfe	-0.013674973
35	0x3cc3262c	0.023821913
36	0xba9b9f79	-0.0011873088
37	0x3cd2c021	0.02572638
38	0x3b3690df	0.0027857346
39	0x3d551b87	0.052028205
40	0xbd82191f	-0.06352448
41	0xbd06a517	-0.032872286
42	0xbc70377c	-0.014661666
43	0xbd37074a	-0.044684686
44	0x3d817a60	0.06322169
45	0x3c296de9	0.010341146
46	0xbd86cafc	-0.06581685
47	0xbcc8e662	-0.024523918
48	0xbd291f77	-0.041289773
49	0xbce9475a	-0.028476406
50	0xbb995a53	-0.004679957
51	0xbcb02898	-0.021503732
52	0x3a16ba14	0.00057497737
53	0x3d28e415	0.04123314
54	0xbd3660fb	-0.04452608
55	0xbc42231e	-0.011849193
56	0xbd440b7f	-0.047862526
57	0xbc16aaa1	-0.009195955
58	0x3b7e8523	0.003883668
59	0xbd2c649d	-0.04208814
60	0x3c22d586	0.009938603
61	0x3c3b264c	0.011422705
62	0x3b697058	0.003561994
63	0x3bc59e77	0.0060308534

conv6.weight f4 [1, 64, 3, 3]
0	0x3ce4ef18	0.02794604
1	0x3d1b9523	0.037984025
2	0x3d7875a1	0.060659055
3	0xbd168f07	-0.036757495
4	0xbcfdfa0b	-0.031003019
5	0x3d120f8c	0.035659358
6	0xbdb1613e	-0.086611256
7	0xbd6a7eab	-0.057249706
8	0x3c7acc22	0.015307458
9	0xbcab28ca	-0.020893473
10	0xbca86183	-0.02055431
11	0x3a82b7ac	0.0009972951
12	0xbd1680d6	-0.03674396
13	0xbce744d8	-0.02823107
14	0x3c912413	0.017717397
15	0xbafb586e	-0.0019176134
16	0xbc177f50	-0.009246662
17	0xbc959b1f	-0.018262444
18	0xbca29187	-0.019844783
19	0xbc8e3a61	-0.017361822
20	0x3c86321c	0.016381316
21	0x3badeb92	0.005307623
22	0xbcf2b518	-0.029627368
23	0x3d144661	0.03619993
24	0x3cc03188	0.023461118
25	0xbbf88bb5	-0.0075850138
26	0x3b5f170b	0.0034040834
27	0x3cee5390	0.02909258
28	0xbd0336d2	-0.032034703
29	0x3cf1e44a	0.029527802
30	0xbd1f8f70	-0.038955152
31	0xbd180105	-0.037110347
32	0xbcd04a34	-0.025426008
33	0x3d5f79c4	0.054559484
34	0xbcd30055	-0.025756994
35	0x3c789cb0	0.015174076
36	0x3c176550	0.009240463
37	0x3d05c2da	0.032656528
38	0x3d8714f6	0.06595795
39	0xbd137029	-0.035995636
40	0x3ce54e90	0.027991563
41	0x3c77edc7	0.015132374
42	0x3cac4c25	0.021032402
43	0x3d399ce2	0.04531563
44	0x3d453033	0.04814167
45	0xbdc95b85	-0.09831909
46	0xbd9e3486	-0.07724862
47	0xbd7847aa	-0.06061522
48	0xbe117b53	-0.142072
49	0xbe0251ce	-0.12726519
50	0xbdf25e38	-0.11834377
51	0xbe176457	-0.1478437
52	0xbe14d142	-0.1453295
53	0xbe157546	-0.14595518
54	0x3ddb0cdf	0.10695814
55	0x3d895415	0.067054905
56	0x3dfe0fe5	0.124053754
57	0x3d99fd15	0.07518975
58	0x3d560f23	0.05226053
59	0x3debcfa7	0.11514216
60	0x3dc34234	0.095341116
61	0x3d35abb0	0.044353187
62	0x3d5cbc4f	0.053890523
63	0xbc0f4221	-0.008743794
64	0x3c9d4769	0.01919909
65	0x3d677c87	0.056515243
66	0x3d6028f6	0.054726563
67	0x3cd4c6f4	0.025973774
68	0x3d2f6ab0	0.042826355
69	0xbc5af3bc	-0.013363775
70	0x3d0107a2	0.03150142
71	0x3cd937ea	0.02651592
72	0x3cea5b72	0.028608058
73	0xbc188ea2	-0.00931135
74	0x3cb2657b	0.021776905
75	0xbd039180	-0.03212118
76	0xbd006a31	-0.031351272
77	0x3c87bafd	0.016568655
78	0xba50a841	-0.0007959642
79	0x3cac768e	0.021052625
80	0x3cbc065c	0.022952251
81	0xbd86fa07	-0.06590658
82	0xbd3aed6d	-0.045636583
83	0xbd799173	-0.060929727
84	0xbd1685ef	-0.036748823
85	0xbd89a188	-0.06720263
86	0xbd31fcd0	-0.04345399
87	0xbd6f2469	-0.058384333
88	0xbd74cf5b	-0.059768062
89	0xbd12040a	-0.035648383
90	0x3b170963	0.0023046366
91	0x3cd827eb	0.026386222
92	0xbb7eb058	-0.0038862433
93	0x3da6441b	0.08118459
94	0x3db78870	0.0896157
95	0x3d893338	0.06699222
96	0x3c0d2924	0.008615766
97	0x3d205155	0.039140064
98	0x3c996311	0.018723996
99	0x3cd867fd	0.026416773
100	0xbd0d8c8a	-0.034557857
101	0x3b9b6584	0.004742326
102	0x3d2814fb	0.041035634
103	0xbb7fe0be	-0.003904387
104	0x3d0a7185	0.033799667
105	0x3cd32ca8	0.02577813
106	0xbce2dc6d	-0.027692998
107	0x3d09f80c	0.03368382
108	0x3d5fc086	0.054626964
109	0x3e038948	0.12845337
110	0x3cb1ba40	0.021695256
111	0x3d80b1cd	0.06283913
112	0x3e232663	0.15932612
113	0x3b6e2556	0.0036338172
114	0x3d7b9a4d	0.06142645
115	0x3e2623f5	0.16224654
116	0x3ce364da	0.02775805
117	0x3b01aa8d	0.0019785494
118	0xbd38d42e	-0.045124225
119	0xbd915107	-0.07095533
120	0x3d1bb39f	0.038013097
121	0xbcccd0ac	-0.025001846
122	0x3d00bb13	0.031428408
123	0x3d73400a	0.059387244
124	0xbbd60a04	-0.0065319557
125	0x3d1dfd7b	0.038571816
126	0xbcbbc3c5	-0.022920499
127	0xbce7ae80	-0.02828145
128	0x3d1477e4	0.03624715
129	0x3cc3b720	0.023891032
130	0xbc028b29	-0.007967749
131	0xbcfa7aa0	-0.03057605
132	0x3d6825d2	0.056676693
133	0x3ba31f6a	0.00497811
134	0x3d15f2e5	0.036608595
135	0x3c384efb	0.011249299
136	0xbcd96c96	-0.026541036
137	0x3c0b3e3b	0.008498724
138	0xbcf738b0	-0.030178398
139	0xbcda61ae	-0.026657905
140	0x3d018d6c	0.03162901
141	0xbd1f10ac	-0.03883426
142	0xbd0fb030	-0.035080135
143	0xbc861b0b	-0.016370317
144	0xbcdd9b07	-0.027051462
145	0xbca7e693	-0.020495689
146	0x3ca31f90	0.019912511
147	0xbd09fd73	-0.033688974
148	0x3cbfbd0f	0.02340558
149	0x3ce56821	0.028003754
150	0x3d1c90cb	0.038224023
151	0x3b5afcd8	0.0033414867
152	0xbc85bccd	-0.016325379
153	0x3d409405	0.047016162
154	0x3d245231	0.040117446
155	0xbbf3cedc	-0.007440431
156	0x3cafae9a	0.021445561
157	0x3c252fdd	0.010082212
158	0xbd8cb8f1	-0.06871212
159	0x3d5e6c33	0.054302406
160	0xbcebad75	-0.028769234
161	0xbd8bd9a1	-0.06828619
162	0x3dd6de3d	0.10491607
163	0x3d97c769	0.07411081
164	0x3d3e603a	0.046478488
165	0x3d0ce055	0.034393627
166	0x3bed18f8	0.0072356425
167	0x3d4592f1	0.048235837
168	0x3cac4a81	0.02103162
169	0x3bf151ee	0.007364503
170	0x3c529ef1	0.012855277
171	0x3d9c2b3d	0.076254345
172	0x3d4bac8c	0.0497251
173	0x3c7cc1ff	0.015427112
174	0xbac694de	-0.0015150567
175	0x39b3813a	0.00034237822
176	0xbd198ce4	-0.03748788
177	0xb9701fb3	-0.00022899992
178	0xbd6e24ca	-0.058140554
179	0xbd056e5a	-0.032575943
180	0xbbea67f7	-0.007153507
181	0xbb716368	-0.0036832932
182	0xbd5b52e9	-0.053545866
183	0xbcb8d117	-0.02256064
184	0x3cb1d3c2	0.02170742
185	0xbc335a08	-0.010946758
186	0xbd49cd91	-0.04926831
187	0x3ccf4584	0.025301702
188	0x3cb2f6b7	0.021846158
189	0xbc03f342	-0.008053603
190	0xbcebf830	-0.028804868
191	0xbd3445bf	-0.044011828
192	0x3bfd048a	0.0077214884
193	0x3d0103a5	0.031497616
194	0xbc7ee8cf	-0.015558436
195	0xbd006caa	-0.03135363
196	0x3d31b3d0	0.043384373
197	0x3d0c0f89	0.034194503
198	0x3d24f1ba	0.04026959
199	0x3c86cc7b	0.016454926
200	0xbcbe49e2	-0.02322859
201	0x3b8438ba	0.0040350826
202	0x3d16c061	0.03680456
203	0xbd42a960	-0.04752481
204	0xbbb58ed2	-0.005540707
205	0xbc9c727f	-0.019097565
206	0x3cec3478	0.028833613
207	0xbd42a8c7	-0.04752424
208	0xbc9064e3	-0.017626232
209	0xbcd1d406	-0.025613796
210	0xbd567a42	-0.052362688
211	0x3d3342ad	0.04376476
212	0xbc10cde8	-0.008838154
213	0xbc09d04f	-0.008411481
214	0x3d30e708	0.04318908
215	0x3d8a7a1a	0.0676157
216	0x3c8c5ad3	0.017133152
217	0x3da5d35c	0.08096954
218	0x3c820db8	0.015875682
219	0x3cb35dad	0.021895254
220	0x3d66899e	0.056283586
221	0x3ce67636	0.02813254
222	0xbd77018a	-0.060304202
223	0xbd564add	-0.05231749
224	0xbd8de7cf	-0.069289796
225	0xbd0a276f	-0.033729013
226	0xbcccb075	-0.024986485
227	0x3d05c3ff	0.03265762
228	0xbd046f49	-0.032332692
229	0xbc70dd83	-0.01470125
230	0xbc9e99e1	-0.019360485
231	0x3d8b8d09	0.0681401
232	0x3d584459	0.052799556
233	0xbc97fdf5	-0.018553713
234	0xbb911aea	-0.0044282572
235	0xbca16175	-0.019699791
236	0xbcf86777	-0.030322773
237	0xbd4b0eef	-0.04957479
238	0x3c49253f	0.012276947
239	0xbcee2d2b	-0.029074272
240	0xbd39e5e6	-0.045385264
241	0xbcfdb80d	-0.030971551
242	0xbd4af5ee	-0.049550943
243	0x3cc7531d	0.024331624
244	0x3b025c02	0.0019891267
245	0xbc035564	-0.008015964
246	0xbd4ae166	-0.049531363
247	0x3cbee795	0.023303786
248	0x3bb234ea	0.0054384368
249	0xbc4d7bbe	-0.0125417095
250	0xbd104385	-0.03522064
251	0x3bcd85b7	0.0062720436
252	0xbceae6da	-0.028674532
253	0xbc3252d2	-0.010884004
254	0xbcba4344	-0.022737153
255	0x3c20eccf	0.009822085
