weights/best_model_fsrcnn.pth (torch, 51945 bytes, 19 tensors)

first_part.0.weight f4 [56, 1, 5, 5]
-0.18255654 -0.053459488 0.1505595 0.16465317 -0.16849336 0.066544734 0.15403795 0.5499422
0.22676902 0.12020233 0.42926657 0.44721976 0.7806685 0.28141326 0.07392652 -0.042323507
0.3794597 0.6395239 0.46521875 0.2386315 -0.1041668 0.24502382 0.24422769 -0.06770508
0.090662554 -0.04809447 0.10587592 -0.2015559 0.1497031 -0.043358102 -0.42961392 -0.3141553
-0.48003072 -0.24780288 -0.115685925 -0.37040243 -0.7240749 -1.0983794 -0.9105929 -0.50963545
-0.25587073 -0.5710709 -1.0020937 -0.7960502 -0.44469288 -0.015959898 -0.10177031 -0.29980555
-0.22734042 0.22655226 0.41461986 0.043636538 -0.1563363 0.15804169 0.3173375 -0.07258223
-0.59207547 -0.7042155 -0.19340253 -0.041664694 -0.7816671 -1.0966803 -1.0436505 -0.69897693
-0.060092736 -0.4995193 -0.7848462 -1.2806426 -0.7419022 -0.34968224 0.10246252 -0.46412122
-0.69811743 -0.045925174 0.010789326 -0.11053048 -0.18588379 -0.15754767 -0.008466431 -0.11412585
-0.19968763 0.07104525 0.30022886 0.018963812 -0.07890213 0.10025396 0.09094875 0.41377082
0.069365665 0.08706474 -0.020034663 0.22207773 0.18614697 0.3309725 -0.12938142 0.093346246
-0.0839499 -0.069138445 -0.15811148 -0.031006603 -0.21843293 -0.42349586 -0.29969758 -0.30927935
-0.6861447 -0.0020176813 0.3883844 0.51370066 -0.08904322 -0.4846439 0.29990774 0.88290554
0.89514196 0.70393467 0.0036481707 -0.23283438 0.337641 0.8083574 0.66973287 0.018665615
-0.835067 -0.28204986 -0.09403237 -0.06236445 -0.5056165 0.0059040985 0.092585966 -0.26905566
0.015647542 0.031977788 0.025573941 -0.72832847 -1.006933 -0.5253609 0.07898491 -0.41185525
-1.1689773 -1.3453832 -1.122901 -0.5420944 -0.53828603 -0.87236446 -1.2555572 -0.74749106
0.034628488 0.041546717 -0.030111166 -0.23305662 0.015188503 0.31686667 -0.5393001 -0.3482874
-0.3198785 -0.26844448 -0.15624483 -0.04067344 0.19947611 0.17725003 0.23079297 -0.025335558
0.08569688 0.5062667 0.4912204 0.5491005 0.10800764 0.0037972117 0.33640718 0.64918065
0.0817198 -0.14539753 -0.45247093 -0.3120364 0.07056023 0.01232996 -0.4091902 -0.14466128
-0.22522141 -0.061073136 -0.17610216 -0.015763799 0.13876583 0.13859421 0.28805548 -0.03857826
-0.24526832 0.40234944 0.34300795 0.51322806 0.35906914 0.24861355 -0.12937315 0.31474942
0.5770905 0.29729792 -0.122620374 -0.23910525 -0.054265074 0.22994287 0.09305985 -0.048147604
-0.13908201 0.15280907 0.15762134 0.06521368 -0.05541719 -0.16928503 -0.15638192 -0.10428247
0.08818527 0.013232326 0.09549274 0.07176698 -0.059528608 0.27004984 -0.12378473 0.20046344
-0.079721965 0.17317314 -0.08726242 0.14704162 0.2093436 0.19147708 -0.1257776 -0.060292393
-0.15156734 -0.13634118 -0.19916011 -0.010722309 0.109239556 0.092796534 0.25158957 0.2513067
0.22472842 0.33513528 -0.101820715 0.30001247 0.32570475 0.55852824 0.54092705 0.24182335
-0.083569296 0.25629026 0.4084904 0.4485206 -0.04874765 0.03227824 0.19504708 0.13042988
-0.004058695 -0.09894711 -0.61228806 -0.21302938 -0.3123283 -0.5449098 -0.43535697 0.22799762
00000000: 1af0 3abe 56f8 5abd 452c 1a3e d79a 283e
00000010: 8689 2cbe 9b48 883d 20bc 1d3e 03c9 0c3f
00000020: 2336 683e a42c f63d d4c8 db3e fdf9 e43e
00000030: e4d9 473f 6615 903e ca66 973d 6a5b 2dbd
00000040: 8b48 c23e d7b7 233f 2731 ee3e d15b 743e
00000050: 6755 d5bd 86e7 7a3e d316 7a3e f6a8 8abd
00000060: 4aad b93d b5fe 44bd 79d5 d83d ab64 4ebe
00000070: c54b 193e 4498 31bd 5bf6 dbbe f7d8 a0be
00000080: 96c6 f5be 0ac0 7dbe beec ecbd 63a5 bdbe
00000090: f95c 39bf b297 8cbf 9e1c 69bf 7877 02bf
000000a0: 7d01 83be b431 12bf 9b44 80bf f2c9 4bbf
000000b0: c9ae e3be 55be 82bc f46c d0bd 1d80 99be
000000c0: edcb 68be 51fd 673e 0e49 d43e 3abc 323d
000000d0: 9f16 20be aed5 213e 107a a23e fea5 94bd
000000e0: 4292 17bf 7847 34bf 500b 46be 99a8 2abd
000000f0: 561b 48bf 0560 8cbf 5796 85bf 27f0 32bf
00000100: cd23 76bd fec0 ffbe aeeb 48bf 19ec a3bf
00000110: 4ded 3dbf 8d09 b3be dfd7 d13d 4ca1 edbe
00000120: d3b7 32bf 091c 3cbd b7c5 303c ce5d e2bd
00000130: 5258 3ebe 2d54 21be c9b6 0abc d0ba e9bd
00000140: ea7a 4cbe 2c80 913d 99b7 993e ff59 9b3c
00000150: 7197 a1bd f351 cd3d 5743 ba3d c5d9 d33e
00000160: 960f 8e3d 004f b23d bc1f a4bc 5868 633e
00000170: 509d 3e3e 3a75 a93e 907c 04be 512c bf3d
00000180: eded abbd 7598 8dbd fae7 21be 8f01 febc
00000190: e2ac 5fbe 73d4 d8be f671 99be dd59 9ebe
000001a0: 2ea7 2fbf 133b 04bb 52da c63e e381 033f
000001b0: 4b5c b6bd 3f23 f8be 828d 993e 1906 623f
000001c0: 0628 653f 1035 343f 2616 6f3b 236c 6ebe
000001d0: 48df ac3e 83f0 4e3f 9d73 2b3f a2e8 983c
000001e0: f3c6 55bf d768 90be 0b94 c0bd de71 7fbd
000001f0: 1570 01bf 2b77 c13b b69d bd3d aac1 89be
00000200: 462f 803c 24fb 023d 7180 d13c bc73 3abf
00000210: 2ee3 80bf 0d7e 06bf d7c2 a13d b1de d2be
00000220: 0ca1 95bf 8435 acbf 38bb 8fbf b3c6 0abf
00000230: 1dcd 09bf 4753 5fbf 19b6 a0bf 935b 3fbf
00000240: 9ad6 0d3d e42c 2a3d b1ab f6bc 65a6 6ebe
00000250: 33d9 783c 593c a23e 920f 0abf ba52 b2be
00000260: 1dc7 a3be 8e71 89be a5fe 1fbe 3199 26bd
00000270: 7743 4c3e 0881 353e fe54 6c3e 848c cfbc
00000280: d981 af3d b29a 013f 3e81 fb3e da91 0c3f
00000290: 1c33 dd3d a4da 783b 903d ac3e b430 263f
000002a0: b65c a73d 17e3 14be 45aa e7be 3cc3 9fbe
000002b0: e281 903d 9a03 4a3c 6181 d1be 1622 14be
000002c0: 71a0 66be d327 7abd 2054 34be 1523 81bc
000002d0: a118 0e3e a4eb 0d3e 027c 933e 3d04 1ebd
000002e0: 9e27 7bbe bf00 ce3e bd9e af3e ea62 033f
000002f0: e9d7 b73e 8d94 7e3e 657a 04be d626 a13e
00000300: 34bc 133f 6f37 983e 6420 fbbd 02d8 74be
00000310: 0e45 5ebd 2576 6b3e 2a96 be3d 6c36 45bd
00000320: 846b 0ebe fb79 1c3e 7d67 213e c08e 853d
00000330: 23fd 62bd 0e59 2dbe 9522 20be 0c92 d5bd
00000340: 7b9a b43d 66cc 583c b391 c33d 91fa 923d
00000350: 45d4 73bd f943 8a3e d982 fdbd 4a46 4d3e
00000360: 4545 a3bd 4d54 313e a4b6 b2bd 1492 163e
00000370: 2b5e 563e 9112 443e d8cb 00be 28f5 76bd
00000380: 7834 1bbe 069d 0bbe a1f0 4bbe a0ac 2fbc
00000390: fdb8 df3d 1c0c be3d 59d0 803e 46ab 803e
000003a0: 351f 663e da96 ab3e 6187 d0bd 3c9b 993e
000003b0: c6c2 a63e b5fb 0e3f 327a 0a3f 8aa0 773e
000003c0: 6126 abbd 7a38 833e a725 d13e 7ea4 e53e
000003d0: 9eab 47bd 3036 043d 6cba 473e 698f 053e
000003e0: cdfe 84bb c8a4 cabd e9be 1cbf 6024 5abe
000003f0: 7fe9 9fbe 357f 0bbf 1ce7 debe 3578 693e

first_part.0.bias f4 [56]
0.0055102347 0.06867137 0.03203613 -0.08328569 0.05623516 0.051943105 -0.111439094 0.13809642
-0.046373587 0.036015514 -0.081024535 0.0028768447 -0.0918771 0.006225787 -0.15726607 -0.15776914
0.15061754 0.08329629 -0.088233456 0.114280306 0.12384775 -0.12762253 -0.111779846 0.13076042
0.015413119 0.030908277 -0.18824963 0.0035490654 -0.16081211 0.044461723 -0.024350453 -0.13080266
0.0016409601 0.00036465496 0.053309478 0.001696751 0.12548384 0.07518969 -0.077049576 -0.025889995
0.041481983 0.0024016288 0.14495699 0.12894586 0.054780237 -0.0028683192 -0.020261955 0.16882408
0.040445447 0.040201228 0.16683626 -0.15810284 0.036611762 0.081393994 0.137335 -0.0019214137
00000000: 338f b43b 93a3 8c3d 5138 033d b091 aabd
00000010: d756 663d 4bc2 543d 2e3a e4bd 2669 0d3e
00000020: 3bf2 3dbd 0185 133d 31f0 a5bd 7289 3c3b
00000030: 102a bcbd b001 cc3b 5b0a 21be 3c8e 21be
00000040: 7c3b 1a3e 3f97 aa3d beb3 b4bd cb0b ea3d
00000050: e4a3 fd3d 7baf 02be d5ec e4bd 0fe6 053e
00000060: 4f87 7c3c 5b33 fd3c 83c4 40be 7097 683b
00000070: eeab 24be 7f1d 363d 9a7a c7bc 22f1 05be
00000080: 7c15 d73a 292f bf39 0a5b 5a3d 8465 de3a
00000090: d67e 003e 0dfd 993d 2bcc 9dbd 4117 d4bc
000000a0: 03e9 293d a564 1d3b 9b6f 143e 620a 043e
000000b0: 3e61 603d 69fa 3bbb 66fc a5bc 38e0 2c3e
000000c0: 20aa 253d 0baa 243d 20d7 2a3e b6e5 21be
000000d0: 37f6 153d e5b1 a63d 8ca1 0c3e f2d7 fbba

first_part.1.weight f4 [56]
0.34300092 -0.6820074 -0.303119 0.25281695 0.45555928 -0.42536712 0.227106 0.25
0.2588595 0.25 0.28394684 0.37470376 0.32761282 0.29952443 0.26577672 0.24556907
-0.2012302 -0.24595381 0.28235728 0.25 0.25 0.27170917 0.26225644 -0.9005662
0.23766646 0.2506753 0.2493403 0.5170424 0.24204785 1.2115651 0.23170914 0.2700631
0.40155545 2.7429945 1.5306177 0.46161526 0.25 -0.43550998 0.23570164 0.31068507
0.25 0.40770838 -1.1492488 0.24205326 0.5638272 2.2715302 0.28426316 -0.93479717
0.25 -0.12516005 0.25 0.27500597 -0.11183751 0.25 -0.5487029 3.2553408
00000000: d19d af3e 0998 2ebf 6a32 9bbe 3971 813e
00000010: 113f e93e b8c9 d9be 7a8e 683e 0000 803e
00000020: 3b89 843e 0000 803e 7b61 913e 2cd9 bf3e
00000030: debc a73e 445b 993e e313 883e 7576 7b3e
00000040: 4a0f 4ebe 51db 7bbe 2291 903e 0000 803e
00000050: 0000 803e 771d 8b3e 7a46 863e 828b 66bf
00000060: d65e 733e 8358 803e 1053 7f3e e45c 043f
00000070: 64db 773e 9114 9b3f 2945 6d3e b645 8a3e
00000080: ad98 cd3e 398d 2f40 48eb c33f d658 ec3e
00000090: 0000 803e 2afb debe c55b 713e 1d12 9f3e
000000a0: 0000 803e 27bf d03e 961a 93bf cfdc 773e
000000b0: fb56 103f c060 1140 f18a 913e de4e 6fbf
000000c0: 0000 803e f529 00be 0000 803e 95cd 8c3e
000000d0: 100b e5bd 0000 803e cb77 0cbf 8157 5040

mid_parts.0.0.weight f4 [12, 56, 1, 1]
-0.0064161783 0.09742079 -0.015053896 -0.088161215 -0.03984131 0.18997894 -0.043744005 -0.06939222
-0.020798422 -0.1277128 0.06668326 -0.093556166 -0.056512214 -0.03596424 -0.042675734 0.039162543
0.1306706 0.15435646 -0.0597571 -0.045908116 -0.017891522 -0.07825412 0.096058846 0.07801258
-0.039538063 -0.1008534 0.0538943 0.037153002 -0.08538958 0.06357025 -0.069689445 -0.11290591
-0.04873647 -0.12799701 -0.05602233 -0.20960046 -0.11333554 0.1508227 0.12507044 -0.07932774
-0.07673913 -0.20327535 0.093130164 0.07955413 0.07836334 -0.01742577 0.1312381 -0.0128877275
0.037048772 0.21688996 -0.030295063 0.1038688 0.22447287 -0.044730164 -0.08444741 -0.10294004
0.055938203 0.13767874 -0.034243826 -0.065391466 0.015573062 0.04350973 0.109956354 -0.02006526
-0.09873365 0.0148255145 0.03447994 0.11634568 -0.039808545 0.05985523 -0.13573843 0.0120434305
0.036045335 -0.01394865 -0.009007899 -0.036744155 -0.04437365 -0.15193845 0.044287898 -0.03560199
-0.024830155 -0.07619989 0.1235677 -0.08178789 -0.13460323 0.0074800877 0.14745106 -0.08163255
-0.08920203 0.02229882 0.0056529283 0.017212221 -0.08040217 -0.016718691 -0.0908386 -0.09605118
0.015434007 0.026313689 0.008052405 0.007987966 -0.10332692 -0.16686237 0.027364131 0.025507728
0.0027615156 0.12493041 -0.020088082 0.029914197 0.1163252 -0.064613245 0.056062385 -0.0682661
0.111561894 -0.14971183 -0.14437051 0.13350965 -0.01856688 -0.12577607 0.11346499 -0.06584431
0.005401417 0.13674994 -0.066151835 0.059272714 -0.040723465 0.07316347 -0.05750581 0.03754909
0.0847765 -0.075054124 0.10417561 0.013947143 -0.11589195 0.10729095 0.12846328 0.0069224034
-0.069706336 0.0486061 -0.05259387 0.17552993 0.02078735 0.06846582 0.019613609 0.012361576
0.03969168 0.0050976262 0.062078204 0.19101045 0.01961818 -0.1258878 0.08529272 -0.057247803
0.1514802 0.018048901 -0.0924567 0.13216062 0.061525077 0.1940778 -0.04679056 -0.04797581
0.13200435 -0.25959772 -0.007499738 -0.08498609 -0.17330062 0.046453968 -0.11771632 0.16297157
-0.20939098 0.16023393 0.21476938 -0.09885137 -0.108746685 0.17758389 -0.08657357 -0.085284084
-0.021016581 -0.12599029 -0.17563114 -0.37339824 -0.12351615 -0.012698499 -0.10752227 0.1029219
0.16936032 0.19816864 -0.15881822 0.061150573 -0.11170762 -0.1149533 -0.085433796 0.120738216
-0.004325708 0.12375301 -0.04370553 -0.12339905 -0.005820923 0.0034225984 0.039171245 -0.055539556
-0.28391925 -0.40196756 0.11108307 -0.33194968 0.00263114 0.011336962 0.086094186 -0.040875796
-0.066458516 -0.38720042 0.012900673 0.032178536 -0.027950702 -0.40817937 -0.08926971 0.15841776
0.042285997 0.01287523 -0.053910207 -0.09447579 0.08741214 -0.05416658 0.07006076 -0.061713584
0.14865044 -0.091025084 -0.20995322 0.0028063953 -0.036892254 -0.18552136 -0.063718334 0.0064983396
-0.09728209 0.014817804 -0.1473045 0.024605718 -0.13331077 0.09747977 -0.09468643 -0.112825036
0.052138798 -0.06282631 0.12627786 0.029343357 0.10805388 0.14138006 0.038819738 0.09736736
0.007561817 -0.057772014 -0.031536423 0.18167959 -0.0815918 -0.10260411 0.059063885 0.086637154
00000000: ce3e d2bb 8d84 c73d 9ea4 76bc de8d b4bd
00000010: a430 23bd d789 423e ea2c 33bd 821d 8ebd
00000020: 7461 aabc 25c7 02be 3c91 883d 609a bfbd
00000030: 5a79 67bd 3d4f 13bd c0cc 2ebd e768 203d
00000040: 84ce 053e 9f0f 1e3e dcc3 74bd 260a 3cbd
00000050: 3e91 92bc b243 a0bd 80ba c43d 0fc5 9f3d
00000060: aaf2 21bd 3a8c cebd 45c0 5c3d bf2d 183d
00000070: bbe0 aebd 1f31 823d 57b9 8ebd 373b e7bd
00000080: e59f 47bd a611 03be ac77 65bd 81a1 56be
00000090: 771c e8bd 4471 1a3e 7712 003e 9576 a2bd
000000a0: 6829 9dbd 6a27 50be 07bb be3d 47ed a23d
000000b0: f57c a03d 7dc0 8ebc 4863 063e 0c27 53bc
000000c0: 74c0 173d 6718 5e3e 5a2d f8bc 2ab9 d43d
000000d0: 37dc 653e fa36 37bd c4f2 acbd 3ad2 d2bd
000000e0: 751f 653d a8fb 0c3e 4143 0cbd f6eb 85bd
000000f0: 2826 7f3c 4237 323d cc30 e13d e65f a4bc
00000100: de34 cabd b7e6 723c d63a 0d3d a546 ee3d
00000110: 490e 23bd c22a 753d 04ff 0abe cf51 453c
00000120: 46a4 133d e188 64bc de95 13bc 0a81 16bd
00000130: 25c1 35bd c195 1bbe 3a67 353d 64d3 11bd
00000140: 9c68 cbbc b00e 9cbd 1011 fd3d 6980 a7bd
00000150: 6ed5 09be 861b f53b 69fd 163e f72e a7bd
00000160: 8eaf b6bd 04ac b63c 333c b93b a500 8d3c
00000170: e5a9 a4bd a3f5 88bc 9709 babd 7bb6 c4bd
00000180: ebde 7c3c ce8f d73c 3cee 033c f5df 023c
00000190: 109d d3bd f8dd 2abe be2a e03c 95f5 d03c
000001a0: 8bfa 343b 84db ff3d c38f a4bc 9e0e f53c
000001b0: e83b ee3d f353 84bd aca1 653d 19cf 8bbd
000001c0: 907a e43d 0f4e 19be ddd5 13be c1b6 083e
000001d0: 9219 98bc 71cb 00be 5560 e83d 62d9 86bd
000001e0: 5ffe b03b 2d08 0c3e 9d7a 87bd f2c7 723d
000001f0: a6cd 26bd bbd6 953d 368b 6bbd 13cd 193d
00000200: 4d9f ad3d fab5 99bd 065a d53d 8f82 643c
00000210: c258 edbd 5cbb db3d e18b 033e 54d5 e23b
00000220: 32c2 8ebd 3117 473d ab6c 57bd 1ebe 333e
00000230: 3c4a aa3c cf37 8c3d b8ac a03c 3588 4a3c
00000240: be93 223d fd09 a73b b745 7e3d 3e98 433e
00000250: 4eb6 a03c bbe8 00be f3ad ae3d ac7c 6abd
00000260: a01d 1b3e 4adb 933c f059 bdbd 1d55 073e
00000270: b801 7c3d 55bc 463e 75a7 3fbd 4882 44bd
00000280: 262c 073e fee9 84be 5dc0 f5bb 300d aebd
00000290: b875 31be 8446 3e3d 4115 f1bd 05e2 263e
000002a0: 976a 56be 5d14 243e 81ec 5b3e 9672 cabd
000002b0: 95b6 debd 8dd8 353e 7c4d b1bd 6ca9 aebd
000002c0: f72a acbc 9903 01be a6d8 33be 0e2e bfbe
000002d0: 09f6 fcbd 5d0d 50bc a334 dcbd b8c8 d23d
000002e0: cb6c 2d3e b8ec 4a3e 3ea1 22be 0679 7a3d
000002f0: f7c6 e4bd a36c ebbd eaf7 aebd 9945 f73d
00000300: abbe 8dbb 3872 fd3d 9204 33bd a4b8 fcbd
00000310: 71bd bebb ac4d 603b 0772 203d 727d 63bd
00000320: dd5d 91be b1ce cdbe 857f e33d 4ff5 a9be
00000330: 346f 2c3b aabe 393c 2652 b03d 616d 27bd
00000340: 671b 88bd 223f c6be 585d 533c a4cd 033d
00000350: dff8 e4bc e3fc d0be 0ad3 b6bd 4438 223e
00000360: 1534 2d3d a1f2 523c f3d0 5cbd 867c c1bd
00000370: 2305 b33d c7dd 5dbd 047c 8f3d 62c7 7cbd
00000380: d237 183e 5c6b babd fafd 56be 80eb 373b
00000390: 551c 17bd 50f9 3dbe c27e 82bd 06f0 d43b
000003a0: d53b c7bd 60c6 723c fed6 16be ee91 c93c
000003b0: 9e82 08be 79a3 c73d f6ea c1bd d010 e7bd
000003c0: 7e8f 553d 15ab 80bd fc4e 013e 7b61 f03c
000003d0: 5a4b dd3d efc5 103e 7201 1f3d 8a68 c73d
000003e0: 1ec9 f73b 59a2 6cbd 562c 01bd 370a 3a3e
000003f0: 9a19 a7bd 1b22 d2bd f9ec 713d d26e b13d

mid_parts.0.0.bias f4 [12]
-0.06946254 -0.098228574 0.10865433 -0.030755874 0.02064098 0.074232616 -0.105398595 0.078302056
0.07174314 -0.07062456 0.029477583 0.0359383
00000000: 6042 8ebd 102c c9bd 2986 de3d bef3 fbbc
00000010: 4617 a93c 4507 983d 38db d7bd d45c a03d
00000020: 11ee 923d 9ca3 90bd f97a f13c 0a34 133d

mid_parts.0.1.weight f4 [12]
0.2803037 0.24082395 0.27161863 -0.109192275 0.21649495 -0.06606945 0.24312167 0.25
0.24955799 0.21612373 -0.3396491 0.1517127
00000000: f783 8f3e 8e9a 763e 9911 8b3e 33a0 dfbd
00000010: dab0 5d3e 6b4f 87bd e3f4 783e 0000 803e
00000020: 218c 7f3e 8a4f 5d3e 7de6 adbe 935a 1b3e

mid_parts.1.0.weight f4 [12, 12, 3, 3]
0.011831927 -0.024584107 0.12053 0.08227152 0.011488325 0.124009095 -0.0104407 0.122816056
0.010528797 0.07139233 0.078929804 0.076026514 -0.061968274 -0.09063679 0.019190507 0.08086843
0.07059364 -0.016223537 -0.109974265 -0.04283428 -0.038575612 0.00801239 -0.055255637 -0.013693857
-0.06800576 -0.09850708 -0.027359765 0.118133284 0.019154238 0.0051677777 0.16568543 0.12657644
-0.00699926 -0.03979816 0.11635458 0.06082867 -0.00031078697 -0.064202435 -0.10621651 0.006626174
-0.004593901 -0.08420811 -0.019622952 -0.062312704 -0.11645117 -0.033483937 -0.1204388 -0.08387222
-0.00686429 -0.09981503 0.012081852 -0.08442305 -0.13761042 -0.012830033 0.06961025 0.059950694
-0.00044074713 -0.002925533 -0.060057666 0.085738495 0.059202407 -0.050585344 0.11819933 -0.011435597
-0.078845836 0.04368367 0.053958748 0.0071416525 0.056325328 -0.024347505 -0.07416596 0.025113674
-0.10131464 0.074709915 -0.056865044 -0.11628404 0.038331624 0.03948015 -0.076170616 0.02623183
-0.10853237 -0.051881146 -0.009724079 -0.08609471 -0.046445265 0.018011555 0.04644486 -0.00614065
-0.048173167 0.07423562 -0.060926203 0.070032775 0.023297682 0.051162604 0.038978666 0.007130818
0.063304625 0.024135452 0.09643623 0.00947916 -0.08295039 0.01007814 -0.017641926 -0.16470763
-0.14555494 -0.1269997 -0.05749943 -0.08959677 0.12061655 -0.063824505 0.023511233 0.051067926
-0.08588246 0.07364123 0.023923114 -0.0060333996 0.11570521 0.13285014 0.10538576 0.1907261
-0.10056136 0.05301151 0.05575082 -0.03658323 -0.07007645 0.0921465 -0.012039059 0.022286573
-0.12250984 0.13632616 0.06033601 -0.031317737 0.09377737 0.1047141 0.041002546 0.007076959
-0.083572105 -0.09624043 -0.041203655 -0.1247524 -0.12693535 -0.105839744 -0.14900877 -0.110301286
-0.033468086 -0.08619592 -0.10311842 0.07691884 0.10287587 -0.10085621 -0.005464053 -0.04246368
-0.037950978 0.04801154 -0.015599044 -0.06858028 0.05992275 0.014283561 0.070561655 -0.037539218
-0.019781483 0.013947221 0.072131865 0.08506075 0.088674486 -0.06276324 0.047357824 -0.039567508
-0.07785907 0.054876875 0.03822073 -0.009480068 0.060306624 -0.13391927 0.0746544 -0.029567784
-0.08938545 -0.06927625 -0.01781757 0.05217159 -0.097273245 0.043125298 -0.14138876 0.024488753
0.1330856 -0.081423774 -0.08478723 0.10855765 -0.0028520029 -0.042815458 0.06475275 0.07289184
-0.05935615 -0.016316095 0.06795913 0.020139996 0.06888167 0.08872691 -0.013534985 -0.076172695
-0.04871238 -0.09598808 -0.09104346 0.06257096 -0.013641356 -0.015150845 0.054813534 0.0057986113
0.042597476 -0.20846345 0.022159185 -0.0031938776 -0.07720603 -0.023135388 -0.06463004 -0.118334845
-0.01782753 -0.024158029 -0.09511711 0.06935362 -0.06794455 0.040457867 0.013596545 0.0078674145
0.053700425 -0.071202196 -0.04037181 -0.0128486855 -0.027927732 0.066603 -0.016478492 0.10811498
0.034388535 0.06271916 -0.08197371 0.08752722 0.0040670563 0.04516064 0.0796982 -0.027418442
-0.116163455 0.07706159 0.035690308 -0.078042164 -0.015257402 -0.055386014 -0.11819605 -0.11822526
-0.10326268 -0.09670993 -0.15959345 -0.052716076 -0.06640908 0.09833803 -0.010836558 -0.072240226
00000000: b3da 413c 9c64 c9bc 6fd8 f63d f87d a83d
00000010: 8739 3c3c 7bf8 fd3d 780f 2bbc fc86 fb3d
00000020: fa80 2c3c 2436 923d f3a5 a13d cab3 9b3d
00000030: 72d2 7dbd c89f b9bd 6935 9d3c 599e a53d
00000040: 6693 903d 39e7 84bc 303a e1bd ff72 2fbd
00000050: 7601 1ebd 6646 033c bc53 62bd 335c 60bc
00000060: 9b46 8bbd 14be c9bd 9621 e0bc ddef f13d
00000070: 59e9 9c3c 7656 a93b 71a9 293e 419d 013e
00000080: 0c5a e5bb 6503 23bd 4f4b ee3d 7c27 793d
00000090: 1ff1 a2b9 917c 83bd 0b88 d9bd 6020 d93b
000000a0: 6f88 96bb 4d75 acbd 50c0 a0bc 9b3b 7fbd
000000b0: f37d eebd 7426 09bd 9ea8 f6bd 33c5 abbd
000000c0: d7ed e0bb d36b ccbd f6f2 453c fee5 acbd
000000d0: bfe9 0cbe 0f35 52bc d28f 8e3d dc8e 753d
000000e0: 1414 e7b9 4dba 3fbb 07ff 75bd aa97 af3d
000000f0: 397e 723d 9432 4fbd 7e12 f23d 5f5c 3bbc
00000100: ed79 a1bd a6ed 323d d903 5d3d 8604 ea3b
00000110: 63b5 663d 6b74 c7bc 53e4 97bd 31bb cd3c
00000120: 0d7e cfbd 8301 993d 52eb 68bd 5426 eebd
00000130: 9f01 1d3d f0b5 213d 57ff 9bbd 22e4 d63c
00000140: 3846 debd 5381 54bd be51 1fbc 6c52 b0bd
00000150: 643d 3ebd f88c 933c f73c 3e3d 8137 c9bb
00000160: 3a51 45bd d808 983d c18d 79bd 586d 8f3d
00000170: c8da be3c e18f 513d 18a8 1f3d a3a9 e93b
00000180: dba5 813d b6b7 c53c 5c80 c53d 7b4e 1b3c
00000190: e5e1 a9bd c81e 253c cd85 90bc 1ea9 28be
000001a0: 5b0c 15be 360c 02be 8684 6bbd 837e b7bd
000001b0: cf05 f73d 6cb6 82bd a19a c03c 9a2c 513d
000001c0: 25e3 afbd 37d1 963d 68fa c33c d3b3 c5bb
000001d0: daf6 ec3d de09 083e 7dd4 d73d b44d 433e
000001e0: 1df3 cdbd 9922 593d f95a 643d 4cd8 15bd
000001f0: 3e84 8fbd 4eb7 bc3d 793f 45bc 5592 b63c
00000200: 70e6 fabd 1699 0b3e e422 773d 0747 00bd
00000210: 5a0e c03d 5974 d63d 49f2 273d d6e5 e73b
00000220: da27 abbd b419 c5bd 2ac5 28bd 307e ffbd
00000230: 57fb 01be 82c2 d8bd c195 18be a4e5 e1bd
00000240: d515 09bd 7d87 b0bd c02f d3bd a087 9d3d
00000250: 96b0 d23d b38d cebd cc0b b3bb 65ee 2dbd
00000260: 7c72 1bbd c0a7 443d 2293 7fbc d173 8cbd
00000270: 8f71 753d 9905 6a3c a182 903d b9c2 19bd
00000280: c70c a2bc e382 643c dfb9 933d 5534 ae3d
00000290: f89a b53d 038a 80bd 47fa 413d 8a11 22bd
000002a0: 9374 9fbd 93c6 603d 578d 1c3d 4a52 1bbc
000002b0: 1404 773d 2222 09be 68e4 983d 2338 f2bc
000002c0: b80f b7bd b5e0 8dbd 27f6 91bc e1b1 553d
000002d0: 3237 c7bd 27a4 303d 37c8 10be a39c c83c
000002e0: 9747 083e 82c1 a6bd eda4 adbd 7953 de3d
000002f0: abe8 3abb 435f 2fbd 179d 843d 5148 953d
00000300: 6f1f 73bd 55a9 85bc 282e 8b3d a2fc a43c
00000310: d511 8d3d 74b6 b53d d7c1 5dbc 6e00 9cbd
00000320: a286 47bd 6695 c4bd fe74 babd 3425 803d
00000330: fe7f 5fbc 403b 78bc 2884 603d 4702 be3b
00000340: b17a 2e3d 7177 55be 2e87 b53c 6050 51bb
00000350: 321e 9ebd 6d86 bdbc c15c 84bd 8a59 f2bd
00000360: 0a0b 92bc 0fe7 c5bc c2cc c2bd 4509 8e3d
00000370: 8326 8bbd 26b7 253d 0bc4 5e3c 54e6 003c
00000380: faf4 5b3d 75d2 91bd e95c 25bd 4b83 52bc
00000390: b3c8 e4bc 2767 883d e7fd 86bc 636b dd3d
000003a0: feda 0c3d e772 803d d5e1 a7bd 7941 b33d
000003b0: f144 853b 5dfa 383d cf38 a33d a49c e0bc
000003c0: 1be7 edbd 78d2 9d3d 0030 123d 92d4 9fbd
000003d0: 2ffa 79bc 72dc 62bd c510 f2bd 1620 f2bd
000003e0: 627b d3bd db0f c6bd 776c 23be d0ec 57bd
000003f0: 7c01 88bd 7365 c93d d28b 31bc aff2 93bd

mid_parts.1.0.bias f4 [12]
0.054064546 0.05125686 0.06938085 0.018770691 -0.09200368 0.07963949 0.08462114 0.053790804
0.00057557545 0.044045452 -0.028512806 -0.022144578
00000000: c972 5d3d b7f2 513d 8c17 8e3d fec4 993c
00000010: 6d6c bcbd 071a a33d d94d ad3d bf53 5c3d
00000020: 37e2 163a 0169 343d b093 e9bc 8c68 b5bc

mid_parts.1.1.weight f4 [12]
-0.028341599 0.21893239 1.1642144 0.07920415 0.25369367 -0.32734457 -0.26423436 0.004851361
0.18927073 0.25 0.7440899 -0.33282036
00000000: a42c e8bc d02f 603e fa04 953f c935 a23d
00000010: 23e4 813e b599 a7be ba49 87be 2af8 9e3b
00000020: 30d0 413e 0000 803e ad7c 3e3f 6e67 aabe

mid_parts.2.0.weight f4 [12, 12, 3, 3]
0.047347236 -0.08180335 -0.051775694 0.14526457 0.017930767 0.05981123 -0.024058254 0.064697094
-0.060115367 0.04489468 -0.084302254 0.028390095 0.076714955 -0.11516415 -0.08417854 -0.037619572
0.00580187 -0.11018192 -0.063532874 -0.08592065 -0.03583796 -0.049311407 -0.08715488 -0.043295417
0.01296727 -0.05951078 0.027588252 0.06505503 0.022793392 0.018218936 0.08366982 -0.08557473
-0.052196965 -0.063347235 0.028282734 -0.08813599 -0.089961424 -0.026358292 -0.09513904 0.076262414
-0.08336824 -0.026096333 0.049312197 0.0067002797 -0.008718777 -0.03945013 -0.09126762 0.028222634
-0.062298484 -0.053770874 -0.029475376 -0.03622609 0.030362187 -0.052285835 0.05642234 -0.0054517174
-0.032434274 0.009300439 0.003198271 0.02720115 0.07428374 0.04953168 -0.0683746 -0.25055337
-0.16222385 -0.046478964 -0.024077173 0.056878783 -0.03857651 0.051483516 -0.030317647 -0.07182692
0.05640545 -0.07730286 -0.03914513 -0.083865166 -0.08477198 0.0834762 -0.047924906 0.088603966
0.007858796 0.019702418 -0.0068350607 -0.0425089 0.008879851 -0.07176342 -0.008883045 -0.031441625
0.03719545 -0.077389285 0.14711429 0.05519582 -0.033328887 0.025688691 0.041787155 -0.045908574
-0.03209513 -0.02607479 -0.052547634 -0.0013301929 -0.055594623 -0.062722035 0.0014424775 0.08044224
-0.061401747 0.044810526 0.11245488 -0.004129774 0.09352476 0.19073494 0.07437452 0.1482643
0.0866624 0.093758486 0.045141336 0.02660294 -0.016859319 -0.08212022 -0.066486605 -0.030008055
-0.035337403 -0.10981399 0.02899184 0.057808504 0.08189887 0.014145349 0.03803583 -0.046590474
0.09915855 0.029141834 -0.036903307 -0.045887362 -0.0005571913 0.010106628 0.05985024 0.064961046
0.062103517 0.082786426 0.07773004 -0.084445976 0.028917503 -0.0059349355 0.012655877 -0.029749908
-0.06704875 0.028712371 0.018979253 -0.0040904786 0.08246264 -0.08738412 -0.025008721 0.012963801
0.043331653 0.12491675 0.03907909 0.091890365 -0.062621996 -0.08998741 -0.101984285 0.073384695
-0.045706138 0.017398495 -0.04771592 -0.07920669 -0.0068804985 0.09009477 -0.056886446 -0.04326918
0.034957226 0.08460059 -0.017283475 0.09465983 0.18975057 0.37373093 0.069043905 0.10325629
0.24844457 0.04025662 0.0015269368 0.1658808 -0.101373985 0.0012312664 -0.07566389 -0.050776448
-0.070421055 -0.048820976 0.015433343 -0.004694891 0.011242432 0.07686793 0.09439328 0.029431516
0.08065937 -0.05366243 -0.081052355 -0.022394404 -0.0057009817 -0.073010765 0.053414974 -0.08226003
-0.009840166 -0.07714524 -0.052589975 -0.038965885 0.055365607 -0.048214067 -0.07232917 -0.04663097
0.0013832531 -0.020116048 0.060431533 -0.0047383644 -0.092089266 0.0024134498 0.058427833 -0.008444257
-0.12535292 -0.037752263 -0.06537454 0.11590573 0.16185568 0.09234145 0.047953885 -0.033644553
0.060963713 -0.0321912 0.11931783 -0.087849766 -0.14463705 -0.10006985 -0.076833345 -0.036217805
0.08205521 -0.0958053 -0.1031149 -0.09945095 -0.0830244 -0.08540651 0.042541873 -0.105594195
0.06915911 0.0013381314 -0.08424157 -0.04635697 0.057112735 0.06928732 0.03148306 -0.08451132
-0.13249366 -0.073168956 -0.120348275 0.06434752 -0.010204925 -0.01247485 -0.03086974 0.08202339
00000000: 2def 413d 8488 a7bd c012 54bd 3cc0 143e
00000010: 8be3 923c 9ffc 743d d115 c5bc e97f 843d
00000020: 883b 76bd 7ce3 373d a9a6 acbd 5892 e83c
00000030: bb1c 9d3d 2fdb ebbd cc65 acbd fb16 1abd
00000040: 9d1d be3b 0fa7 e1bd 861d 82bd 2af7 afbd
00000050: d3ca 12bd c2fa 49bd 427e b2bd 8956 31bd
00000060: ac74 543c 93c1 73bd c200 e23c 923b 853d
00000070: 35b9 ba3c e13f 953c 155b ab3d ce41 afbd
00000080: 7ccc 55bd 32bc 81bd 31b1 e73c a480 b4bd
00000090: b23d b8bd 58ed d7bc 42d8 c2bd 782f 9c3d
000000a0: f8bc aabd fac7 d5bc 96fb 493d 058e db3b
000000b0: 34d9 0ebc 7696 21bd 85ea babd 2733 e73c
000000c0: b22c 7fbd d93e 5cbd 5876 f1bc cf61 14bd
000000d0: 1fba f83c ac29 56bd 1d1b 673d 52a4 b2bb
000000e0: cdd9 04bd de60 183c 159a 513b f2d4 de3c
000000f0: 1322 983d bbe1 4a3d fb07 8cbd 8848 80be
00000100: 021e 26be ba60 3ebd 7e3d c5bc baf9 683d
00000110: 6702 1ebd 61e0 523d b75c f8bc fe19 93bd
00000120: 6709 673d f650 9ebd a556 20bd 80c1 abbd
00000130: ef9c adbd 92f5 aa3d e84c 44bd ff75 b53d
00000140: 2ec2 003c f766 a13c a5f8 dfbb d01d 2ebd
00000150: cb7c 113c b3f8 92bd 318a 11bc efc8 00bd
00000160: 425a 183d 467e 9ebd 21a5 163e 0315 623d
00000170: df83 08bd 1771 d23c 0229 2b3d a10a 3cbd
00000180: 2f76 03bd cc9a d5bc 303c 57bd de59 aeba
00000190: 30b7 63bd 6974 80bd 8311 bd3a e7be a43d
000001a0: 6680 7bbd 3e8b 373d be4e e63d 0e53 87bb
000001b0: e989 bf3d 0550 433e ab51 983d 99d2 173e
000001c0: 0e7c b13d 7304 c03d 1fe6 383d 69ee d93c
000001d0: 8e1c 8abc a52e a8bd 212a 88bd 74d3 f5bc
000001e0: f4bd 10bd 28e6 e0bd 4c80 ed3c 9cc8 6c3d
000001f0: 98ba a73d e5c1 673c 75cb 1b3d a7d5 3ebd
00000200: a313 cb3d dbba ee3c ec27 17bd 63f4 3bbd
00000210: 7a10 12ba 4596 253c 8625 753d 4c0a 853d
00000220: 4260 7e3d ee8b a93d ed30 9f3d 03f2 acbd
00000230: 66e4 ec3c d979 c2bb 985a 4f3c 14b6 f3bc
00000240: db50 89bd 3536 eb3c 617a 9b3c 6c09 86bb
00000250: 2ce2 a83d 72f6 b2bd 17df ccbc 1f66 543c
00000260: 887c 313d 5ad4 ff3d 6511 203d 0431 bc3d
00000270: f63f 80bd 524b b8bd 23dd d0bd b74a 963d
00000280: 5c36 3bbd 4a87 8e3c c571 43bd 1e37 a2bd
00000290: ce75 e1bb 9b83 b83d c301 69bd 063b 31bd
000002a0: 4f2f 0f3d 1343 ad3d 1396 8dbc 03dd c13d
000002b0: f94d 423e a959 bf3e e466 8d3d 0978 d33d
000002c0: 4168 7e3e 20e4 243d 7f23 c83a a8dc 293e
000002d0: 2a9d cfbd 7262 a13a abf5 9abd f7fa 4fbd
000002e0: ea38 90bd 81f8 47bd 22dc 7c3c 9ad7 99bb
000002f0: 2d32 383c ef6c 9d3d 4451 c13d 5d1a f13c
00000300: bd30 a53d 23cd 5bbd c7fe a5bd 7874 b7bc
00000310: 4dcf babb ab86 95bd a9c9 5a3d f277 a8bd
00000320: a638 21bc 53fe 9dbd 9668 57bd b19a 1fbd
00000330: 0cc7 623d 1d7c 45bd 5121 94bd 1e00 3fbd
00000340: 464e b53a 69ca a4bc 0e87 773d 4844 9bbb
00000350: 4c99 bcbd f82a 1e3b 0652 6f3d c859 0abc
00000360: 845c 00be 1ea2 1abd 16e3 85bd fc5f ed3d
00000370: 7fbd 253e 841d bd3d 4b6b 443d dfce 09bd
00000380: 16b5 793d ebda 03bd e85c f43d 94ea b3bd
00000390: bc1b 14be 6cf1 ccbd cd5a 9dbd 1f59 14bd
000003a0: 900c a83d 9235 c4bd e82d d3bd f1ac cbbd
000003b0: b208 aabd 9ce9 aebd 6340 2e3d c541 d8bd
000003c0: 4ba3 8d3d 3d64 af3a d886 acbd cee0 3dbd
000003d0: 0bef 693d 83e6 8d3d 62f4 003d 4514 adbd
000003e0: 6bac 07be 9bd9 95bd 2879 f6bd a2c8 833d
000003f0: 8f32 27bc 5063 4cbc 89e2 fcbc e1fb a73d

mid_parts.2.0.bias f4 [12]
-0.056210056 -0.016285606 -0.09628296 0.051715292 -0.03214018 0.024985611 0.085942455 0.09631844
-0.06835581 -0.03833665 0.0034549786 0.07046826
00000000: 843c 66bd 6469 85bc 0030 c5bd 6ad3 533d
00000010: 6ca5 03bd a0ae cc3c 9902 b03d 9a42 c53d
00000020: 22fe 8bbd e406 1dbd ec6c 623b aa51 903d

mid_parts.2.1.weight f4 [12]
0.2519294 0.2785313 0.29330334 0.19240054 0.2610819 0.1559538 0.11703928 -0.24412508
0.24355778 0.41917995 0.28774318 0.12581915
00000000: e4fc 803e a89b 8e3e db2b 963e a604 453e
00000010: 87ac 853e 5ab2 1f3e 4ab2 ef3d edfb 79be
00000020: 3667 793e c19e d63e 1353 933e bcd6 003e

mid_parts.3.0.weight f4 [12, 12, 3, 3]
-0.0059278165 0.027169859 0.03566751 -0.00068699993 -0.10113432 0.062454645 -0.08997883 0.0043336186
0.030944489 -0.08788055 0.09483665 0.03519323 -0.075652085 0.07007451 -0.046090342 0.0077289916
0.059333324 -0.00063811714 -0.06580381 0.0064805597 0.019545313 0.0125937555 -0.03145998 -0.007966958
-0.007429511 -0.07974233 -0.099380456 0.009465087 0.0003180808 -0.030800434 0.05530484 0.043464504
-0.03942818 -0.062360384 0.0027248834 0.10506541 0.03300579 0.037395794 0.043281514 0.068508185
-0.045603234 -0.11184379 0.08307099 0.10830942 0.04843155 0.05543414 -0.0343343 0.13857196
0.051795244 0.050168086 -0.03649201 0.109250136 0.105104774 -0.016157484 -0.039203316 -0.09159237
0.10545155 -0.17335759 -0.069871135 -0.14497899 -0.052038446 0.021184964 0.036819074 -0.0750622
-0.03362415 0.09774372 -0.062310625 0.09728445 0.038346197 -0.015690902 0.040828936 0.04214764
0.015954241 0.053231325 0.028535891 0.047099315 -0.018273043 0.000631879 -0.10651981 -0.09371976
-0.076817 0.036695495 -0.08683338 -0.02492793 0.06828201 -0.059085734 -0.022455785 -0.08331048
-0.0030749748 -0.081456214 -0.06972709 0.10122191 0.018323803 0.06954816 0.017874563 -0.0271418
-0.028992468 0.06120134 -0.09700534 -0.016327126 -0.04193654 0.08458078 -0.060985055 -0.027178649
-0.054966517 -0.032207787 -0.022086408 0.025511824 0.007704642 -0.031131119 -0.09041257 0.092011146
-0.058638364 -0.07332512 0.026169628 -0.040963907 0.07460472 0.07755849 0.048500802 -0.019222107
0.005188826 -0.017482005 -0.06689539 -0.038414557 0.06313041 0.06306098 0.03552497 0.040200848
0.049867354 0.096304655 0.09996776 0.0069899685 0.04231596 0.04086665 -0.028548123 -0.117974155
-0.06610816 -0.06146773 -0.0350638 0.038727287 0.085259356 0.05853136 0.056083117 0.022484817
-0.085014954 0.056931507 -0.010062957 -0.056616005 -0.102055624 -0.12832162 -0.0071158386 0.032766294
0.0150392875 0.10963472 0.018098937 0.018942337 -0.032465193 -0.09275694 -0.043491874 0.030936664
0.048256695 0.07733263 -0.018985013 0.07810567 -0.0975759 -0.070466235 0.098202854 0.028612504
-0.006049708 0.07425631 0.035126586 -0.07633269 -0.041617915 0.0066163163 -0.025444034 -0.067172624
0.04856204 -0.06980654 0.044634737 -0.10808274 -0.03978157 0.066628434 -0.082865275 -0.059687503
0.068894856 0.0768254 0.08794502 -0.04925787 -0.050300956 -0.05119991 0.0126248915 -0.07470838
0.079380356 -0.049796678 0.062090658 0.014332786 -0.0699994 -0.094801545 -0.0027889512 0.05916393
-0.03221692 0.018363062 -0.02309468 -0.07004007 -0.051070742 0.04300107 -0.022362188 0.09540902
0.10253966 -0.039610695 0.09621407 0.060152613 -0.05532703 0.0880927 0.08855444 -0.0012916079
0.084391944 0.039174784 -0.052925758 -0.025118941 0.057747066 -0.044618785 0.030499777 0.06659183
-0.049391266 -0.09341987 0.052922267 0.08190012 0.055724166 0.031008828 0.07535535 -0.05462528
-0.050075993 -0.093338825 0.08826367 -0.0057775774 0.033829555 -0.06784932 -0.1026384 0.043255687
0.037724383 0.011301674 0.013818403 -0.008164846 0.039097857 -0.06401462 -0.008169604 0.030318359
-0.016455168 0.034464385 -0.017379742 -0.043731306 0.06668125 0.064772874 -0.009913679 0.037369322
00000000: 213e c2bb 5393 de3c 1818 123d c917 34ba
00000010: 831f cfbd 71d0 7f3d d246 b8bd 0701 8e3b
00000020: 4c7f fd3c b8fa b3bd b839 c23d c726 103d
00000030: 7bef 9abd 3a83 8f3d 3ac9 3cbd 7b43 fd3b
00000040: 8007 733d 5147 27ba 26c4 86bd e05a d43b
00000050: 7e1d a03c 0a56 4e3c 2edc 00bd d887 02bc
00000060: 4173 f3bb f24f a3bd fb87 cbbd 7413 1b3c
00000070: 15c4 a639 3151 fcbc 5487 623d d607 323d
00000080: 717f 21bd 9a6d 7fbd f593 323b 892c d73d
00000090: 1431 073d 552c 193d f547 313d 054e 8c3d
000000a0: 75ca 3abd 5b0e e5bd 2021 aa3d 54d1 dd3d
000000b0: 2960 463d e90e 633d 1fa2 0cbd cfe5 0d3e
000000c0: 4027 543d 0d7d 4d3d a578 15bd 89be df3d
000000d0: 2c41 d73d b35c 84bc a893 20bd c894 bbbd
000000e0: fbf6 d73d a784 31be 9918 8fbd 5f75 14be
000000f0: 4426 55bd 178c ad3c 99cf 163d 36ba 99bd
00000100: 7ab9 09bd dc2d c83d 6d39 7fbd 123d c73d
00000110: e710 1d3d 358a 80bc 3e3c 273d 01a3 2c3d
00000120: 78b2 823c 1709 5a3d 1ac4 e93c 36eb 403d
00000130: 59b1 95bc afa4 253a 0f27 dabd 25f0 bfbd
00000140: 3b52 9dbd 044e 163d b3d5 b1bd a935 ccbc
00000150: 70d7 8b3d e203 72bd 32f5 b7bc af9e aabd
00000160: 8485 49bb 84d2 a6bd 14cd 8ebd 6f4d cf3d
00000170: cd1b 963c 446f 8e3d ad6d 923c 7b58 debc
00000180: 9d81 edbc 42ae 7a3d bcaa c6bd 77c0 85bc
00000190: a6c5 2bbd b038 ad3d 77cb 79bd c2a5 debc
000001a0: 9224 61bd 50ec 03bd 8eee b4bc 2cfe d03c
000001b0: 3977 fc3b b006 ffbc 3a2a b9bd 5770 bc3d
000001c0: c82e 70bd 7b2b 96bd b061 d63c c5c9 27bd
000001d0: 5cca 983d fcd6 9e3d c7a8 463d ae77 9dbc
000001e0: 0707 aa3b 6c36 8fbc 7300 89bd 9558 1dbd
000001f0: 844a 813d 1d26 813d a282 113d a5a9 243d
00000200: b641 4c3d 603b c53d e6bb cc3d 1b0c e53b
00000210: 8053 2d3d ca63 273d c1dd e9bc 6f9c f1bd
00000220: b763 87bd 96c5 7bbd 0f9f 0fbd 81a0 1e3d
00000230: 759c ae3d 94be 6f3d 69b7 653d 1432 b83c
00000240: 521c aebd 0331 693d 1adf 24bc 2fe6 67bd
00000250: 8a02 d1bd be66 03be fb2b e9bb f335 063d
00000260: 5867 763c 2b88 e03d 3944 943c f62c 9b3c
00000270: 39fa 04bd 5af7 bdbd 8924 32bd e36e fd3c
00000280: d0a8 453d 9260 9e3d 7586 9bbc def5 9f3d
00000290: e0d5 c7bd 9a50 90bd 941e c93d c564 ea3c
000002a0: a13c c6bb b113 983d e5e0 0f3d 5054 9cbd
000002b0: 8c77 2abd afcd d83b 0270 d0bc cd91 89bd
000002c0: fde8 463d bbf6 8ebd ead2 363d 7c5a ddbd
000002d0: 00f2 22bd 7d74 883d 45b5 a9bd e27a 74bd
000002e0: bf18 8d3d a356 9d3d 851c b43d 9fc2 49bd
000002f0: 6008 4ebd ffb6 51bd a2d8 4e3c b500 99bd
00000300: 2b92 a23d 9af7 4bbd c652 7e3d 10d4 6a3c
00000310: d85b 8fbd 5027 c2bd d6c6 36bb e155 723d
00000320: e4f5 03bd 226e 963c 0e31 bdbc 2b71 8fbd
00000330: 8e2f 51bd e421 303d e830 b7bc ce65 c33d
00000340: 5000 d23d d33e 22bd e20b c53d 9662 763d
00000350: 999e 62bd f269 b43d 085c b53d 2b4b a9ba
00000360: afd5 ac3d bd75 203d aec8 58bd 3dc6 cdbc
00000370: 3088 6c3d 30c2 36bd abda f93c 4c61 883d
00000380: 7f4e 4abd eb52 bfbd 05c5 583d 40bb a73d
00000390: 063f 643d 3a06 fe3c e853 9a3d c2be 5fbd
000003a0: 7c1c 4dbd 6d28 bfbd 95c3 b43d d551 bdbb
000003b0: dc90 0a3d 96f4 8abd 1534 d2bd e02c 313d
000003c0: e284 1a3d a82a 393c 9566 623c d9c5 05bc
000003d0: 1325 203d 191a 83bd ced9 05bc 355e f83c
000003e0: fdcc 86bc 872a 0d3d f65f 8ebc 991f 33bd
000003f0: 2e90 883d a4a7 843d fc6c 22bc 9310 193d

mid_parts.3.0.bias f4 [12]
-0.06826174 -0.096112885 0.023789661 0.035452712 0.06267887 0.088764586 -0.016378663 -0.013747259
0.044489186 -0.030777296 -0.04649956 -0.07078666
00000000: d0cc 8bbd d5d6 c4bd 89e2 c23c dd36 113d
00000010: c85d 803d 35ca b53d 8c2c 86bc 2f3c 61bc
00000020: 4b3a 363d ab20 fcbc 5376 3ebd 99f8 90bd

mid_parts.3.1.weight f4 [12]
0.23786597 0.2503993 0.12505096 0.24397114 0.017764103 -0.0063335504 0.23850413 0.26393324
0.15586324 0.12983632 0.29815328 0.2519047
00000000: 2393 733e 5634 803e 5c0d 003e 92d3 793e
00000010: 0686 913c ac89 cfbb 6d3a 743e 4222 873e
00000020: 9d9a 1f3e d0f3 043e 8ca7 983e a7f9 803e

last_part.0.weight f4 [56, 12, 1, 1]
0.10640967 -0.11990173 -0.12833722 0.22408575 -0.19854663 -0.20603809 0.13776773 -0.051149238
0.15429175 -0.08589527 0.059175808 -0.15695591 -0.068608314 0.25826257 0.26498643 -0.11191883
-0.020379702 0.010103666 -0.25817803 0.0060394136 -0.031818204 0.10446508 0.18131188 0.13338439
0.2593843 0.1264224 -0.101041764 -0.2118943 -0.24806792 0.12965424 -0.06642933 0.17793427
-0.07839537 -0.1681351 0.060210686 -0.055505246 -0.06990097 0.06322824 -0.11601593 -0.009096353
0.077998884 0.13869284 -0.19052084 -0.2670468 0.09706935 0.030130187 -0.17610642 0.12295632
-0.13292417 0.2636417 -0.3059573 -0.043535914 -0.12601592 -0.27937287 -0.04398894 0.1941836
-0.25937593 0.28605184 -0.28594032 -0.12450265 -0.24153952 0.2461429 -0.20610675 0.008284072
-0.14958395 0.04724777 -0.06441661 -0.017755836 -0.2511648 -0.036811076 0.023216823 0.139972
-0.16525899 -0.13320588 0.25066808 0.088749066 0.2179701 -0.13204905 -0.13526535 -0.22665003
0.042073324 0.2701688 -0.11726918 0.05066829 -0.22044201 0.032043118 0.14577897 0.054645933
-0.0985768 0.033647947 0.16350557 -0.021961644 -0.329455 -0.11177933 0.22883722 -0.060059953
-0.08363118 0.08264013 -0.13207296 -0.11318739 -0.16671163 -0.09513124 -0.1415382 -0.15603563
-0.258986 0.0014268302 -0.24460694 -0.19113262 0.16351439 -0.12997474 0.09229713 0.14762673
-0.122448266 0.23615398 0.05457456 0.07378281 -0.23649758 -0.023350537 0.04677021 -0.062716834
-0.15378167 -0.050534304 -0.2436524 0.17436938 -0.16225731 0.1717198 -0.041846663 0.068189785
0.109586075 0.20608492 -0.11320052 0.026741521 -0.20984706 -0.09234361 -0.24022257 -0.110467516
-0.04407791 0.13972208 -0.08620925 0.048189014 0.21435924 0.24928804 0.12839289 0.29790902
0.067538865 -0.10272992 0.10240908 -0.17170495 -0.20253448 -0.19795473 0.20631893 0.17028417
0.10160152 -0.17690021 0.32617432 -0.05581438 -0.07112362 0.1587544 -0.012075887 0.093017966
-0.15971221 0.10258665 -0.015633455 -0.22143713 -0.24396478 -0.056646343 0.17836118 0.042248983
0.0864778 0.17193139 -0.08277329 0.15200418 0.1568244 0.27480924 0.043234102 -0.2109323
-0.063073054 0.11789958 -0.05429032 0.13551955 0.12665108 0.010451706 -0.18614914 0.038393706
-0.08347196 -0.27951086 0.091793224 0.25636947 0.14176774 -0.14121243 0.28508428 0.22304042
0.25175235 -0.24961665 -0.17629921 0.049194027 0.031562448 0.28440803 -0.20966698 -0.089709304
-0.31372344 -0.17184326 0.24041055 0.18472947 -0.1742403 0.19152983 0.18132012 0.26809743
0.3044783 -0.13026868 -0.121038914 0.018243827 -0.16093323 0.06295935 -0.26417902 0.24964394
-0.24231263 0.20463502 0.22533998 0.12197652 -0.26845512 -0.14150356 -0.053744 -0.19168812
-0.34830123 0.21307373 -0.2052386 0.0424702 -0.16525893 0.03358998 -0.20137022 -0.20940925
0.116405524 0.12702167 0.026281225 0.17895104 0.09658501 -0.115124024 0.2985281 0.09381621
-0.16980755 0.24400501 -0.15152994 0.15579191 0.22978413 -0.32238322 -0.28519723 0.19378184
0.29294482 0.10798049 0.21250133 -0.122590795 -0.15939412 0.037939426 -0.06912865 -0.07526766
00000000: 50ed d93d 0a8f f5bd d56a 03be bc76 653e
00000010: cf4f 4bbe a6fb 52be fc12 0d3e dd81 51bd
00000020: a8fe 1d3e dce9 afbd 5562 723d 0db9 20be
00000030: 8482 8cbd fe3a 843e 4dac 873e b335 e5bd
00000040: 55f3 a6bc d989 253c e92f 84be 46e6 c53b
00000050: ce53 02bd caf1 d53d d2a9 393e eb95 083e
00000060: 05ce 843e e074 013e fcee cebd d2fa 58be
00000070: 8405 7ebe 15c4 043e 1a0c 88bd 6734 363e
00000080: c08d a0bd 9c2b 2cbe 7b9f 763d 7859 63bd
00000090: 3d28 8fbd cf7d 813d c399 edbd df08 15bc
000000a0: e1bd 9f3d 7f05 0e3e e517 43be 5cba 88be
000000b0: 4ccc c63d 95d3 f63c 3e55 34be 86d0 fb3d
000000c0: 461d 08be 0bfc 863e 6fa6 9cbe b752 32bd
000000d0: 510a 01be f609 8fbe bf2d 34bd 11d8 463e
000000e0: eccc 84be 6375 923e c566 92be 3ffb febd
000000f0: 2356 77be e20c 7c3e a60d 53be ebb9 073c
00000100: 892c 19be e186 413d dbec 83bd b074 91bc
00000110: ac98 80be 36c7 16bd 3531 be3c d254 0f3e
00000120: a739 29be 1f67 08be 9157 803e 12c2 b53d
00000130: 8e33 5f3e de37 07be 0083 0abe f216 68be
00000140: 1455 2c3d 9153 8a3e d32a f0bd 8e89 4f3d
00000150: 8dbb 61be a53f 033d 1547 153e 6ad4 5f3d
00000160: a2e2 c9bd 6ed2 093d 016e 273e e8e8 b3bc
00000170: 53ae a8be 90ec e4bd 4e54 6a3e 6d01 76bd
00000180: d346 abbd 3a3f a93d 223e 07be cace e7bd
00000190: 74b6 2abe 2bd4 c2bd 64ef 10be cec7 1fbe
000001a0: d099 84be 7a04 bb3a 3e7a 7abe 45b8 43be
000001b0: 5170 273e 1918 05be 4706 bd3d 762b 173e
000001c0: 28c6 fabd 59d2 713e 9389 5f3d 711b 973d
000001d0: 6c2c 72be a049 bfbc 1f92 3f3d af71 80bd
000001e0: f178 1dbe 0ffd 4ebd 0480 79be e38d 323e
000001f0: c826 26be 51d7 2f3e 6867 2bbd 16a7 8b3d
00000200: aa6e e03d ed07 533e add5 e7bd 0911 db3c
00000210: 26e2 56be a61e bdbd e8fc 75be cb3c e2bd
00000220: 0a8b 34bd 4e13 0f3e 7a8e b0bd d861 453d
00000230: fd80 5b3e 5d45 7f3e 6d79 033e 8887 983e
00000240: d151 8a3d 1064 d2bd dabb d13d 6cd3 2fbe
00000250: 3365 4fbe a5b4 4abe 4545 533e f95e 2e3e
00000260: 7514 d03d 5425 35be 5200 a73e 9f9d 64bd
00000270: 43a9 91bd 8390 223e f1d9 45bc 3480 be3d
00000280: 998b 23be f318 d23d bb11 80bc 6ac0 62be
00000290: e7d1 79be ff05 68bd 50a4 363e 450d 2d3d
000002a0: 461b b13d c80e 303e 0b85 a9bd fca6 1b3e
000002b0: 9396 203e ccb3 8c3e 3e16 313d a3fe 57be
000002c0: 722c 81bd 5675 f13d 875f 5ebd a3c5 0a3e
000002d0: d2b0 013e a23d 2b3c e19d 3ebe b842 1d3d
000002e0: 59f3 aabd 0c1c 8fbe 16fe bb3d dc42 833e
000002f0: 902b 113e fe99 10be 91f6 913e b564 643e
00000300: afe5 803e 829b 7fbe c887 34be ad7f 493d
00000310: a047 013d ee9d 913e f1b2 56be 83b9 b7bd
00000320: 5ca0 a0be aef7 2fbe 2f2e 763e b929 3d3e
00000330: 0d6c 32be 6520 443e fbab 393e 1144 893e
00000340: 94e4 9b3e 2765 05be 40e3 f7bd 1474 953c
00000350: aecb 24be d5f0 803d 7942 87be a9a2 7f3e
00000360: cd20 78be d88b 513e 86bf 663e d3ce f93d
00000370: f372 89be 4fe6 10be ab22 5cbd e449 44be
00000380: 8a54 b2be 0030 5a3e 112a 52be 3cf5 2d3d
00000390: a339 29be a695 093d ff33 4ebe 616f 56be
000003a0: 0566 ee3d f811 023e b94b d73c f13e 373e
000003b0: 5dce c53d 25c6 ebbd add8 983e b722 c03d
000003c0: 08e2 2dbe 73dc 793e aa2a 1bbe ea87 1f3e
000003d0: 884c 6b3e 6a0f a5be 5f05 92be bf6e 463e
000003e0: ddfc 953e e024 dd3d f399 593e e210 fbbd
000003f0: 3638 23be 5f66 1b3d 5293 8dbd ee25 9abd

last_part.0.bias f4 [56]
-0.11790267 -7.3977084e-05 0.20408326 0.19752748 0.07223144 0.034528375 0.07573562 -0.114730686
0.25048393 -0.14047483 0.014379205 0.0734602 0.18459576 -0.00693889 -0.24251232 0.2119204
0.09721021 -0.10265272 0.19139107 0.07946501 0.010626518 -0.10725101 0.08056475 -0.14486498
0.014303527 -0.049527936 -0.1563188 0.14620039 -0.14413151 0.12518771 -0.2467331 -0.1241862
-0.0048933052 0.16882427 -0.190067 0.027114507 0.15661037 0.07081738 -0.17832477 0.059938323
-0.21732858 -0.25712156 0.15801917 0.1684722 0.21802752 0.026730945 0.18131277 0.20038532
-0.16510855 0.016567027 -0.017598014 -0.0975443 -0.24364366 0.2009401 -0.045992766 0.16927281
00000000: f476 f1bd 2524 9bb8 34fb 503e a544 4a3e
00000010: 14ee 933d a06d 0d3d 471b 9b3d ecf7 eabd
00000020: 6e3f 803e a2d8 0fbe c296 6b3c 4d72 963d
00000030: ac06 3d3e a15f e3bb 2655 78be a901 593e
00000040: 2616 c73d 973b d2bd 05fc 433e 8dbe a23d
00000050: d91a 2e3c 6ba6 dbbd 22ff a43d 7c57 14be
00000060: 5759 6a3c cedd 4abd 0912 20be 8eb5 153e
00000070: 3697 13be 3531 003e 9aa7 7cbe 5655 febd
00000080: 0558 a0bb 45e0 2c3e eca0 42be 3e1f de3c
00000090: 785e 203e b408 913d c59a 36be e381 753d
000000a0: 628b 5ebe 70a5 83be c7cf 213e fa83 2c3e
000000b0: 9b42 5f3e dbfa da3c 0eaa 393e cf31 4d3e
000000c0: 3712 29be 93b7 873c b629 90bc 4ec5 c7bd
000000d0: b97d 79be 3ec3 4d3e e962 3cbd da55 2d3e

last_part.1.weight f4 [56]
0.24045266 0.20591336 0.17701623 0.25 0.11712437 0.206571 0.25 0.25330707
0.20491306 0.24645501 0.25 0.25 0.2812256 0.22962943 0.24793027 0.25
0.2082432 0.23310162 0.1445715 0.26836333 1.3789947 0.20839486 0.25 0.17413741
0.28462267 0.23122074 0.23388237 0.25 0.22727403 0.26054418 0.24802093 0.253368
0.20323028 0.25 0.23876803 0.22957245 0.28283024 0.29567447 0.24436845 0.22036205
0.23750152 0.24789456 0.25 0.27482826 0.26673484 0.032417502 0.21245253 0.27532223
0.25008428 -0.010753041 0.25599417 0.2544122 0.17347635 0.23530766 0.26486427 0.21480718
00000000: 3939 763e f4da 523e be43 353e 0000 803e
00000010: e7de ef3d 5987 533e 0000 803e 77b1 813e
00000020: bbd4 513e b45e 7c3e 0000 803e 0000 803e
00000030: cdfc 8f3e fa23 6b3e 6fe1 7d3e 0000 803e
00000040: b53d 553e 31b2 6e3e 8d0a 143e eb66 893e
00000050: e682 b03f 7665 553e 0000 803e 1451 323e
00000060: 10ba 913e 21c5 6c3e dc7e 6f3e 0000 803e
00000070: 86ba 683e 0c66 853e 33f9 7d3e 73b9 813e
00000080: 991b 503e 0000 803e 9b7f 743e 0a15 6b3e
00000090: 20cf 903e a562 973e b93b 7a3e 97a6 613e
000000a0: 9933 733e 12d8 7d3e 0000 803e 4ab6 8c3e
000000b0: 7891 883e 37c8 043d 288d 593e 09f7 8c3e
000000c0: 0c0b 803e 862d 30bc ab11 833e 5142 823e
000000d0: c9a3 313e 7ef4 703e 4a9c 873e 6af6 5b3e
