weights/best_model_falsrb.pth (torch, 116359 bytes, 9 tensors)

conv1.weight f4 [32, 1, 3, 3]
000000 a4 e4 85 3e 4d 9e 26 3d 23 7a be 3e d3 a6 05 3f
       0.26151 0.04067831 0.37202558 0.5220768
000010 a4 d2 07 3f f3 96 cb 3e d5 9f ab 3e e9 8f 37 3d
       0.5305579 0.39763603 0.3352038 0.044814978
000020 d8 f9 d4 bd ea bf 05 3f 5c 3a 80 3e 09 86 b4 3e
       -0.103992164 0.5224596 0.25044525 0.3525851
000030 24 d5 08 3f e3 5c 44 3e 55 88 16 3f f5 57 2d 3f
       0.53450227 0.19176058 0.58801776 0.67712337
000040 37 8a 36 3e 0c 32 ca 3e b2 1b 2d 3e 86 2c f8 bc
       0.17826162 0.39491308 0.16905096 -0.030294668
000050 d3 7e 00 be fa 5d 81 be b9 b8 b0 bd f9 89 59 be
       -0.1254838 -0.2526701 -0.08628983 -0.21244039
000060 9e 07 83 be 4c 3c 37 3b 40 f3 41 3d bd 0d b9 bd
       -0.2559175 0.0027959524 0.047351122 -0.090358235
000070 9b 31 bb be 1e 4c 59 3e 0e 57 83 bd a3 26 1c 3e
       -0.36561283 0.21220443 -0.06413089 0.15249114
000080 49 ac a6 3e cb 7a 48 3e 3f 65 64 3e e4 48 09 3f
       0.32553318 0.19578092 0.22304247 0.5362685
000090 34 1d 10 be df 53 4f 3e 50 53 11 be 98 35 20 3f
       -0.1407364 0.20246838 -0.14191937 0.6258178
0000a0 2b a7 cf bd 85 aa 64 3d df 9f f9 3e 14 1c 8a be
       -0.10139307 0.055826683 0.48754784 -0.26974547
0000b0 0b 4b 80 bc 96 08 54 3d 53 02 93 3e 86 d9 bd 3d
       -0.015660783 0.051766 0.2871271 0.09270005
0000c0 76 64 4a 3e 8b 98 98 bd d6 b5 b7 3d ce d8 02 3e
       0.19764885 -0.0745097 0.08970229 0.12778017
0000d0 eb b4 c0 bd cb 2e 26 3d e8 60 48 be 83 3d a9 3e
       -0.09409507 0.04057197 -0.19568217 0.33054742
0000e0 60 b1 21 be 5e 63 98 be 06 57 0f be 8a ed 81 3e
       -0.1579032 -0.2976331 -0.1399804 0.2537654
0000f0 a6 c7 e1 3d c0 78 e4 3d 4b 34 f2 bd 46 67 6e be
       0.11024408 0.11155844 -0.1182638 -0.23281583
000100 1b ef 5c 3f 1f 5b 6a be 21 8e 42 bf d3 65 02 3f
       0.86302346 -0.22886322 -0.7599812 0.5093662
000110 01 37 05 3f f0 99 3f bf a5 dc 80 3e 96 00 f7 3e
       0.52037054 -0.74844265 0.25168338 0.48242635
000120 87 4c b6 be 0a b7 98 3c 90 7a 31 3e 69 e6 9c be
       -0.3560526 0.018641967 0.1733191 -0.3064454
000130 c0 e3 ff be 27 5b 45 be 9d 73 99 be 0b 42 c4 be
       -0.49978447 -0.19273053 -0.29971018 -0.38331637
000140 dc 81 03 bf bb 97 21 3e d6 81 93 bd 60 3b 4c 3e
       -0.51370025 0.15780537 -0.072024986 0.19944525
000150 7f da 99 be 20 db 3f bd db 82 49 be 2e d4 7c 3e
       -0.30049512 -0.046839833 -0.19678824 0.24690315
000160 82 7a 9e 3e 46 4d 32 be 99 26 7d 3e f7 8b 22 be
       0.3095284 -0.1741229 0.24721755 -0.15873705
000170 83 c0 e3 3d 4e 84 a5 bb 92 c5 98 3e 30 c9 87 3e
       0.11120703 -0.0050511723 0.29838234 0.2652068
000180 24 e3 57 3d e5 66 ae 3e 62 ff 23 3e 0b 34 2a bd
       0.052706853 0.34062877 0.1601539 -0.04155354
000190 60 86 93 be 9a 07 92 be db 7d ec bd f0 b3 c0 bd
       -0.28813457 -0.28521425 -0.115474425 -0.0940932
0001a0 5e 48 4c 3e e0 f9 56 be 80 12 96 3d 4b 9e 4c 3d
       0.19949481 -0.20993757 0.07327747 0.049955647
0001b0 57 c0 3e 3d e7 f6 16 3e a4 86 47 3d e4 ec 3a 3e
       0.04657015 0.14742623 0.048712388 0.18254429
0001c0 f7 2f 20 3e 5c 94 62 3e d7 d5 2b 3e 1c 2f 91 bd
       0.15643297 0.22126907 0.16780792 -0.070890635
0001d0 ea fc bd 3e 5b 4c bd bd ab a3 e3 3c ee a2 53 be
       0.3710702 -0.09243079 0.027788004 -0.20667621
0001e0 d8 78 9e be 10 a9 fa 3d 00 9d 72 3e 00 12 2a 3c
       -0.3095157 0.12239277 0.23692703 0.010380268
0001f0 68 d4 29 3e d6 af 86 bd ca 28 83 be dc 3f 25 bd
       0.16584933 -0.06576507 -0.25617057 -0.040344104
000200 69 2a 7a 3e 7e f9 64 3d c2 83 9a 3e a5 c7 cb 3c
       0.2443024 0.055901997 0.30178648 0.024875471
000210 3c c8 5f 3e 58 15 92 be 2c 69 73 3e cb 4f 57 be
       0.21853727 -0.2853191 0.23770589 -0.21026532
000220 df 00 a2 be 20 aa 96 3d ae 1b 39 be cb 92 67 bd
       -0.3164129 0.073566675 -0.18076965 -0.056536477
000230 80 9b e9 3c 13 73 6c be 56 30 36 bc 90 90 08 3e
       0.028516531 -0.23090772 -0.011119923 0.13336396
000240 5b 94 22 3f 27 12 10 3f 0d 53 63 3e 1c 1e 7b 3f
       0.6350762 0.562777 0.2219965 0.9809282
000250 fa 7a 39 3f f6 88 c8 3e c6 92 92 3e f2 3b 5d 3f
       0.7245327 0.39166993 0.28627604 0.86419594
000260 79 b3 d0 3e 1d 75 b6 bd 34 27 a5 3e d1 c3 4b be
       0.40761927 -0.08909056 0.32256472 -0.19898917
000270 1b bb e7 3c 05 4f 05 3c e9 53 67 bd 3b 18 e8 bb
       0.028287461 0.0081365155 -0.056476507 -0.0070829666
000280 39 c0 d4 3e 39 e4 ac 3e e8 d7 01 bd ca 8e 13 bf
       0.41552904 0.3376787 -0.031700045 -0.57639754
000290 db a8 09 be 4d d3 08 bf b0 1d e4 be 7c 1f c6 ba
       -0.1344332 -0.5344742 -0.445539 -0.0015115584
0002a0 27 12 d6 be d1 d0 08 3d 78 c7 f9 be e0 98 f9 bd
       -0.41810724 0.033402268 -0.48784995 -0.12187362
0002b0 32 cf 98 be 56 3b bf bd eb 98 6c 3d 1b a5 33 be
       -0.29845577 -0.09337489 0.05776302 -0.17543451
0002c0 a4 80 90 be b8 1c 27 be 90 ff 87 3e 56 d5 bd 3a
       -0.28223145 -0.16319549 0.26562166 0.0014483135
0002d0 fd 55 61 3e 51 4d df 3e 81 c5 a7 3d 04 c8 ed bd
       0.22005458 0.43613675 0.08191968 -0.116104156
0002e0 00 57 64 3d f7 7a e1 3d a7 62 ef 3e 4d 9e 06 3d
       0.055747032 0.11009782 0.46754953 0.03286581
0002f0 21 b3 a3 3d 8e 07 76 3e 40 2a a8 bd 3b 53 4e be
       0.079931505 0.2402632 -0.082111835 -0.20148937
000300 3e 0b 1e be 66 ce 9c 3e 4f 9a 97 be eb c9 50 3e
       -0.15433976 0.3062622 -0.29609916 0.20389526
000310 30 37 82 3e 8b b0 8f be ae f9 8c be 3b d1 de 3d
       0.2543273 -0.2806438 -0.2753424 0.10879751
000320 98 02 2f be 4b 8c 59 bd 23 98 37 be a8 40 7e be
       -0.17090833 -0.05311231 -0.1792913 -0.24829352
000330 97 e1 86 be e6 b0 83 3e 26 b4 ff 3d 15 ab 0b 3f
       -0.26343986 0.257209 0.124855325 0.54557925
000340 86 b9 47 3e fa 7f 8c 3e a9 08 27 3f 56 62 38 3f
       0.19504365 0.27441388 0.6524759 0.7202505
000350 33 14 0b 3f 66 fd ab 3e 06 6d 59 3f 08 94 8b 3e
       0.54327697 0.33591765 0.8493198 0.27261376
000360 9e c1 b2 be 15 ed 74 be da ea db be c1 e1 22 bf
       -0.34913343 -0.23918565 -0.42952615 -0.63625723
000370 51 b4 1b 3f 29 f1 6e bd af 11 4e 3f 22 a0 29 3f
       0.60822016 -0.058335457 0.80495733 0.6625997
000380 c4 6c 45 3f 78 80 0b 3e 80 fe 5c be d1 9b b6 be
       0.7711909 0.13623226 -0.21581459 -0.35665753
000390 e3 7f 20 bf 54 59 09 bf 5d ca dd be 04 5c 28 bf
       -0.6269514 -0.5365193 -0.43318453 -0.65765405
0003a0 e1 b9 1e bf 47 f2 b8 be 23 02 6e 3e d7 08 9a be
       -0.6200238 -0.36122343 0.23243003 -0.3008487
0003b0 f6 85 a3 be 6b 37 d7 3c 36 9d bd 3d 08 c0 59 3e
       -0.31938142 0.026271543 0.09258501 0.2126466
0003c0 c8 d7 75 3e 8e 21 82 be ab 27 dd 3c 40 61 a9 3d
       0.24008095 -0.25416225 0.026996454 0.08270502
0003d0 7a 81 89 3d 79 cc 7d 3e d0 83 b5 3e b7 d4 0f 3f
       0.06714149 0.24785031 0.35452127 0.5618395
0003e0 af ca 0d 3f 0b c9 46 3e 78 00 3d 3e 42 9f 1f 3f
       0.55387396 0.1941263 0.1845721 0.62352383
0003f0 86 83 01 bf 9d 68 f9 be 74 4a 10 bf 0e af 67 bf
       -0.50591314 -0.48712626 -0.56363606 -0.9050149

conv1.bias f4 [32]
000000 97 57 9f 3d a4 d4 fe 3b fe e8 13 3e ce 0e b6 3d
       0.07780378 0.0077768136 0.14444348 0.088895425
000010 a2 00 09 3b 47 6a a8 be 00 e5 7f bd a5 d7 7b bb
       0.0020904918 -0.32893583 -0.06247425 -0.0038428095
000020 77 7c 84 3e 6b 3d e0 bd 5a fd 83 3e d6 a4 37 bd
       0.2587621 -0.109492145 0.2577923 -0.044834934
000030 ac 8a a0 3d aa f2 89 be 56 04 c3 bd 80 77 3f bd
       0.078389496 -0.2694295 -0.095223114 -0.046744823
000040 a3 3d c4 3a ad 90 24 3e 75 cb 34 3e e4 87 97 be
       0.0014971982 0.16070814 0.17655738 -0.29595864
000050 b2 71 88 3e 13 55 99 be b6 67 74 be ec 3a 6e 3b
       0.26649243 -0.2994772 -0.23867688 0.0036351038
000060 b3 f5 a0 bb c1 30 ab 3d 30 e4 84 bd cf b9 42 3d
       -0.004912102 0.083589084 -0.06488836 0.047540482
000070 ac 26 c8 3c 23 0a 18 be 7d cf 21 3b d3 cc 36 3d
       0.024432503 -0.14847617 0.0024690323 0.04462893

residual.0.weight f4 [32, 32, 3, 3]
000000 d6 eb 2d 3c 67 a1 40 3c 2e 1c 9a 3c e3 ab e7 bc
       0.01061531 0.011757231 0.018812265 -0.028280204
000010 df ee dd 3c 25 fb 48 bd 02 7b b1 bc 40 39 f3 bc
       0.027091442 -0.049067635 -0.0216651 -0.029690385
000020 d9 3e 05 bd aa f4 e8 bd 9c cf f4 bc cf 27 f7 bc
       -0.03253064 -0.11374791 -0.029884152 -0.03017035
000030 71 be a2 bd 99 a0 83 bd 20 20 1c bd c6 ec 8d bd
       -0.0794648 -0.06427116 -0.038116574 -0.069299266
000040 56 60 a7 bd 53 61 14 bd 03 af ab bc fa 10 d7 bc
       -0.081726715 -0.036225628 -0.020957476 -0.026253212
000050 2c 87 29 3d 27 de 09 3d 68 9b 0c 3b 70 8a 11 3c
       0.041388676 0.033659127 0.0021454934 0.008883104
000060 ba 4f aa bc 3d c9 65 3d 7c 5b 7d 3d 8a 0e 25 3c
       -0.02078997 0.05610012 0.061854824 0.010074267
000070 9b ec 1d 3d 68 a6 41 bd 78 1a 0f 3d 83 df 36 bd
       0.038555723 -0.047277838 0.034937352 -0.04464675
000080 1f 58 d5 3c 42 32 00 bd 7d f8 91 3b 2b 1a 39 bd
       0.026042996 -0.03129793 0.004454671 -0.04519097
000090 56 61 2d 3d 1d 3a 31 bd 70 48 3a bc 9c ed 2a 3c
       0.042329155 -0.04326831 -0.0113698095 0.010432627
0000a0 f5 99 e5 bc b5 d3 9f 3c f1 1d 36 bc 14 ed d5 3c
       -0.028027514 0.01951013 -0.011115537 0.026114024
0000b0 c2 9f 7e bd c1 c8 6e bd 85 4c 9b 3c c7 1b 16 3d
       -0.062164076 -0.058296923 0.018957386 0.036647584
0000c0 42 af cf bc c0 bc f9 bc 0f 95 db 3c c0 c5 8a bb
       -0.025352124 -0.03048551 0.026804475 -0.0042349994
0000d0 91 87 c0 bc 37 38 42 bd ec df a9 3c 5b 1d 17 bd
       -0.023502143 -0.047416892 0.020736657 -0.03689323
0000e0 d9 a9 9e 3c 8c e4 33 bd 8f ba fa 3b 21 72 53 3d
       0.019368099 -0.04391913 0.007651634 0.051622514
0000f0 74 34 63 3d 79 a8 b0 3c 5d ab 6c 3d 79 64 8f bd
       0.055469945 0.021564709 0.057780612 -0.070015855
000100 d0 7e 85 3c 69 ff 86 3e 02 c5 aa bc 0c 18 24 bc
       0.01629582 0.26366737 -0.020845894 -0.010015499
000110 65 50 53 3e 9b 37 9d bd ee 29 0a bb 7e 88 a4 3e
       0.20636137 -0.076766215 -0.002108212 0.32135385
000120 3a af 2e bd 04 f5 6c bc 16 65 ce 3c 1d e5 6c bd
       -0.042647578 -0.014462713 0.025194686 -0.057835687
000130 c5 39 36 bd 9f 4c 75 3d c3 f2 b8 3c b9 67 63 3d
       -0.044488687 0.059887525 0.022576695 0.05551884
000140 ad 5f 71 3d d5 23 d3 bc 66 6e 85 bc 28 bb 71 bc
       0.058929134 -0.025773922 -0.016287994 -0.014754094
000150 16 0c 38 bc e1 1f 54 bd 14 68 13 3d 08 d0 a4 3c
       -0.01123335 -0.051788215 0.03598793 0.020118728
000160 4d 49 c9 bc 38 fc 9a 3c fb 03 fe bc 38 43 9c 3c
       -0.024571085 0.018919095 -0.031007757 0.019075021
000170 db de 15 3d ab 43 48 bd d6 2a 6c bd af ee 2e bd
       0.036589485 -0.04889266 -0.05765804 -0.042708095
000180 2f 8f 78 bd 1b 19 32 3d 44 c3 2c 3d f1 fb d3 bc
       -0.060683426 0.043480974 0.042178407 -0.025876971
000190 fa 73 9f bc e3 0f 4d 3d 52 88 c1 3b c5 85 01 bc
       -0.019464482 0.05006398 0.005906143 -0.007905428
0001a0 51 19 8f bb 1c 50 51 3d 6a e7 54 3d 5d 17 38 bd
       -0.0043670316 0.05110179 0.051978506 -0.044944156
0001b0 76 3b ea bc 10 04 6c bd e4 a6 9e bb 1f e7 8a bd
       -0.028592806 -0.05762106 -0.0048416723 -0.06782364
0001c0 da f6 15 bd aa b3 06 3d 1c 8f 27 3d 7a 75 c1 3a
       -0.03661237 0.032886185 0.040907964 0.0014759742
0001d0 72 c0 ab 3c 6e d0 17 bd 87 ba bb 3c 6b 58 bb bc
       0.020965789 -0.03706401 0.022916092 -0.02286931
0001e0 32 2f 44 3d b3 91 fd bb 13 e8 2b 3d 55 c9 c9 3c
       0.04789657 -0.007738316 0.04196937 0.024632135
0001f0 a7 3b 3b bd 64 d5 53 bd dc ca 30 3c 7f e3 d5 bc
       -0.045711186 -0.051717177 0.010790553 -0.026109455
000200 0e cd ec bb 15 87 69 bd 71 ed b4 3b cc 96 31 3d
       -0.007226593 -0.05701359 0.0055214693 0.0433567
000210 bc d0 5e bd 5c 7a 03 bb 0f 9d 6e bd bf 1a 52 bd
       -0.054398283 -0.0020061946 -0.05825525 -0.05129504
000220 73 3d 9c bc 51 e8 4f bd 04 d7 14 bd 3d 9f 45 bd
       -0.01907227 -0.050758664 -0.036337867 -0.048247565
000230 a0 c6 10 3d 25 a7 fb 3c d2 44 1a 3d 6e e9 0d 3d
       0.035345674 0.03071935 0.03766329 0.034646444
000240 d3 dc 80 be 0b 46 a0 be 1d 1d 73 be a7 e3 ab be
       -0.25168476 -0.3130344 -0.23741575 -0.33572122
000250 9d 39 9a be 9a 23 91 be bf a5 af be e0 82 bc be
       -0.3012208 -0.28347474 -0.34306142 -0.368186
000260 ea dd bc be 8a 16 ea bc fb 6d 0c bd 5e 44 46 3d
       -0.36888057 -0.0285752 -0.034284573 0.048405044
000270 ad f9 05 bc 47 f4 3d bb 99 a8 73 3b b7 e1 38 3b
       -0.008177203 -0.0028984712 0.003717935 0.0028210708
000280 41 d2 a3 bc 29 54 44 bd e0 64 07 bd 52 79 80 3c
       -0.019997718 -0.047931824 -0.033055186 0.01568285
000290 54 ee 46 bc fb ab 4e bc 1c 11 bb ba e4 fb 2f bd
       -0.012141783 -0.0126142455 -0.0014272067 -0.04296483
0002a0 6e 62 fd 3c 71 b4 02 3d 2d e1 80 bc 60 27 3a bc
       0.030930724 0.031910364 -0.015732372 -0.011361927
0002b0 0c f1 e5 3b d7 c7 4e bd 7e dc f6 bb 16 30 36 3c
       0.0070172604 -0.05048355 -0.007533609 0.011119863
0002c0 31 55 16 3d 4c 41 2a 3c 30 9b 42 3d 8f 62 53 3d
       0.03670234 0.010391545 0.04751128 0.051607665
0002d0 10 41 29 bd 7e a9 e9 3c 5a a4 29 3d f2 f9 47 bb
       -0.041321814 0.028523203 0.041416503 -0.003051397
0002e0 4a a2 5b 3d f8 2e 2b bd e4 be b2 bc 78 90 2d bd
       0.053621568 -0.04179284 -0.02181954 -0.042374104
0002f0 d0 36 8c 3c 93 e0 c7 3c 11 c8 ec 3c e6 3b e6 bc
       0.01711598 0.024399078 0.028903993 -0.028104734
000300 35 a7 31 3d 44 96 86 bc 37 5d 10 bd 77 bd af bc
       0.04337235 -0.016429074 -0.035245147 -0.021452649
000310 a0 cb 39 3c 37 64 0d bd 28 25 8d bb 5b b3 51 3d
       0.011340052 -0.0345194 -0.004307408 0.051196437
000320 60 cb cd bc 5b d5 ca 3c 2e ba 44 bc c4 44 7a bc
       -0.02512139 0.024759939 -0.012007279 -0.015275184
000330 e6 13 25 3d a2 50 bf 3c 83 a0 fa ba 89 31 6e be
       0.04030218 0.023353878 -0.0019121323 -0.23261084
000340 98 0d 1d be 63 21 2a be 66 8f 4b be 8a 02 56 be
       -0.15337217 -0.16614299 -0.19878921 -0.20899406
000350 23 5b 7a be 22 24 8f be 0e f5 57 be 3b 9f 3b be
       -0.24448828 -0.27957255 -0.21089575 -0.1832246
000360 50 65 df bc ba e4 99 3f 10 7f 06 40 cc c3 f6 bc
       -0.02726999 1.2022927 2.1015053 -0.03012266
000370 65 62 dc 3e 91 ac a3 3f 25 5b 56 bc b5 47 f8 3e
       0.4304382 1.2787038 -0.013083254 0.48492208
000380 fb 7a 6f 3f 07 47 95 3d b1 72 13 bd f0 1b 29 3d
       0.9354703 0.07288938 -0.03599805 0.04128641
000390 22 b3 9d bc e4 9f 9c bc d7 2f 89 3c 9a 7a 4a 3d
       -0.019250456 -0.01911921 0.016746445 0.04943333
0003a0 a3 5c a3 3d 5b f5 d6 3c 3d 74 e9 bc 4a 8f 82 ba
       0.079766534 0.026240041 -0.02849781 -0.0009960916
0003b0 77 95 38 3d 44 63 53 3d ca 70 45 3c b8 a6 37 bd
       0.045064416 0.05160834 0.012050817 -0.04483673
0003c0 64 02 18 bd d6 99 89 bc 08 82 3e bd 5e 5b c6 3c
       -0.037111655 -0.016796988 -0.046510726 0.02421349
0003d0 35 1f 65 bd 39 ea 8c bd 7e bd 9e bd cf 6d 27 bd
       -0.055937964 -0.06880612 -0.077509865 -0.040876206
0003e0 d9 e9 e1 bc 95 2e 68 bd a8 ef ea bc d8 d0 14 bd
       -0.027577328 -0.05668505 -0.02867873 -0.03633198
0003f0 a3 3a 12 3e c0 d8 23 3e 35 69 fd 3d 18 5d 30 3e
       0.1428018 0.16000652 0.12373582 0.17223012

residual.0.bias f4 [32]
000000 13 19 78 3c 17 9d 16 3d 2e 97 3f bd ea 76 0c 3d
       0.015142697 0.036770906 -0.046775036 0.034293093
000010 eb 13 36 bc 4b 63 ca bc 5b 88 ad bb 29 a9 7c bd
       -0.011113147 -0.02470555 -0.005295796 -0.06168476
000020 f6 98 4b 3d a7 1c 27 3d a6 a0 43 bc 88 a9 24 bc
       0.04970642 0.04079881 -0.011940157 -0.010050185
000030 53 0a 24 bc 78 96 59 bd cf c6 85 bd 4c 5c 08 3d
       -0.010012227 -0.053122014 -0.0653206 0.033291146
000040 62 9e 96 bd 21 b8 45 bd af dd 0f 3d 34 67 c5 ba
       -0.07354428 -0.048271302 0.035123523 -0.0015060664
000050 e1 34 1f bd bd cd 90 3c bd d9 a3 bc 65 36 ea 3c
       -0.03886879 0.017676229 -0.020001287 0.02859039
000060 6e 7c 58 bd a2 67 29 bd 13 e8 0c bd 7e d7 1c 3d
       -0.05285304 -0.041358598 -0.03440101 0.038291447
000070 85 89 2b bc 4d bf 2c 3d 25 3e 9f bd 91 5a be bc
       -0.010469799 0.042174626 -0.07775525 -0.023236545

residual.2.weight f4 [32, 32, 3, 3]
000000 9e fe 01 bd 01 de a6 bd 3f bd b3 bd 8a 28 f2 bd
       -0.031736962 -0.08147813 -0.0877633 -0.118241385
000010 83 8a 13 bd 12 0f d2 bd 97 07 92 bd 8f 62 d2 bd
       -0.036020767 -0.10256781 -0.07130354 -0.10272705
000020 6d 36 8f bc 61 cb ae bd ef b7 20 bd 1e 3e ee 3c
       -0.017482007 -0.08534885 -0.039237913 0.029082354
000030 d8 c1 bb bc 6c b4 af bc 36 5f 93 bd 8b 58 63 bd
       -0.02291958 -0.021448337 -0.071958944 -0.055504363
000040 c9 54 47 3b 27 f4 80 bc 90 74 42 bd 9f cf 3e bd
       0.0030415526 -0.01574142 -0.047474444 -0.04658472
000050 e5 3a 61 3d d0 ca 3e 3d a2 28 d2 3b 09 43 43 bd
       0.054987807 0.046580136 0.006413535 -0.04767135
000060 f4 0b 77 3c 1e e2 1b 3d 3c 73 d4 3c bb ef 85 bd
       0.015078533 0.03805744 0.025933854 -0.065398656
000070 be 0e 8b bd bd f9 a3 bc 2d ba 8e bd 5c d1 48 bc
       -0.06789921 -0.020016545 -0.06969104 -0.012256946
000080 50 a6 2e bd 07 c2 68 bd 96 b1 39 bd 64 df a8 bd
       -0.042639077 -0.056825664 -0.045335375 -0.082457334
000090 73 12 0d bc 2c 9a ce 3b 68 98 2f 3d 12 ab 4f 3d
       -0.008610356 0.006305 0.042869955 0.050700255
0000a0 d3 7b 70 bd 36 00 6e bc 13 52 95 bb b0 18 46 3d
       -0.058711838 -0.0145264175 -0.004556903 0.048363388
0000b0 dc b9 0e 3b bb ee fb 3c b4 a9 ee bc aa a2 48 bc
       0.0021778261 0.030753484 -0.029133655 -0.012245813
0000c0 19 6e e3 bb 60 c5 34 3d 3b 7c ea 3c 4b 5d eb 3b
       -0.006940615 0.044133544 0.02862369 0.0071827522
0000d0 4a be 63 3d a1 fe 5a bd 11 c9 7c bd 9c db fc bc
       0.055601396 -0.05346549 -0.06171519 -0.030866437
0000e0 7c 43 97 3b a9 2b 4c 3d 81 79 d4 3b a3 a2 03 3c
       0.004616199 0.049846325 0.006484211 0.008034381
0000f0 e8 12 ca 3c 9b dd 4a bc 40 66 e2 bc a7 a0 27 3d
       0.024667218 -0.012381936 -0.027636647 0.040924694
000100 03 f8 1e 3d 8f 8d 4a 3c 14 9d ad 3b 76 1a 9a bc
       0.03881074 0.012362852 0.005298266 -0.018811446
000110 25 70 2b bc 18 91 5d bd a8 f1 52 3c d5 9d d0 3c
       -0.010463749 -0.05409345 0.012874998 0.025465885
000120 5e e0 66 bd 25 45 11 3d 10 09 f5 bc fb 88 2e bd
       -0.056366317 0.035466332 -0.029911548 -0.042611104
000130 3e d0 69 bd 6b 2a df bc 7c e3 e9 3b 75 76 bf 3c
       -0.05708336 -0.027241906 0.007137714 0.023371914
000140 87 37 cb 39 82 b1 c4 3b 3b 15 9e bd 85 d1 1d bd
       0.00038760548 0.006002606 -0.07718893 -0.03852989
000150 74 a0 44 3d 28 b1 da bd 2e ff 1d 3c f5 cd ca 3c
       0.048004583 -0.10678321 0.009643359 0.024756411
000160 a7 e7 61 bd 74 f8 84 3c 80 88 d5 bc 7b a6 8f bd
       -0.05515256 0.016231753 -0.026066065 -0.070141755
000170 24 29 ad bd 0f 97 16 bd 34 71 11 3d 54 8c 02 3b
       -0.084551126 -0.036765154 0.03550835 0.0019920068
000180 74 5e 38 3a 03 a0 a8 3d d2 bd 8b 3d 13 51 7d bd
       0.00070331176 0.08233645 0.06823315 -0.061844897
000190 39 da 79 bd 88 50 af bd 61 71 74 bd d5 a9 dd bd
       -0.06099913 -0.08560282 -0.05967844 -0.108234085
0001a0 f7 da 85 bc cc 62 7a bd df 94 cd bd 9e c8 81 bd
       -0.016339762 -0.061129376 -0.100381605 -0.06337093
0001b0 d9 21 32 3d 6f 4b 4f bc b9 df 91 3a f3 d0 80 bb
       0.04348931 -0.012652262 0.0011129297 -0.0039311587
0001c0 5e c0 2b 3d 86 9e 2b 3d 93 61 e4 3c 14 6f 25 bd
       0.041931503 0.041899227 0.027878558 -0.040389135
0001d0 40 12 fe bc 72 7a 84 3d 48 0e 67 3d 1c 3e 3e 3d
       -0.031014562 0.06468667 0.056410104 0.04644595
0001e0 b4 9c 6c bc e0 9e 2a bc b2 4b b0 bc 50 6d 11 bd
       -0.014441658 -0.010413855 -0.02152047 -0.03550464
0001f0 58 67 11 3b 94 02 bb bc 58 60 49 bd 61 be f7 3c
       0.0022186842 -0.022828378 -0.049164146 0.030242147
000200 84 3f 13 bd f5 b8 39 3d b8 9d 1d bc d9 f4 5d bd
       -0.035949245 0.045342404 -0.009620123 -0.054188583
000210 a2 5f bf 3a 2b b5 28 3d 90 35 de 3a 41 81 3d 3d
       0.0014600644 0.0411884 0.0016953219 0.046265844
000220 db c1 a6 bc 35 2a e4 bc de b1 5f bd d8 9b 33 bd
       -0.02035611 -0.027852157 -0.054612987 -0.043849796
000230 76 a3 2c 3d 37 dc 88 3c f1 8e 4b 3a e7 38 ba 3c
       0.042148076 0.01670657 0.00077651354 0.022732211
000240 c8 07 6e bd 20 c4 62 3c b1 6a 06 3d 8b 35 58 3d
       -0.05811289 0.013840705 0.032816593 0.052785438
000250 e6 c8 06 bc 13 90 e7 3a 6b 00 34 bd 2b 66 3e 3d
       -0.008226609 0.0017666839 -0.04394571 0.046484154
000260 0c 41 5c 3c 89 44 12 3c 88 9e 54 bc d9 25 d5 3c
       0.013443243 0.008927473 -0.01297725 0.026019024
000270 42 27 03 3d 00 75 1a 3d 4a 7d d7 3c f3 fe 86 3c
       0.03201986 0.037709236 0.02630486 0.016478991
000280 e4 8f d5 bc 49 22 5c bc 6a 8b 66 3d 6b 2f df 3c
       -0.026069589 -0.013435909 0.0562853 0.02724429
000290 65 15 1f 3d dd aa 2d bc 8e 4b de 3c 38 d0 60 3d
       0.038838763 -0.010599819 0.027135637 0.054886073
0002a0 87 ff d8 bc c0 23 45 3d bc 8e 12 3d 51 63 0c bd
       -0.026489032 0.048129797 0.035780653 -0.034274403
0002b0 fa 0c dd 3c d3 00 20 3d b8 ac 58 bd 7f 09 cd 3c
       0.026983727 0.039063286 -0.052899092 0.025028942
0002c0 f7 27 4b 3c 9b 22 fe 3b e7 f3 14 3c 24 d8 1b bd
       0.012399665 0.00775559 0.009091354 -0.038047925
0002d0 2b f7 ae bc 1a 2d 4b bd 46 aa 9e bb e3 e6 30 bd
       -0.021358093 -0.04960356 -0.0048420755 -0.04318894
0002e0 a5 56 51 3c 8c 67 92 bd 24 ba d4 bc 7d 50 17 bd
       0.012777005 -0.07148656 -0.025967665 -0.036941994
0002f0 12 a1 98 b7 9f f0 9a bd 21 76 17 3d ff 4e b2 bc
       -1.8194816e-05 -0.07565426 0.03697789 -0.021766184
000300 cd 14 58 bd b1 4b c0 3c c5 44 62 bd 0c 6f 8d bd
       -0.052754212 0.023473592 -0.055241365 -0.06905946
000310 49 71 8e bc b6 0f 21 3a 93 2d 67 bd ed e7 4a bd
       -0.017388003 0.0006144004 -0.056439947 -0.049537588
000320 0b 1a c8 bc 7a ab 41 bd e0 f3 71 3c f1 1e aa 3c
       -0.02442648 -0.047282673 0.014767617 0.020766707
000330 d2 d3 a5 3c e2 97 6e ba b2 d2 1c bc f3 5a 74 bd
       0.020242605 -0.0009101612 -0.009571718 -0.05965705
000340 fc c4 1e bd 6b 9e 72 bd ca 67 cd bc 08 62 6a 3c
       -0.038762078 -0.05923311 -0.025073905 0.014305599
000350 06 f2 96 3c d3 78 1f 3d 97 6b b4 3c 4b 21 c6 3b
       0.018425953 0.038933586 0.02202396 0.0060464493
000360 c3 ca 59 bd 13 15 2e bd d1 d7 7c bd 44 bb 0d bd
       -0.053171884 -0.042500567 -0.061729256 -0.03460242
000370 e8 e1 e1 bc b8 e0 41 bd f0 f7 d2 3c 6f 27 cd bc
       -0.02757354 -0.04733345 0.025752991 -0.025043217
000380 38 c8 07 bd ae d9 26 bd 41 0e 6c bd 8c 87 3d 39
       -0.033149928 -0.04073494 -0.05763078 0.0001807494
000390 6a 27 35 bd 97 3e 57 3d 79 b7 23 bd 5a b6 cc 3c
       -0.04422704 0.052549925 -0.039969895 0.024989296
0003a0 6f 10 83 bd 9e a5 ca 3b 8d 0e 4e bd 80 b2 d8 3c
       -0.06399619 0.006184294 -0.050306845 0.026452303
0003b0 a9 82 d4 bc c6 99 62 bd 9b 52 e1 3c 74 08 17 3c
       -0.02594121 -0.05532243 0.02750521 0.009218324
0003c0 bd 8f 14 bd 8b 7c 61 3d 1e 12 2a bd 51 73 38 bd
       -0.036269892 0.055050414 -0.041521184 -0.04503185
0003d0 ef 0e 88 3c d6 86 93 3c c0 b3 a0 bc ac de cd 3c
       0.016608683 0.01800863 -0.019616961 0.025130592
0003e0 2b 6d 74 bd 6e 6e 40 3b ca 8a 05 bc bd 6b 83 bd
       -0.059674423 0.0029362696 -0.008150766 -0.06417034
0003f0 03 16 8d 3c a9 e0 c5 bc 0c 5b 22 3d f8 63 2f bd
       0.01722241 -0.024154978 0.03963761 -0.042819947

residual.2.bias f4 [32]
000000 e5 e7 b1 bc 63 95 88 ba 8a c5 98 3c 1d 95 5c bd
       -0.021717021 -0.0010420497 0.018648881 -0.053853143
000010 5f 5f 02 bd 3b 6c 89 3c 03 cb e2 3c 6a f3 03 bd
       -0.031829234 0.016775241 0.027684694 -0.03221456
000020 1e 12 5f bd cf 9d 9e bc 5d 04 0b 3d cc a2 17 bd
       -0.054460637 -0.019362358 0.033939708 -0.03702049
000030 4c 2b 3d bd e3 ae fb bc 39 1d 2a bd 25 c9 90 bd
       -0.04618387 -0.03072304 -0.041531775 -0.07069615
000040 43 4d a3 bb e5 19 a4 bb 85 02 51 bd f6 bc a4 3c
       -0.0049835755 -0.0050079697 -0.051027793 0.020109635
000050 f7 7f 97 bd 96 05 1c bd 09 ea 1c 3d 87 3c 0c bc
       -0.07397454 -0.038091265 0.03830913 -0.008559353
000060 e1 44 4d bd ab e9 41 bd b5 a9 fd 3c 98 c5 1f 3d
       -0.050114516 -0.047341984 0.030964712 0.0390068
000070 b4 9c 96 3c e8 e3 6b 3c cb 0c 37 bc f7 5a 31 3c
       0.018385269 0.014397599 -0.011172484 0.01082491

conv2.weight f4 [32, 32, 3, 3]
000000 3f 61 97 3a 48 91 98 3d 63 08 62 bc 32 ce a5 3d
       0.0011549367 0.07449585 -0.013795945 0.08095969
000010 72 34 26 3d 83 5b a2 3d f8 fe 00 3d 84 2a b7 3d
       0.04057736 0.07927611 0.031493157 0.08943656
000020 1a b3 74 3d d4 c2 94 3c 17 a7 36 3d 9d 3c 27 bd
       0.059741117 0.018159308 0.044592943 -0.04082929
000030 b2 d6 99 bc 82 d6 4e 3d f4 57 41 3d 75 e9 df 3c
       -0.018779133 0.05049754 0.04720302 0.027333
000040 41 90 78 3d 73 15 a4 3d 07 f6 1d bc 34 f1 30 bd
       0.060684446 0.080119036 -0.009641177 -0.04319878
000050 d5 54 69 3d eb 8b 3a 3d a9 f6 3d bd 10 2a 3b 3c
       0.056965668 0.045543592 -0.04637781 0.011423603
000060 7c 89 1c bd 65 a2 67 3d 51 1a 9a bb 95 12 bd 3b
       -0.038217053 0.056551356 -0.004702844 0.0057700374
000070 46 cd 12 bd 5e 50 5e 3d 70 90 09 bc 28 6d 79 bc
       -0.035840295 0.054275863 -0.008396253 -0.015223779
000080 cc 3c 3f 3d ea 98 f9 bb 94 b1 81 3d 65 2e 0e 3d
       0.04668884 -0.0076171057 0.063326985 0.034712214
000090 0d 75 1c 3d 06 3e 9f 3c c7 13 32 bd bf e2 05 3d
       0.038197566 0.019438755 -0.043475892 0.032686945
0000a0 7b 27 d3 bb d7 d2 a0 bb ab e0 02 bd 4d be b7 bc
       -0.0064439154 -0.0049079466 -0.03195254 -0.02242961
0000b0 ee 4f a9 39 19 c7 8f bd 2f dc 09 3d b7 77 3b 3c
       0.00032293744 -0.07020397 0.03365725 0.011442116
0000c0 96 36 24 3c 8e c6 b2 bc f3 d1 59 bd 2d b9 69 3d
       0.01002278 -0.021823194 -0.05317874 0.057061363
0000d0 88 eb b4 bc 94 9c c5 3d 78 46 42 3d 66 f8 f2 3c
       -0.022084966 0.096490055 0.047430485 0.029659461
0000e0 e1 06 17 3d d7 af 4c 3c 12 2c 92 3d fd 27 02 3d
       0.036871795 0.012493095 0.07137312 0.031776417
0000f0 bf f7 e6 3c ce 91 21 3d 51 1a 83 3d 9d 2c 0c bd
       0.028194306 0.03944569 0.06401504 -0.034222234
000100 87 80 e4 3c fc 62 1f 3d 62 89 f8 bc ce 27 b0 3d
       0.027893318 0.03891276 -0.030338947 0.08601342
000110 b5 5c 53 3d 74 da 2b bd 40 e4 9e 3d 25 93 83 3c
       0.051602084 -0.04195638 0.07758379 0.016061375
000120 21 03 42 bd 6e d4 86 bc 14 ae e2 bc 39 df 42 3d
       -0.047366265 -0.016458716 -0.027670898 0.047576163
000130 ba 6e 1f bd 0d b0 d9 3c 5f 84 46 bd 29 4d 5b 3d
       -0.038923956 0.026573205 -0.048466083 0.053540383
000140 1a 5c c2 3c 06 0f 22 3d 0d b8 a7 bb ee 78 11 bb
       0.023725558 0.03956511 -0.005118376 -0.0022197324
000150 e8 ea c7 38 14 06 a9 bd 4b ab 02 bd 07 85 10 3c
       9.532814e-05 -0.082531124 -0.03190164 0.008820779
000160 56 57 a8 bd a9 1b 90 bd e3 a2 47 3d af 6f 41 bc
       -0.08219783 -0.07036526 0.048739325 -0.011806413
000170 1e ca 43 3d 43 55 8b 3c 59 00 ae 3c 8a bf b0 3c
       0.047800176 0.01700843 0.0212404 0.021575708
000180 84 c3 28 bd fa 79 a5 bb ee 70 11 bc e0 bc 30 bb
       -0.041202083 -0.005049941 -0.008877022 -0.0026968047
000190 24 9d 0f bd 55 ee 36 3d 41 0a 54 3c 00 64 cd bc
       -0.03506197 0.044660885 0.012941898 -0.025072098
0001a0 5b a0 74 bd d0 be 3b bd 7f 47 bb bc 46 65 dd 3c
       -0.05972324 -0.04583627 -0.02286124 0.02702583
0001b0 48 ab 27 3d f3 10 80 bc 16 2c 29 39 67 7b ce 3d
       0.04093483 -0.015633082 0.00016133519 0.10082131
0001c0 df 0c d0 3d a3 9e ba 3d 75 7f a2 3d 90 51 a3 3d
       0.10158705 0.09112289 0.07934467 0.07974541
0001d0 35 40 dd 3d 64 6a 6a 3d 26 90 a5 bc 58 25 d7 3c
       0.10803262 0.05723037 -0.020210337 0.026262924
0001e0 6d 8e 50 bc 35 10 3d 3d 2d 77 3d bd be d1 d0 3b
       -0.012729269 0.046158034 -0.046256233 0.0063726595
0001f0 72 79 0f bd 63 e7 7d bc bd f9 2d bd 44 c4 cf ba
       -0.03502793 -0.015497061 -0.042474497 -0.0015851338
000200 a3 14 61 3c c9 68 b2 bd 42 e7 2b bd b1 e9 02 3d
       0.01373783 -0.087113924 -0.04196859 0.031961147
000210 fd f0 71 bd 4b ef 4f bb 4a 16 15 bc a1 e2 26 3b
       -0.059067715 -0.0031728323 -0.009099552 0.0025464671
000220 97 5f 71 ba ae 17 07 3d d9 18 d6 39 4c f0 5d bd
       -0.00092076644 0.032981567 0.00040835774 -0.054184243
000230 ef 2c f0 3c b6 be fe 3c 66 d6 4a bd ba 8f 6d 3c
       0.029318301 0.031096797 -0.049520873 0.014499599
000240 f7 fe 84 bd 46 da cb bc 42 6c b5 bc 89 19 96 3d
       -0.06493943 -0.024884354 -0.022146348 0.07329089
000250 f0 00 9a 3c 19 cb 20 3d e4 e8 24 3d b7 76 25 bc
       0.018799275 0.03925619 0.040261164 -0.010099105
000260 d1 e3 50 3d 60 22 01 3d 0e bd c2 bb ae 5b 3f bb
       0.050998513 0.031526923 -0.005942947 -0.0029198932
000270 fc f7 3a bc 1d 49 45 3d 95 14 2c bd be 15 20 bd
       -0.011411663 0.04816543 -0.042011816 -0.039083235
000280 cc 6b 5c bd b0 93 5c 3c b9 ee 0e 3d 5a 4b 3a bc
       -0.05381374 0.013462946 0.034895632 -0.011370504
000290 80 6a 3e 3c d8 2a cf 3c b6 07 b4 bc d4 d2 4a bc
       0.011622071 0.025288984 -0.021976333 -0.012379367
0002a0 78 0a f7 bb 80 64 88 3d cd 89 b7 bc 8b c6 f0 3a
       -0.00753909 0.06659794 -0.022404576 0.0018369717
0002b0 50 1a f4 bb cb 72 23 3d 02 34 b8 3b b0 ab 52 3d
       -0.0074494258 0.039904397 0.005621434 0.051433265
0002c0 f5 01 36 3d 59 e4 2e bd 90 34 f6 3c a9 68 6a bc
       0.04443546 -0.042698238 0.03005436 -0.0143071795
0002d0 29 c6 e2 3c 3f 90 5b 3d e4 0a 08 bd b7 22 69 3d
       0.02768238 0.05360436 -0.03321351 0.056917872
0002e0 3b b3 48 3c b5 d4 df 3b 95 bb 2d 3b df ef aa 3c
       0.012249763 0.0068307766 0.0026509513 0.020866333
0002f0 2b 7f 58 3c e8 50 5c bc 43 27 9d 3c 76 13 e4 3a
       0.013213913 -0.013447024 0.01918376 0.0017400819
000300 37 73 1e 3d 1c c4 aa bc 4d d9 b8 3b 1d 53 ba 3b
       0.038684096 -0.020845465 0.0056411386 0.0056861774
000310 a8 7e 4a bc 75 d7 6e b9 cd 6d 58 3d e5 28 45 3d
       -0.012359299 -0.00022777713 0.05283909 0.048134703
000320 16 47 0d 3d 0b 86 64 bb bd 6e 2c 3d bc a8 05 bc
       0.03449162 -0.0034869935 0.042097796 -0.008157905
000330 47 41 68 bc 9b 6b 42 bd 82 39 6e bc e6 3c 5e bd
       -0.01417572 -0.0474659 -0.014540078 -0.054257296
000340 81 68 3d 3c ac 67 9e 3c 47 95 09 3d 86 23 55 bd
       0.01156056 0.019336544 0.033589628 -0.05203583
000350 e8 04 50 bc 73 4a 1d bd bc a6 21 3d 90 08 e7 bc
       -0.012696482 -0.03840108 0.03946565 -0.028202325
000360 7a 71 e8 ba 00 2c d8 bc 12 2e 46 3d d2 1f e6 3c
       -0.0017734014 -0.026388168 0.04838378 0.028091345
000370 11 c1 d2 bc b3 90 a7 bc d6 c1 f7 bc 4d 82 73 bd
       -0.025726827 -0.02045474 -0.030243795 -0.059450436
000380 7f 0a 9a bd 1d 42 08 bc a2 52 04 3d 3e ef f5 3b
       -0.07521533 -0.008316544 0.032305367 0.0075053265
000390 08 99 19 3d 37 da 18 bd ca bf 1e 3d 4a 96 c7 3c
       0.037499458 -0.03731748 0.038757123 0.024363656
0003a0 ef f8 fa bc d4 bc 41 bd c2 7d 0d bd 57 43 4c 3d
       -0.030636279 -0.04729922 -0.03454376 0.049868908
0003b0 dd ef 74 bc 2a 9a c1 3c e3 d8 0b 3c 8e 30 07 bd
       -0.014949766 0.023633081 0.008535597 -0.03300529
0003c0 8d 44 cf bc b4 a0 9a 3d ae 54 b6 bc 86 00 ea bc
       -0.025301242 0.07550183 -0.022257175 -0.028564703
0003d0 23 e0 83 3d 65 2f e8 3c 04 21 9c 3d 40 73 38 3c
       0.06439235 0.028342912 0.07623485 0.0112579465
0003e0 f4 41 7c 3d b6 59 79 3d 38 c0 0d 3d ef eb 23 3d
       0.061586335 0.06087657 0.034607142 0.040019926
0003f0 59 62 ad 3c 9f 71 8a bd e3 45 62 3c 80 7e 9a bd
       0.02116506 -0.06759953 0.013810608 -0.07543659

conv2.bias f4 [32]
000000 3a 4a 7c 3c 96 2d 20 3a c7 70 f6 bb c8 c5 ac 3c
       0.015398556 0.00061103085 -0.0075207683 0.021090403
000010 c7 c3 f2 bd bc b4 a4 3c 42 f4 26 bd 50 4b 46 3d
       -0.11853748 0.020105712 -0.040760286 0.048411667
000020 55 42 f6 bc c7 1e 55 bd c6 5d 27 3c e1 a5 5e 3c
       -0.030060926 -0.052031305 0.010215228 0.013589353
000030 02 41 42 3d 7c c2 aa bc cd 7a 87 ba 7f 1e 29 bd
       0.047425278 -0.02084469 -0.001033628 -0.04128885
000040 05 31 51 3d a5 da 73 bd 37 54 ff bb a2 78 bc bd
       0.05107214 -0.059534688 -0.0077920216 -0.092026964
000050 4e c8 ba 3b ba 9a 9c bd 24 4c 56 3c 8b 6f 73 3d
       0.0057001477 -0.07646699 0.013079677 0.059432548
000060 9d 71 5b bd 0c 48 66 3d 5b 83 25 bd e7 e5 48 3a
       -0.053575147 0.056221053 -0.040408473 0.00076636527
000070 dd 0f 42 bd fe 58 07 3d a3 76 ef 3c bb 19 db 3c
       -0.04737841 0.033043854 0.029231375 0.026745668

upsample.weight f4 [1, 32, 3, 3]
000000 87 6e 93 bc 1f 15 93 3d a0 aa 1f 3d 8b a2 7c ba
       -0.01799704 0.07181763 0.03898108 -0.0009637258
000010 6a 2e 96 3b 33 17 19 3d 9f 3b 59 3d 58 66 8b 3d
       0.0045831697 0.03737564 0.053035375 0.0680663
000020 cf ae c8 3b 4f 3d 6d bd 9e 37 7b 3b 8c 68 52 3d
       0.0061243544 -0.057919797 0.003833271 0.051369235
000030 ae d9 7c 3c 6f 49 36 bb 43 06 ed 3c dd 6e 49 bc
       0.015432758 -0.0027814766 0.02893365 -0.012294498
000040 78 fb da 3b ce f8 88 bc 3b 96 bd bc bf 95 5d bc
       0.0066828094 -0.016720202 -0.023142925 -0.013524472
000050 14 9b 84 3d 29 32 44 bc 53 18 b4 bc 69 6c 40 bc
       0.06474891 -0.01197485 -0.021984255 -0.011744597
000060 bd 04 de 3c 45 0d 29 bd 2a d6 22 bd 8f 3c 0b 3d
       0.027101869 -0.04127242 -0.039755024 0.0339933
000070 ee 12 84 3d a8 49 ee bc 6c 7d 88 3c 19 0e bb 3d
       0.06448923 -0.029087856 0.016661368 0.09133548
000080 91 dc ac 3d c9 cd ab bc d3 7d 05 3d ad e6 95 3d
       0.08440507 -0.02097215 0.0325907 0.073193885
000090 bb 39 3f bc e6 5c a2 bd 64 f2 ed bc 0b cd 46 bd
       -0.011671479 -0.07927875 -0.029046245 -0.048535388
0000a0 b2 13 0f be a4 75 00 be 6f 7d 92 bd fb ba c2 bd
       -0.13972357 -0.12544876 -0.07152831 -0.0950832
0000b0 f5 9d a4 bd eb 7f 5a bc df 22 a3 bd ec 8d 5d bc
       -0.080379404 -0.013336162 -0.079656355 -0.013522606
0000c0 66 1a 07 3c d7 b0 8c bd 01 85 e6 3c 5a 73 1e 3c
       0.00824604 -0.06869667 0.028139593 0.009671057
0000d0 41 89 15 bb 73 a9 7f 3b f9 3a cd 37 9f f2 c5 bc
       -0.0022817405 0.0039010912 2.4465366e-05 -0.024163542
0000e0 e1 06 1a bd f1 4f 20 3c 41 ee 18 bd 2d 29 b3 3c
       -0.037604216 0.0097846845 -0.03733659 0.02187022
0000f0 a8 dd 41 bc 4c 34 a6 3b ed 2c f7 3c be b6 56 3d
       -0.011832632 0.0050721522 0.03017279 0.05242037
000100 41 92 56 3d f6 ff 7f 3d 0a d2 5e 3d b2 3c 00 3e
       0.052385572 0.062499963 0.054399528 0.12523153
000110 99 6b 7a 3d 59 0a 80 bb e0 16 e9 3d c0 25 ba bc
       0.06113777 -0.0039074835 0.11381316 -0.022723079
000120 f2 10 31 bd 68 27 2d 3d 29 9f 66 bc 06 c8 91 ba
       -0.04322905 0.04227391 -0.014076033 -0.0011122234
000130 31 8b 9d 3d 10 bf a0 3c b6 e7 23 bc 86 3d 87 3d
       0.07692564 0.019622356 -0.010003975 0.066035315
000140 b1 19 4e ba 15 50 15 bb d2 02 c8 bc 67 9c 65 3d
       -0.00078621047 -0.0022783328 -0.024415407 0.05605736
000150 78 f0 cd bc e7 06 78 bc 17 d6 06 bd 1b 73 19 3d
       -0.025139078 -0.015138364 -0.032919016 0.03746329
000160 7b 22 16 bd af 19 ab bc 9f 97 3b bc d8 07 f8 3b
       -0.036653977 -0.02088627 -0.0114497235 0.0075692944
000170 a4 cc 16 3c 89 e9 c7 bc 0b 56 4d 3d 40 fe 6a 3d
       0.009204064 -0.02440335 0.050130885 0.057371378
000180 0d 54 5a bd 34 18 0b 3d 10 72 cf 3c 6c 67 fd bd
       -0.053302813 0.03395863 0.025322944 -0.12373242
000190 1c 2e c3 3d 3b 87 75 38 3d 51 4d 3b 36 cd eb 3d
       0.09530279 5.8538495e-05 0.003132894 0.1151375
0001a0 17 02 2d 3e b2 c7 27 be 78 d9 ca bc 49 f8 e7 bc
       0.16895328 -0.16384771 -0.0247619 -0.028316634
0001b0 b0 96 04 3e 6d 7a a2 3e 09 0f ca 3d 2a 6d 5d 3e
       0.12948108 0.31734028 0.09866149 0.21623674
0001c0 05 11 a6 3e 5b 78 40 3e 47 dc 8b bd d4 6b 92 3e
       0.3243486 0.18795912 -0.06829124 0.2859789
0001d0 2b 55 6c 3c 14 64 7a 3d 59 57 06 3e 0a ed 32 bd
       0.0144246025 0.0611306 0.13119258 -0.04368309
0001e0 45 ea d0 bc 97 d5 06 3e 31 38 0c be 01 0c 99 bc
       -0.025502333 0.13167416 -0.1369331 -0.018682482
0001f0 fb 8c 01 3e c9 7d 84 bd 2b fc 87 3d 54 3d fd 3d
       0.12651436 -0.06469304 0.06639894 0.12365213
000200 37 59 ab 3c 0e 12 e5 3d 86 f6 36 3e 07 e4 13 3e
       0.020916564 0.11185084 0.17867479 0.14442454
000210 2c 19 1f bc 19 3f df 3d 7f b9 1d 3d 1a 83 4d bd
       -0.009710591 0.10900707 0.03850698 -0.050173856
000220 fe e5 69 3b 56 d7 a3 bc 00 31 18 3d dc 6e 54 3d
       0.0035690065 -0.020000141 0.037156105 0.051863536
000230 5b 98 2b bd e8 79 da 3c c3 e2 81 3c 8e 87 05 3d
       -0.041893344 0.026669458 0.015855199 0.03259998
000240 7a 16 44 3d ec 60 33 bc 6b c5 5e 3c 6f 6e 46 3d
       0.047872998 -0.010948401 0.013596873 0.04844516
000250 68 c8 9b 3d 7d 5c 44 3d 19 46 89 bc cc 62 68 3d
       0.07606584 0.047939766 -0.016757058 0.056734845
000260 58 34 02 3c 42 5c 75 3d ef 1f 01 3d a9 1d 19 3c
       0.00794705 0.059902437 0.031524595 0.00934545
000270 4a ff ac bc f7 42 c5 bc ea 7c 7e bc 08 b7 49 3b
       -0.021117825 -0.024079783 -0.0155327115 0.003077926
000280 6e 41 21 3a 3d 49 16 bd 79 b6 70 3d c5 0c 2e 3d
       0.00061514124 -0.03669094 0.05876777 0.042492647
000290 43 75 59 3d f4 bb b6 3e 93 40 c3 3e 67 94 76 3e
       0.053090345 0.35690272 0.38135204 0.24080049
0002a0 84 6e 1e 3c c0 43 26 bc d0 9a 73 bd cc 15 48 3d
       0.009669904 -0.010147989 -0.059473813 0.048848912
0002b0 3c ea 81 3d 60 b5 4a 3d 8d dd 0b bd 67 ad 3c 3d
       0.06343505 0.04948938 -0.034146834 0.046063807
0002c0 67 6b 28 bd 04 a0 00 3d d9 2b 93 3d d6 e0 a8 bc
       -0.04111805 0.031402603 0.07186098 -0.020615023
0002d0 5e 77 34 bd 16 5f d3 bc e9 ef b1 3c 1e 2c cb 3c
       -0.04405915 -0.025802176 0.021720843 0.02480131
0002e0 88 23 06 3c f7 6a d0 3c 50 2c 36 bd 1a 4f 2a 3d
       0.008187182 0.02544163 -0.044475853 0.041579343
0002f0 3b 85 58 3c e0 f6 13 bd b4 dd 8b 3d 48 cb 2c bd
       0.013215358 -0.03612411 0.06829396 -0.04218605
000300 51 53 80 bc 30 25 cc bc 6f 06 8c 3d ed 9b 58 bd
       -0.015664728 -0.024920076 0.068371646 -0.052883077
000310 d2 81 fb 3c 7b f7 3c bd 68 88 58 3d 51 49 66 bc
       0.030701552 -0.046134453 0.052864462 -0.014055566
000320 bd ed 3f bd 83 c8 75 3d 13 04 02 bc 19 1d e0 bc
       -0.046857584 0.060005676 -0.007935542 -0.027357625
000330 f0 3e 13 3d 28 e7 cb 3c 4f 22 30 3d 35 b3 a4 3c
       0.035948694 0.024890497 0.04300147 0.020104984
000340 ff dd 3d bc ac 10 3f 3c 74 7b 95 bd 26 fe e1 bd
       -0.0115885725 0.01166169 -0.072989374 -0.11034803
000350 dd b7 9f bd 47 d0 f0 3a 6e 13 a3 bd 20 b2 8a bc
       -0.07798741 0.0018372618 -0.0796269 -0.01693064
000360 4c 8f a6 ba ee 2f 39 3d 5e 98 57 bd 45 33 59 3d
       -0.0012707501 0.045211725 -0.052635543 0.05302741
000370 b3 73 32 3d 93 21 bd 3c 8c b3 de bc 9f 85 0e bd
       0.04356737 0.023087298 -0.027185224 -0.0347954
000380 06 06 29 3d 15 ac 5d 3d 73 83 bc 3c 72 64 53 3d
       0.04126551 0.05411919 0.023011899 0.051609464
000390 42 c3 6a 3d a3 6f c0 3d 61 63 b0 3d c4 85 37 3d
       0.05731512 0.09396293 0.08612705 0.044805303
0003a0 db 3d eb 3b e2 02 d8 bc 0b 55 83 bb 5f 6e 06 bd
       0.0071790046 -0.026368562 -0.0040079406 -0.0328201
0003b0 38 8b 30 bc 93 86 3b 3d e3 ef 3c bd ba 4e 36 bb
       -0.01077538 0.045782637 -0.04612721 -0.002781792
0003c0 57 8b 3c 3d 52 50 ca 3c 35 ca 0a 3a 9a b9 81 bc
       0.046031322 0.024696503 0.00052944134 -0.015835572
0003d0 53 37 cf bc 8b ed 99 3b b7 17 4c 3d a9 65 22 bd
       -0.025294935 0.004697507 0.049827304 -0.039647732
0003e0 c3 63 2a bd 5c 79 cb 3c 00 19 2c 3d c4 92 53 bd
       -0.041599046 0.024838142 0.04201603 -0.05165364
0003f0 d5 4f 6a bd 12 74 1a 3d 01 c5 73 3a c7 12 8f bb
       -0.05720504 0.03770835 0.000929907 -0.004366252
