weights/best_model_oisrrk2.pth (torch, 450823 bytes, 9 tensors)

conv1.weight f4 [64, 1, 3, 3]
000000 d0 21 ba 3e e4 73 91 3d 58 12 b7 3e 1d d9 35 3d
       0.36353922 0.071021825 0.35756183 0.04439651
000010 6b 06 91 be 2a 04 8f 3e f7 25 6f 3d f2 d3 fb bd
       -0.2832521 0.27932864 0.058385815 -0.12296285
000020 e5 cc b1 3e 9d d6 30 3c 44 eb f0 3e 54 88 68 3e
       0.34726635 0.010793355 0.47054493 0.22708255
000030 c4 5f c0 3e 30 b3 08 3f af 39 04 3f 4e 19 e0 3e
       0.37573063 0.5339842 0.5165052 0.43769306
000040 04 39 f9 3e c4 dc 1f 3f 18 7d db bc 02 b6 4f be
       0.48676312 0.62446237 -0.026793048 -0.20284274
000050 a5 5a a6 be c3 46 f6 be 91 8b a4 be 5c 20 01 bd
       -0.3249103 -0.48100862 -0.3213773 -0.031525
000060 5f 0d c6 bd 55 26 15 bf ff d4 ce be 83 f4 59 be
       -0.09670519 -0.58261615 -0.40396878 -0.2128468
000070 4b 80 3f 3e e0 01 66 3e 96 26 6b be b4 8a 8e be
       0.18701284 0.22461653 -0.22963938 -0.27840197
000080 96 46 83 bc 20 e0 21 be 0b 33 44 3d e0 9f 6a 3d
       -0.016024869 -0.15808153 0.04790024 0.057281375
000090 8f 21 84 3e 31 9c a9 be a2 9b 13 3e 13 20 81 be
       0.25806853 -0.33126977 0.14414838 -0.25219783
0000a0 46 a4 1d be ef 70 51 bb b0 69 a9 3d f2 92 53 be
       -0.15394697 -0.0031958183 0.082721114 -0.20661524
0000b0 dd 94 8d bd 76 5f 45 3d 56 15 be bd 36 ea 22 bd
       -0.06913159 0.04818674 -0.09281413 -0.039774142
0000c0 cb 52 3e 3d c8 42 76 3e 76 bc 79 3d 6b 3f 90 3d
       0.046465676 0.24048913 0.060970746 0.07043346
0000d0 b6 a8 f7 bd de 58 42 be 1b 1d a7 3d c6 b6 1c 3e
       -0.12092726 -0.18979213 0.08159848 0.15304098
0000e0 b0 c8 2a be 9c 3b ea 3c f7 81 d0 3e b2 8b 81 3e
       -0.16678119 0.028592877 0.40724155 0.25301892
0000f0 69 3c 66 3e 3a 31 ce 3e 1d d5 5f be 74 d8 4f be
       0.22483982 0.40271932 -0.2185864 -0.20297414
000100 a6 42 2e 3e 80 b3 b1 3e 28 3e 6b 3e ec 8b 7e 3e
       0.17017612 0.3470726 0.2297293 0.24858063
000110 ef 94 75 bc 82 ad 81 bb 1f 7a c8 3e 60 6f 6c bd
       -0.014989122 -0.0039574513 0.3915567 -0.057723403
000120 96 b3 0a 3e 48 e4 89 bd bf 9e 1f 3e 6d 80 2c 3e
       0.13545069 -0.06732994 0.155879 0.16845866
000130 45 35 4b 3e cd 57 00 3f 8a cf 0e 3f fd 71 cd 3e
       0.1984454 0.50133973 0.5578543 0.4012603
000140 bc a7 b5 3e 27 13 55 3e 1c 5b 63 3e f0 4b 0e bd
       0.35479534 0.20808087 0.22202724 -0.03474039
000150 d9 75 ab 3e 86 05 13 3f 04 6b 97 3e 44 d7 19 3f
       0.33488348 0.57430303 0.29573834 0.60094094
000160 86 aa 43 3e 64 d1 3b 3e d6 86 32 3d 36 27 78 be
       0.19108018 0.18341595 0.04358562 -0.24233708
000170 d6 12 c2 bd eb 88 07 3e 66 14 53 3e 00 7e 30 bc
       -0.09476249 0.13235824 0.2061325 -0.010772228
000180 03 f3 3a be a0 e2 78 bd 16 e6 9c be 9b 62 40 be
       -0.18256764 -0.060763 -0.30644292 -0.18787615
000190 60 73 cb 3d 5e d2 53 3e 10 8f 11 3e 10 76 14 be
       0.099341154 0.20685717 0.1421473 -0.14498162
0001a0 2b 17 32 3c cb 7d 00 3e 8b d6 1e be 9c 92 a3 3e
       0.0108697815 0.12547986 -0.15511529 0.31947792
0001b0 45 d3 c4 be 88 6f 9d 3d a2 dc fa 3d f4 e3 98 be
       -0.38442436 0.076872885 0.122491136 -0.29861414
0001c0 06 fa c6 be c5 6c 8a be 26 e7 65 be 51 74 db bd
       -0.38862628 -0.2703611 -0.22451457 -0.10715545
0001d0 95 2b 25 be c2 44 19 3f 04 e8 06 3f 19 b3 67 3e
       -0.16129906 0.5987054 0.5269778 0.22626914
0001e0 50 5b 21 3f 48 f3 f7 3e 95 6f 10 3f 4a 7b b1 3e
       0.63029957 0.48427796 0.5642026 0.34664375
0001f0 14 5f 5e 3e 19 0e 3f 3e 1e 17 91 3e 7d b1 a9 3e
       0.21715957 0.18657722 0.2833795 0.33143225
000200 a5 ee c2 3e 59 ac 8e 3e fc bc 98 3e dd fb 10 3f
       0.38072696 0.27865866 0.29831684 0.5663431
000210 2f 54 c1 3e 4a 65 f3 3e e0 73 49 3e e5 90 fc 3c
       0.3775954 0.47538215 0.19673109 0.03083081
000220 f8 64 41 be 87 54 49 3d 5e 29 b6 be 47 fc cb bd
       -0.18886173 0.049152877 -0.35578436 -0.099602275
000230 cf 20 41 3d 3e f0 2d bd 84 1b c6 be d8 84 a2 be
       0.04715043 -0.04246544 -0.38692868 -0.31741977
000240 5f e3 94 be 69 fc c0 be 5d 98 0a bf ef 18 08 be
       -0.2907972 -0.37692574 -0.5413874 -0.13290761
000250 30 8b 06 be 3b d0 13 bf c8 13 12 bf 53 48 a7 be
       -0.13139033 -0.5773961 -0.57061434 -0.32672366
000260 ea 0a a3 be 10 49 a4 3e 0a 01 8e 3e 76 9f 81 3e
       -0.31844264 0.32086992 0.27735168 0.25316972
000270 04 ee 80 be 73 de 02 3e 90 c9 ed 3d d6 4e 5d 3e
       -0.25181592 0.1278017 0.116107106 0.21612105
000280 0b 15 a0 bd 6b 7d 9a bd 10 22 e0 3d ae e3 24 3e
       -0.07816514 -0.07543453 0.10943997 0.16102478
000290 b6 e3 00 3d 56 6d 34 3d d2 50 8a 3e f6 c3 c6 bd
       0.031467162 0.044049583 0.27014786 -0.09705345
0002a0 b6 2e 5f bd db 72 9f be 63 1c 4a 3e 6b a5 16 3e
       -0.054487906 -0.31142315 0.19737391 0.1471154
0002b0 b0 32 51 be 80 ce 66 3e f6 58 05 3d 76 15 d4 3d
       -0.20429492 0.22539711 0.032555543 0.10355656
0002c0 b0 05 e9 bd 3e 85 25 be 06 96 45 3e ab 20 84 bb
       -0.11378038 -0.16164109 0.1929551 -0.0040322146
0002d0 da 9f e0 3e 87 c4 04 3f 0a ce 77 bd 24 68 8b bd
       0.43871957 0.51862377 -0.06049923 -0.068069726
0002e0 0d 9e a4 3e 48 e1 c0 3e 37 63 02 bc ce a8 15 3f
       0.32151833 0.37671876 -0.007958225 0.584607
0002f0 4e 7b 67 bd e3 67 f9 3d ea ea eb 3e 87 2f 42 bc
       -0.056514077 0.12178018 0.46077663 -0.011852152
000300 7c 3a d7 be 74 f1 12 3e d0 5a ab 3b 0b 0b 14 bf
       -0.42036808 0.1434992 0.0052293316 -0.5782935
000310 d9 68 68 be 33 95 69 3d b1 fc 5e 3e ff 0d 96 3d
       -0.22696246 0.057027053 0.21776082 0.07326888
000320 25 37 a2 3e 04 c5 b9 bd 40 d6 92 3e ef 5b 14 be
       0.31682697 -0.09070781 0.28679085 -0.14488195
000330 ca 46 9a bc 96 84 b2 3e 04 80 9c bd d6 96 00 bf
       -0.018832583 0.3486678 -0.076416045 -0.5023016
000340 25 b9 df be 43 49 bd be c3 87 0c bf 5c f6 16 bf
       -0.43695942 -0.36969957 -0.54894656 -0.58969665
000350 05 63 b0 be 81 6f dc be e2 af 7d bd b7 2f 20 bf
       -0.34450546 -0.4305382 -0.061935313 -0.6257281
000360 3f 88 2f bf 5d 27 11 bf 56 35 3f bf 0c 71 43 bf
       -0.6856727 -0.5670069 -0.7469076 -0.7634437
000370 7c b3 5b bf 5d 43 d3 be 9b dd b4 be 68 b8 4c bf
       -0.85820746 -0.41262332 -0.35325322 -0.7996888
000380 90 cc 32 be 5e 6f 82 bd e3 f7 a2 3e 5e 4b 0d 3e
       -0.17460847 -0.06368898 0.31829748 0.13798282
000390 8a 27 46 bb 8a 24 25 bc 5f 79 e8 3e d7 0b 77 3e
       -0.003023597 -0.010079512 0.454051 0.2412561
0003a0 9f 02 79 3d 06 ec b3 3e 2b 91 ce 3c 56 ab 8e 3d
       0.060793515 0.3514101 0.025215706 0.069662735
0003b0 f6 43 82 3d ab d2 b5 3b a0 ac 09 3d 23 21 0f 3e
       0.06360619 0.005548795 0.033611894 0.13977484
0003c0 ab 82 c8 bd 96 35 16 be a6 f9 52 3e f7 7a 9a 3e
       -0.09790548 -0.14668879 0.20603046 0.3017194
0003d0 3a 75 08 3f a3 c9 8d 3e 1f b6 ad 3e 62 e4 08 3f
       0.53303874 0.276929 0.3392801 0.53473485
0003e0 9a 32 f3 3e 2d 0b 03 3f f3 ca 56 3d c2 46 12 3f
       0.47499543 0.5118893 0.05243964 0.5713922
0003f0 35 c7 8e be 4b aa 5f bd d3 df 04 bf 7a c8 f4 3d
       -0.27886358 -0.054605763 -0.5190403 0.119523

conv1.bias f4 [64]
000000 db 9c 94 bc 23 88 3e 3d 77 c7 bc 3d 7f 58 8a be
       -0.0181412 0.04651655 0.092177324 -0.27020642
000010 6a 11 b0 3d 3e 8e 5a be cc 7d 47 3e be d6 5e 3e
       0.085970715 -0.21343324 0.19481581 0.21761605
000020 dc 5b 87 3b ef 4c 94 3d eb 3e 6e be 20 1f de bd
       0.0041308235 0.072412364 -0.23266189 -0.108457804
000030 23 8c 12 3e 1e 83 62 3b 59 08 93 3e 30 dc 3b 3e
       0.1431127 0.0034563015 0.28717306 0.18345714
000040 9a 76 9d 3e 9b 4b 5b be 5e 39 2e be 8b 99 8f be
       0.30754548 -0.2141556 -0.17014071 -0.2804683
000050 31 f3 37 3e 17 a8 b5 3d aa 2f 9f bb a5 26 8d 3e
       0.17963864 0.08869951 -0.004857977 0.27568546
000060 15 70 45 3d ec 2d 2a 3e e0 e4 a8 bd 75 d8 3b 3e
       0.048202593 0.1661908 -0.082467794 0.1834429
000070 8a d8 38 3d 87 3c 83 3d 46 3f 08 3b cb 1c 6c bd
       0.045128383 0.06408029 0.0020789667 -0.057644647
000080 6f 23 41 3e 09 49 5c 3c 44 5a ca 3d 96 dc 56 be
       0.18861173 0.013445147 0.09880498 -0.20982584
000090 e4 f9 9e be d0 93 57 be eb e3 4a 3e f3 b6 ae 3b
       -0.31050026 -0.2105248 0.19813506 0.005331868
0000a0 c6 57 93 3e f8 ef 8f be 01 49 8b 3e 89 6e 37 3e
       0.28777903 -0.2811277 0.27204135 0.1791326
0000b0 8f a5 a1 be db ed 2d be f8 09 4a be e0 9e 3f bd
       -0.31571624 -0.16985266 -0.19730365 -0.046782374
0000c0 f8 1c 93 be b6 57 81 be 3c d0 45 bd 8a 3c a2 3c
       -0.2873304 -0.2526223 -0.04829429 0.019804258
0000d0 ab 96 6f 3e bc 31 a6 be db 96 dc bd 37 a2 62 bb
       0.23397319 -0.3245982 -0.10770961 -0.003458155
0000e0 61 86 38 3e 9c 75 1d 3e 51 85 89 3a a9 ec 88 3e
       0.18020011 0.15376896 0.0010492002 0.26743057
0000f0 0a cd 67 3d 43 41 81 be f2 38 80 be 88 44 0e 3e
       0.056592025 -0.25245103 -0.25043446 0.1389333

conv2.weight f4 [64, 64, 3, 3]
000000 83 94 b6 bb 29 de 66 bc 23 3f 8b bc 45 67 da bc
       -0.005571903 -0.014091053 -0.01699788 -0.02666057
000010 db 87 6b bb db de bb 3c af 4b 32 3d 33 a6 d6 bc
       -0.003593913 0.022933414 0.04352921 -0.026202297
000020 4c 28 5d 3c b2 cf 90 bc d3 7f 14 3d 6b fa 6b 3b
       0.013498377 -0.017677162 0.036254715 0.0036007415
000030 a7 ee a7 3c 29 2c 23 bc c7 cf 3b bc fc 5f dc 3c
       0.02049954 -0.009959259 -0.011463112 0.026901238
000040 92 ad 1d 3d b2 55 a3 b8 be bb f4 3c 5d dc 3f 3b
       0.038495608 -7.788408e-05 0.029874679 0.0029275634
000050 7b d7 9e 3c ae b4 a4 3c e7 9a cf bc 60 b9 24 3c
       0.019389858 0.020105686 -0.025342418 0.0100539625
000060 d2 8c a5 3c c7 28 07 3d 12 2b ee bc 10 98 9d bc
       0.02020875 0.032997873 -0.029073272 -0.019237548
000070 2f a3 20 bd 30 a6 33 bc 23 01 c6 3c 76 18 83 bb
       -0.039218124 -0.010964915 0.024170464 -0.0040007187
000080 5b 75 48 3c 5b 0c 61 bc d0 16 a5 bc 00 fe 9f ba
       0.012235011 -0.013735856 -0.02015248 -0.0012206435
000090 dc d6 d2 3c 56 56 1e bc 7f df 31 bd ee db c1 bc
       0.025737219 -0.009664139 -0.043426033 -0.023664441
0000a0 90 57 a2 3b 99 20 d2 3c b2 a3 44 3c 60 88 90 bc
       0.004954286 0.02565031 0.012001919 -0.017643154
0000b0 3c 36 db bc e6 fc e0 bc 16 ab 0b 3b 48 35 dd bc
       -0.02675926 -0.027464341 0.0021311692 -0.027002946
0000c0 96 e3 ee bb f3 cf c1 bc 76 be 8c 3c 76 b9 24 bc
       -0.007290314 -0.023658728 0.017180663 -0.010053983
0000d0 5b af 79 3c 03 a3 07 bd cb 80 aa bc d8 ac bb 3c
       0.015239562 -0.033114444 -0.020813366 0.022909567
0000e0 ed 7e 1f 3c 14 e3 1b 3d d3 35 d7 bb 3b b1 f2 3c
       0.009734851 0.038058355 -0.0065676956 0.029625526
0000f0 3f 89 21 bd 14 65 c6 3c 16 02 77 bc 73 bb c7 bc
       -0.03943753 0.02421812 -0.015076181 -0.024381375
000100 44 5f 1d bd ba 87 b2 3b ef 9e 18 bc c1 4b 5a 3c
       -0.03842093 0.005448309 -0.0093152365 0.013323725
000110 4f 84 0b bd ce 06 af bc c3 18 b0 bc 7e 0d b9 3c
       -0.034061726 -0.02136555 -0.021496182 0.022589441
000120 4b a6 e5 3a 7e 08 46 bd 82 97 25 bd 8f 93 a7 3c
       0.0017520873 -0.048347943 -0.040427692 0.020456104
000130 fa 60 38 38 03 fd a2 3c f0 05 6b 3b b2 64 17 3d
       4.3959335e-05 0.019896036 0.0035861693 0.036961265
000140 c1 9c 50 bc 4a dc 0e 3d aa 5b 88 3c 20 d9 d1 bc
       -0.012732686 0.034878053 0.016645271 -0.025616229
000150 f6 8d 9a 3c b9 cd 84 ba 09 68 f8 3c c0 e1 16 bd
       0.01886652 -0.0010132111 0.030323045 -0.036836386
000160 e6 95 a7 3c ef 81 07 3c 90 eb 56 3c 73 a5 ff bc
       0.02045722 0.008270725 0.013117686 -0.031206822
000170 28 58 90 bc e6 d5 f7 3c ab bc 02 3a 58 59 d4 3c
       -0.017620161 0.030253362 0.000498722 0.025921509
000180 96 ec 03 3b 40 f4 99 bb 2b cf c9 3b 96 ce 59 bc
       0.002013003 -0.0046983063 0.0061587295 -0.013293883
000190 20 57 ec 3b 56 f9 6c b9 52 df 03 bd ae 0d a7 3c
       0.0072125345 -0.00022599599 -0.032195397 0.020392265
0001a0 e7 64 17 bd 26 b4 a5 3c 96 e5 dc bc 6a ac 1b bd
       -0.036961462 0.020227503 -0.026964944 -0.038006224
0001b0 e3 de 95 bc ea d0 0a bd 9f 27 83 bc ec f4 28 bd
       -0.018294757 -0.033890642 -0.016010104 -0.0412492
0001c0 c9 6a 9d bc 25 eb 93 3c 26 6d cc bc 65 79 b7 bc
       -0.019215958 0.018056462 -0.02495439 -0.022396753
0001d0 64 5b f4 3c 87 e3 0b 3d f7 b4 82 3c 49 a0 e9 bc
       0.029828735 0.034152534 0.015955431 -0.028518813
0001e0 76 60 ef bc 49 35 0d bc 1f bd bb 3c 40 23 b6 bc
       -0.0292208 -0.008618661 0.022917328 -0.022233605
0001f0 ea 43 2d bc 88 7f bd 3c 34 46 5b 3b 3b 22 ac bb
       -0.010575274 0.0231321 0.0033458592 -0.005253104
000200 b0 a2 fa 3c e3 c1 a6 3c 41 f8 c1 bc 37 38 5a 3c
       0.030595154 0.020356124 -0.023677947 0.013319067
000210 1a 81 fe 3c b9 c7 04 bd 53 dc 0b bd 6c c9 fe 3c
       0.03106742 -0.032417033 -0.034145664 0.031101905
000220 c8 a1 d0 3b 53 b8 dc bc 5f 62 c3 bc ec 84 03 bb
       0.006366942 -0.026943361 -0.023850618 -0.0020068241
000230 9a 72 ed 3c ae 41 15 bd a4 1b 98 3c ca d0 f7 bc
       0.02898531 -0.03643959 0.018567868 -0.030250926
000240 0c 62 14 3c 3e 66 b5 bc 4d e5 e0 3c ee 4d b6 ba
       0.009056579 -0.02214348 0.02745309 -0.0013908723
000250 ba f8 13 3b ea bd d3 bc 4d 55 fb bc 9e 24 90 bc
       0.0022578673 -0.025847394 -0.030680323 -0.017595585
000260 a7 f8 20 bd af 09 28 3d eb ab 8c bb 8b b6 bc bb
       -0.039299633 0.04102486 -0.004292955 -0.0057590655
000270 d6 3a 84 bc c4 65 18 bd d6 c9 fa ba c8 5b d3 3c
       -0.016141336 -0.037206426 -0.0019133638 0.0258006
000280 32 0b 0b bd 4b 4f be bb 38 05 cb 3c ab aa ec 36
       -0.033946224 -0.0058077923 0.024782762 7.0532165e-06
000290 be 0c 1f 3d 0b 5c d3 bc 94 11 08 bd c0 60 cc 3c
       0.03883051 -0.025800725 -0.03321989 0.024948478
0002a0 4b 6c c3 bb 78 57 fd 3c ab fb 0f 3a ae d0 c7 bc
       -0.0059638373 0.030925497 0.00054925185 -0.024391498
0002b0 48 77 a8 bc de dc 12 bd a6 ad 04 bc fe d2 a8 3c
       -0.02056469 -0.035855167 -0.008098042 0.020608421
0002c0 66 20 83 3c b2 8a 0b 3d 2b 99 78 bb 40 87 53 3c
       0.01600666 0.034067817 -0.0037933092 0.012910664
0002d0 9e 4b 1c bd 70 4c 8a bc b5 77 89 3c da 1e 9e bc
       -0.03815805 -0.016882151 0.016780714 -0.01930182
0002e0 2f b9 92 3c c6 88 17 bc c0 19 c2 bc 78 97 03 bd
       0.017910568 -0.009248918 -0.02369392 -0.032126874
0002f0 31 3d 02 bd b0 af d2 bc 67 76 05 bd 59 3e 03 bc
       -0.031796638 -0.02571854 -0.03258362 -0.00801047
000300 53 de b0 3a 0f 3e 0e 3d 94 d1 53 bc d8 ec 1c 3d
       0.0013493992 0.034727152 -0.012928385 0.03831181
000310 bd 4c 86 3c 28 15 df 3c 13 5b 1e bd ba 4e 0b bd
       0.016394014 0.027231768 -0.038661074 -0.034010626
000320 cd f3 8b bb 5b ce 5b 3c 36 75 b7 bc 54 03 f9 3c
       -0.0042710067 0.013415898 -0.022394758 0.030397095
000330 6f 55 09 bd 72 42 20 bd f0 45 0c 3c bd ad 21 3c
       -0.03352874 -0.039125867 0.008561596 0.009868083
000340 b2 4b f6 bc ea 32 9f bc 28 e5 a4 3a 1e 4b aa 3c
       -0.030065391 -0.019433457 0.0012580501 0.020787772
000350 d6 11 b0 b9 ec dc ed bc 3e c3 2a bd 68 bf 0e bd
       -0.00033582625 -0.029036008 -0.041690104 -0.034850508
000360 ca 89 62 bc cf a0 4a 3c e6 53 8e bc 0b f1 06 bd
       -0.013826797 0.012367441 -0.01737399 -0.03294472
000370 d0 9c 32 bd cb 0d bd bc b1 f7 88 3c f6 d8 d4 3c
       -0.04360658 -0.023077866 0.016719671 0.025982361
000380 52 bb a9 3b 54 bb c8 3c 45 13 44 bc 10 64 12 3d
       0.005179801 0.024503388 -0.011967485 0.03573996
000390 6f 26 6e 3c 4c e9 da 3a d1 d2 10 bd 05 9c 08 bc
       0.0145355305 0.0016701608 -0.0353573 -0.008337979
0003a0 e6 c9 81 3b ed 7c 2a bd d6 53 56 3c 9b 20 e3 bc
       0.0039608357 -0.041623045 0.0130815115 -0.027725508
0003b0 2e a0 fb bc e6 b0 0b bc b3 2b 26 bd 83 36 09 3d
       -0.030716028 -0.008526063 -0.04056902 0.033499252
0003c0 06 4d 57 bc 6c b5 0c 3d 30 5e 7d bc 94 be 7a bc
       -0.013140922 0.034352705 -0.015464351 -0.015304226
0003d0 00 9a f7 3c b1 32 86 3c 44 b9 2a bd f9 78 1f 3d
       0.0302248 0.016381593 -0.04168059 0.038933728
0003e0 bd 02 c9 bc c8 b6 83 3c f4 a4 ae bc 82 eb f2 3b
       -0.024537439 0.016078368 -0.02131889 0.0074133286
0003f0 f8 c5 a2 3c 59 42 1d bd 9c 39 8e bc 68 4b 6a 3b
       0.01986979 -0.038393352 -0.017361455 0.0035750512

conv2.bias f4 [64]
000000 e3 47 73 ba 79 51 d9 bc f5 db 4f 3b 5d e4 83 3c
       -0.00092804263 -0.026528107 0.0031716798 0.016100103
000010 d9 da ad 3b 9f 98 19 3c c4 df 4e bd d8 4e 90 3c
       0.0053056297 0.009374767 -0.05050637 0.01761572
000020 0d 6f b3 3c 02 60 f4 bc 5c 02 e5 bb ad 9e d7 3c
       0.02190354 -0.029830936 -0.0069888067 0.02632078
000030 af 90 2f bd 98 83 0e 3d 7b 84 b4 bc 54 62 95 3c
       -0.04286259 0.034793466 -0.022035828 0.018235363
000040 fc b6 fa 3b 94 55 90 3c 27 98 36 3c fb cf 90 ba
       0.007651208 0.017618932 0.011144674 -0.0011048311
000050 e6 5f c5 bc 7e 21 ca bc 96 97 d9 3c 72 5c 02 3d
       -0.02409358 -0.024674173 0.02656154 0.031826444
000060 de 61 b0 bc 4b 8d 94 bc 27 84 c2 bc 1a 8f f8 bc
       -0.021531042 -0.01813378 -0.023744656 -0.030341674
000070 e7 5c 0c bd d9 7c c1 bc 1a 67 60 bc 9f af df 3c
       -0.034268286 -0.023619102 -0.013696456 0.027305422
000080 c7 64 fb 3c 8b 9e 2c bd 3a 43 d2 bc eb 01 ee 3b
       0.030687703 -0.042143386 -0.025666822 0.0072634122
000090 df 46 75 3c c8 26 22 bd 8d 14 a0 bc e6 c7 54 bc
       0.01497051 -0.039587766 -0.01954105 -0.012987113
0000a0 d0 10 60 bd 99 99 fa bc 2a a0 3f bd bd 72 32 3d
       -0.054703534 -0.03059082 -0.046783604 0.043566454
0000b0 ec 45 29 bd ca d9 1a 3d 0e ad 99 3c 9f 1f 3d bd
       -0.04132645 0.037805356 0.018759277 -0.046172734
0000c0 4f ed 5e bc 02 ae 05 3a 6d 23 e3 bc 2e 24 07 bd
       -0.013606383 0.00050994765 -0.027726853 -0.032993488
0000d0 03 17 2f bb 09 1a 07 bc 3a 31 03 3d 1d 12 ae 3c
       -0.0026716597 -0.008245953 0.032029368 0.021248871
0000e0 e2 38 c8 3c 42 99 74 3b 39 0b 0e bd 2e 53 5c bc
       0.024441186 0.0037322794 -0.03467867 -0.013447566
0000f0 84 80 70 3a b3 e3 f4 3c 36 ac d4 3c 1c a6 0b 3d
       0.0009174424 0.029893732 0.025961023 0.03409396

conv3.weight f4 [64, 64, 3, 3]
000000 f5 fb f7 3c 48 0d 0a 3c 94 29 07 3d fc 18 17 3d
       0.03027151 0.008426018 0.032998636 0.03688906
000010 05 2b 79 bc d2 65 e3 bc 95 3a a1 3c 3c bb 8f bc
       -0.015208011 -0.027758513 0.019681254 -0.017545335
000020 22 ae f7 3c c6 75 13 bc 38 f5 cf bc 03 65 aa 3c
       0.0302344 -0.009000247 -0.025385484 0.02080012
000030 df 22 d9 3c 1a 53 e9 3c a9 7f db 3b cd d4 83 bc
       0.026505886 0.028482009 0.006698568 -0.016092682
000040 86 c5 0b 3d ab 41 34 bd af f2 02 bd df ab 89 bd
       0.03412392 -0.04400794 -0.031969722 -0.06722235
000050 15 0c cb bd 31 cc 30 bd 07 8b 95 bd bc b5 10 bd
       -0.09914414 -0.043163482 -0.07301908 -0.035329565
000060 6b 54 8b bd 6f 03 97 bd 9e 84 c7 bd ef bb 86 3c
       -0.06803211 -0.07373702 -0.097420916 0.016447036
000070 dc cc 1c 3c 53 b9 fd 3b 78 63 d5 3b f0 05 ba bc
       0.009570327 0.0077430396 0.0065121017 -0.02270791
000080 b0 93 80 3c b9 2e bd 3b d3 4e b2 bc 58 56 6b bd
       0.015695423 0.005773392 -0.021766102 -0.05745539
000090 5c 3a 72 bc 60 1f d6 bb d3 25 99 bc d6 2a ad 3c
       -0.014784422 -0.006534502 -0.018694794 0.02113859
0000a0 32 81 98 3c 59 52 af bc cc 46 09 bd cb 90 31 bc
       0.018616293 -0.021401571 -0.033514783 -0.010837744
0000b0 9a 90 db bc f8 5d 5c 3c 5e c4 8d bc f6 5d c2 3c
       -0.02680235 0.013450138 -0.01730555 0.023726445
0000c0 f4 75 3e bc 0b 9c a2 bc 3c fc 8d 3c 45 86 7b 3b
       -0.011624802 -0.019849798 0.017332189 0.0038379591
0000d0 00 b1 15 3c 40 5b b3 3b 81 a4 8a 3c e1 31 37 3d
       0.009136438 0.0054735243 0.016924145 0.044725303
0000e0 39 73 36 3d a8 78 a0 3c 06 fc f6 bc 2f 49 25 3d
       0.04454348 0.019588783 -0.030149471 0.040352996
0000f0 09 66 25 3d 0c f3 f9 bc 05 71 0c bd 0e 93 f1 3c
       0.04038051 -0.030511402 -0.03428747 0.029489066
000100 95 df 19 3c 5b 4b 2b 3c 4a 3d 37 3b 13 02 0c 3d
       0.009391685 0.010454978 0.0027960115 0.034181666
000110 20 fc f6 3c e5 cb 21 bc 98 5e 7d 3c 2b 14 45 3c
       0.03014952 -0.009875272 0.015464447 0.012028734
000120 a2 09 d1 3c e0 a1 10 3d 2d df 66 ba 73 4d ba bb
       0.025517289 0.035310626 -0.00088070595 -0.005685502
000130 ed 09 35 bd 33 58 25 bd dd c1 03 bd 55 53 ab bc
       -0.04419892 -0.040367316 -0.032167304 -0.02091376
000140 59 3f d3 bc 21 b8 dd bc 67 33 54 3c b4 a9 bb 3b
       -0.025787042 -0.027065339 0.012951708 0.0057270173
000150 42 7c d6 bc 6c 76 f2 3c 91 22 0b 3c ab fd 50 bc
       -0.026182298 0.029597484 0.008492128 -0.012755792
000160 76 45 cb bb 46 a0 15 3d 02 e3 f8 bb 3f 6a 85 bc
       -0.0062033487 0.0365298 -0.007595421 -0.016286014
000170 14 b7 1f 3d d7 60 8f bc bc 63 8b ba 88 05 3e 3d
       0.038992956 -0.017502232 -0.0010634582 0.046391994
000180 d0 f9 bf 3b ee f3 fb bc 3c d8 ff bc a2 66 da bc
       0.0058586374 -0.030755963 -0.031231038 -0.026660267
000190 a3 a6 77 bc 14 72 51 bc aa b9 8c 3c 07 5c 00 3d
       -0.015115413 -0.012783546 0.017178375 0.031337764
0001a0 ac a1 d3 3c 8e dd 37 3c 05 4a 89 bc c6 87 6c 3b
       0.025833927 0.011222256 -0.016758928 0.003609167
0001b0 30 51 1d 3c ee 3b d5 3c b0 43 f2 bc ea 46 1e 3d
       0.009601876 0.026029553 -0.029573292 0.038641848
0001c0 fc cb 37 bc d3 b8 92 bc 02 51 f4 3c 5d 72 f6 bc
       -0.011218067 -0.017910397 0.029823784 -0.03008383
0001d0 85 7a 0d bd 48 b6 e2 3c 4d a5 8f bc 93 27 ec 3c
       -0.03454067 0.02767481 -0.017534876 0.028827464
0001e0 53 76 04 3d 33 db 66 bc 20 37 8d bc ee d8 e7 3c
       0.032339405 -0.014090347 -0.0172382 0.028301682
0001f0 36 67 f8 bb 88 ea dc 3c 58 af 24 bd f5 08 00 3d
       -0.007580663 0.026967302 -0.040206283 0.031258542
000200 e3 c6 36 bd 49 73 d0 3c 39 9e da 3c 3f 7a 22 bd
       -0.044623267 0.025445597 0.026686775 -0.039667364
000210 a3 e0 4f bc 0f 3a ca bc 36 03 66 bc cd 88 bf 3c
       -0.012687835 -0.024685888 -0.0140388515 0.023380661
000220 b9 7d 5e bb 2f 32 82 ba b6 5a d8 3a ad 57 e3 3c
       -0.0033949448 -0.0009933169 0.0016506526 0.027751768
000230 77 3d a5 bc 9e 4d 41 bb dd f1 c2 3a 36 60 f9 bc
       -0.02017091 -0.0029495726 0.0014873106 -0.030441385
000240 60 07 01 bd f5 d8 bb bb b7 5e c4 bc 84 be 72 bb
       -0.031501174 -0.0057326504 -0.023970945 -0.0037039826
000250 68 92 12 bd d7 aa 7a bc 09 d4 08 3d dd 94 d3 bc
       -0.035784155 -0.01529952 0.033405337 -0.02582782
000260 6e f9 07 bd c4 05 04 bd 32 ec bd 3c ce 11 9b 3c
       -0.03319686 -0.03223206 0.023183916 0.018929388
000270 35 36 c3 3c ea bc 0f bb d4 6f 86 bc 95 ea a7 bc
       0.023829559 -0.002193267 -0.016410746 -0.0204976
000280 89 ba 18 3d c1 38 23 3d af 8c 33 3c 1a 34 24 3d
       0.03728727 0.039849047 0.010958835 0.04008875
000290 94 09 2f 3d ef 63 df bc f8 2b d3 bb 98 2d d9 3c
       0.042733744 -0.027269332 -0.0064444505 0.026510999
0002a0 d3 13 c7 bc 48 ab 3b 3d 3a 28 44 3d da 98 b1 bc
       -0.024301445 0.045817643 0.047889926 -0.02167933
0002b0 a3 30 a8 bc f5 02 46 3c c7 b2 24 bd cf ba 50 3c
       -0.020531004 0.012085666 -0.040209558 0.012739851
0002c0 ff 61 81 3c 87 df 75 3c 4c 3f b2 bc c2 f1 2c bd
       0.015793798 0.015006906 -0.021758698 -0.042222746
0002d0 af 58 fb 3c 72 b8 37 3d 32 6d 14 bd 11 9e 7d bb
       0.030681936 0.044853635 -0.03623695 -0.0038698951
0002e0 4c b6 ba bb 4b a9 14 bd 33 1c ed bc f9 98 aa 3c
       -0.005698001 -0.036294263 -0.02894411 0.020824896
0002f0 4f bc b8 3c b0 db 7d 3c 56 42 ec 3b 0b cf d4 bc
       0.02255073 0.015494272 0.0072100563 -0.025977632
000300 f6 3a 2c bc d4 e0 18 bd d3 d3 02 3d 2b 4a 0d bc
       -0.010512104 -0.037323788 0.031940293 -0.00862364
000310 c6 45 d1 bc 16 63 af 3c ef 58 2c 3d 1d 42 a2 bc
       -0.025545966 0.021409553 0.042077 -0.019806916
000320 95 ba 06 3d db 89 f4 bc 31 5f 40 bd 00 32 1f bb
       0.032892782 -0.02985089 -0.04696578 -0.0024291277
000330 8b e5 84 3c e8 e4 dd bb 80 1d 0f bc c1 d1 ca bb
       0.016222736 -0.0067716725 -0.008735061 -0.0061895554
000340 c0 da ac bc 4c 17 c9 bb e9 e0 0a 3d 0a a5 01 3c
       -0.021100402 -0.0061368104 0.033905897 0.007912884
000350 8c 87 b8 3c 26 a4 86 bc d8 d7 17 3c 8a 02 b7 3b
       0.022525571 -0.016435694 0.00926777 0.0055850195
000360 48 3a 01 bd 7f 59 f6 3c 31 24 56 bb 65 da 07 bc
       -0.031549722 0.030071972 -0.003267538 -0.008291815
000370 93 ba 05 bd 22 9f 91 3c 75 45 dd bc 2d dd 22 3c
       -0.032648634 0.017776076 -0.027010659 0.009940428
000380 e4 43 95 3c 43 df 16 3d 3e 89 94 3c da 23 92 bc
       0.01822085 0.036834013 0.018131848 -0.017839361
000390 fe ad d6 bb f5 05 ac bc a4 be 36 bc 2d 6f ee 3c
       -0.006551503 -0.020998934 -0.011153851 0.029105747
0003a0 6f d5 98 3c ea 30 21 bd 70 17 07 bd f3 ed 54 bb
       0.01865646 -0.03935329 -0.032981336 -0.0032490462
0003b0 7b c1 09 bd 7f cf 2c bd 30 66 43 bc 6c e1 02 bd
       -0.033631783 -0.04219007 -0.011926219 -0.03195326
0003c0 03 8f 1f bc 8d 4e dd bc 9a d1 6e bc d1 b7 c7 3a
       -0.0097386865 -0.027014995 -0.01457634 0.0015237277
0003d0 b9 59 04 bd 2d 3c fa ba f9 1d 15 bd f1 8a 9e ba
       -0.03231213 -0.001909142 -0.036405537 -0.0012095851
0003e0 b9 1c c9 3c 1c 16 2e bd 17 ce 0f bd 91 a8 02 3d
       0.024549829 -0.042501554 -0.035108652 0.03189904
0003f0 ab a8 45 ba 20 56 92 3c 9c 18 11 3d be 79 ae 3c
       -0.0007540087 0.017863333 0.03542386 0.021298286

conv3.bias f4 [64]
000000 12 62 48 3d 5d a4 17 bb cb 6f f6 bc 38 ad 3a bd
       0.048921652 -0.002313874 -0.030082604 -0.04557535
000010 b7 1e 17 bc 9f ec 7b bb e8 bc d3 bc a4 d5 d1 bb
       -0.009223632 -0.0038440598 -0.025846913 -0.006403642
000020 ea c5 1f bc 47 67 f3 3b 57 eb 07 bd a2 4c a9 bc
       -0.009751776 0.007428083 -0.033183422 -0.020666424
000030 95 c3 11 3d bd b3 ca 3c be 44 21 bd 72 a2 94 bc
       0.035586912 0.024743909 -0.0393722 -0.018143866
000040 a1 4f 71 bd 3c 3b bf bc f8 13 18 bd 81 d1 9c bd
       -0.05891383 -0.023343675 -0.03712842 -0.07657147
000050 e0 ee ab bc ab 78 b3 bc dd 7a 16 bd 87 c0 4b bd
       -0.020987928 -0.021908125 -0.036738265 -0.049744155
000060 b6 cc 00 bc 14 fb f6 bc be 45 24 bd 99 e1 d5 3a
       -0.007861307 -0.03014902 -0.040105574 0.0016317844
000070 51 0f d6 bc 6d 0d ba bd b5 9b 09 bc 87 4b 3a bb
       -0.02613035 -0.09084592 -0.00839894 -0.0028426365
000080 99 d4 ac bc 32 bd 08 be 6a 3f ab bb 54 36 46 3d
       -0.021097468 -0.13353422 -0.0052260654 0.048391655
000090 c6 9c bf bc 61 cc 1e bd 42 bf 9e bc c4 f9 ec bc
       -0.023390185 -0.03876913 -0.019378308 -0.028927691
0000a0 c8 a9 53 3d f4 54 c2 bc 14 88 9b 3c 29 e2 2d bc
       0.051675588 -0.02372215 0.018985786 -0.010613003
0000b0 fd 6f 37 bb d6 2f a1 bd bf 0f 96 bb 3c 93 48 bc
       -0.0027990334 -0.07870452 -0.004579514 -0.012242135
0000c0 03 0b 18 bc 5d d8 3a 3d 0a a0 e5 bc 22 af 95 bc
       -0.009279969 0.045616496 -0.028030414 -0.018271986
0000d0 c7 3d ac 3a ae 9a fb bc c1 a1 d4 bb 00 05 96 3d
       0.001314097 -0.030713405 -0.006489009 0.073251724
0000e0 1f 29 25 bc f2 01 f5 bd 66 8c 1d bc 7e 6a ba bc
       -0.010080605 -0.11963262 -0.009615993 -0.022755858
0000f0 7c 99 12 bc 12 8d df 3c 36 9f 2f bc 56 d9 18 3c
       -0.008947726 0.027288947 -0.010719111 0.009329161

conv4.weight f4 [64, 64, 3, 3]
000000 02 d0 99 bd 07 4e 91 bd 7c 4a 86 bc 9d a9 62 bd
       -0.075103775 -0.07094961 -0.016392939 -0.055337537
000010 ba 95 b4 bd ab 1d 1c bd f9 aa 84 bd d5 3a 78 bd
       -0.088176206 -0.03811423 -0.06477923 -0.06060298
000020 df 40 ed bb 7a 0c 0f bb 34 ea 32 bc b0 10 ba 3c
       -0.0072403993 -0.0021827505 -0.010920096 0.022713035
000030 14 1f 2a 3d b7 d0 0a bc 09 d4 86 bb 01 b7 a6 bc
       0.041533545 -0.008472613 -0.004114632 -0.020350935
000040 e3 c9 04 bd a3 a4 fc bc 8c bd 4c bc 3d 01 ab ba
       -0.032419097 -0.030840224 -0.012496363 -0.0013046634
000050 be c6 b2 bb f4 8f c4 bb e3 18 a9 bb 06 8f 31 bd
       -0.005455821 -0.005998606 -0.0051604374 -0.04334929
000060 56 60 07 3d f0 f5 d6 3a 63 4e 88 3c 77 ee c1 3c
       0.033050857 0.0016400199 0.01663894 0.02367328
000070 36 a2 67 3c b4 03 08 3d f7 d0 b8 bc a7 45 f5 3c
       0.014137795 0.033206657 -0.02256058 0.02994044
000080 86 42 48 3c be fa a4 bc ca ef b8 bb 37 15 f4 3c
       0.012222892 -0.020139094 -0.0056438195 0.029795272
000090 bd 21 a5 3c ff 0a 8d 3c c0 4b ec 3b 8d 29 d1 bb
       0.02015769 0.017217157 0.0072111785 -0.006383127
0000a0 b5 a0 d2 3c 68 3b 3c 3c 8d 1a 35 bd d8 bf 2e bd
       0.025711397 0.011488773 -0.044214774 -0.042663425
0000b0 24 4d 85 bc 07 bb 91 3c 03 98 02 bb 25 27 91 bc
       -0.016272135 0.017789377 -0.0019927032 -0.01771886
0000c0 84 80 1a bd e2 bc 4d 3b 59 28 31 3d c9 a1 82 3c
       -0.03772022 0.00313931 0.04325137 0.015946286
0000d0 86 31 b6 bc 79 a5 23 3c c5 94 e3 bc 46 34 a8 3b
       -0.022240411 0.009988182 -0.0277809 0.0051331846
0000e0 26 00 f9 bc c8 34 ec bc 97 25 83 3c 25 9a 76 3c
       -0.030395579 -0.028833762 0.016009135 0.015051399
0000f0 96 15 5c 3b a7 bc c4 bc 60 91 11 3d 76 c9 0e bc
       0.0033582202 -0.024015738 0.03553903 -0.008715024
000100 9f 98 92 3c db d3 80 bb 0f 00 e5 3c ee 07 0c 3d
       0.017895041 -0.003931505 0.02795413 0.03418725
000110 0e da 0d 3d 47 b1 e5 3c d2 ec 51 bb 24 dd bb bc
       0.03463178 0.028038634 -0.0032032025 -0.022932597
000120 28 c6 21 3d 3a ff 69 bc 9c 50 87 bb 33 69 6a bc
       0.039495617 -0.014282042 -0.0041294824 -0.014307308
000130 2b 79 e5 bc d9 2f d1 3b 02 13 d3 3c 62 f8 f5 bc
       -0.028011879 0.0063838777 0.0257659 -0.030025665
000140 c6 f9 bd bc 74 ce 64 bb f8 94 86 3c 67 7a c4 3c
       -0.02319039 -0.0034913095 0.016428456 0.023984147
000150 90 03 c8 3b 24 01 14 bd fa 47 26 bd 85 09 a3 bb
       0.0061039403 -0.0361339 -0.040595986 -0.0049755
000160 0f d5 08 3d ff f6 0e 3d 4b 57 11 3d 7d 8c db bb
       0.033406314 0.034903523 0.03548364 -0.006700097
000170 0f e9 c7 bc 4f c2 04 bd 89 54 ed bc 26 05 21 3c
       -0.024403123 -0.03241187 -0.028970974 0.009827888
000180 9f c5 a3 bb b5 3b 13 bd 77 50 d3 bc d4 5e a1 bc
       -0.0049979235 -0.035945613 -0.025795205 -0.019698538
000190 a6 7b 0d 3d 34 2f 99 bc cb 0c d6 3c 89 89 be 3c
       0.03454175 -0.018699266 0.026129147 0.023258941
0001a0 e2 f2 05 bd 2c 61 b5 bb af 33 dc 3c 01 9d be bb
       -0.032702334 -0.0055352654 0.026880113 -0.005817056
0001b0 d9 dc 87 3c ba 0d 83 bc 03 f5 33 3d f9 1c e8 3c
       0.0165848 -0.015997756 0.043934833 0.028334128
0001c0 e1 71 16 bd 0b 3d 4d 3c cc be d8 bc f8 f2 a0 bc
       -0.036729697 0.012526761 -0.026458167 -0.019647107
0001d0 39 13 08 bc ba 0e 19 bd 63 b6 29 3c 6e a9 3e 3c
       -0.008305364 -0.03736756 0.010358426 0.011637075
0001e0 9b ea 9e 3c 58 af 26 3d d2 7f 83 bc 66 b8 af 3b
       0.019398978 0.040694565 -0.01605216 0.005362558
0001f0 50 47 6b 3c 07 34 85 bc 9f c8 2d 3c c7 10 16 3d
       0.014360264 -0.01626016 0.010606914 0.036637094
000200 0b 6d b1 3c b0 4b 16 bd 0a 3e da 3c 71 c4 e7 3c
       0.021658441 -0.036693275 0.02664091 0.028291913
000210 38 df c3 bc db 3c 7b bc be b7 ba bc af f1 14 bd
       -0.02391015 -0.015334333 -0.022792693 -0.0363633
000220 48 3e 4d bd 8d 8d c5 3c eb 7b 2c 3a 85 fc 3c 3c
       -0.050108224 0.024115348 0.00065797445 0.011534815
000230 d7 f8 cd 3c e3 45 68 bc b6 0f 84 bc 5d dc 93 b9
       0.02514307 -0.014176819 -0.016120773 -0.00028202208
000240 a8 ec 08 3b 25 2d 64 bc ad 74 b1 3c 03 61 9d bc
       0.0020893011 -0.013926779 0.02166208 -0.019211298
000250 d5 d1 d7 3a cd 67 0f bc d3 db 97 bc c3 d2 14 3d
       0.0016465733 -0.008752775 -0.018537438 0.03633381
000260 36 e7 42 3b 1d 93 1e bd f0 01 5a 3c ca e4 0d bb
       0.0029739863 -0.038714517 0.013306126 -0.0021651261
000270 ef 59 54 bc 13 66 2e bd a4 1f 0e bd 26 70 ca 3c
       -0.012960895 -0.042577814 -0.034698144 0.02471168
000280 d8 d0 8f bc 77 b3 17 bd e5 fc 3d 3d 22 60 27 3b
       -0.01755564 -0.037036385 0.046383757 0.0025539477
000290 1d 5a 4c bc 1b 77 04 3c 23 be 23 3d 35 de 2e 3d
       -0.012472657 0.008085038 0.03997625 0.042692382
0002a0 8c 8d 13 3d 77 8d 31 3d 80 a6 ae 3c 75 0d 16 bd
       0.03602366 0.043347802 0.021319628 -0.036633927
0002b0 24 ae a4 bb 3f ee 37 3d 25 e8 bb bb 89 c1 27 bd
       -0.005025642 0.044904944 -0.005734461 -0.040956054
0002c0 db 1a 39 3d 65 ca e4 3c 2c cf 8a bb 27 98 e7 bc
       0.045191627 0.02792854 -0.0042361226 -0.028270794
0002d0 43 2f c4 bb ce e0 c1 bc 63 3d 1b 3d a1 eb 8a bb
       -0.0059870793 -0.023666766 0.03790034 -0.004239515
0002e0 5a ce 14 3c 93 66 38 3d 58 de 7e bc e4 d3 22 bc
       0.009082401 0.045019697 -0.015555941 -0.009938214
0002f0 e3 4d 46 ba 9f 35 bb 3c d5 ab df 3c 31 7d 04 bc
       -0.00075647066 0.022852717 0.027303616 -0.008086489
000300 1e 9f f2 3b 91 71 94 3b e9 b9 6f 3c 60 a5 09 3d
       0.007404222 0.0045301397 0.014631727 0.03360498
000310 80 0c 53 3c 94 b4 6b bc 28 a8 eb bc 16 f5 46 3c
       0.012881398 -0.014386315 -0.028766707 0.012143394
000320 cc ec 0f bd cb ef 29 3d ea fc a7 bc 03 b3 16 3d
       -0.035137936 0.04148845 -0.020506341 0.036791813
000330 0e f5 03 bd 26 24 06 bd e8 fb e6 bb 6d 29 d7 bc
       -0.032216124 -0.032749318 -0.0070490725 -0.02626487
000340 a8 da 0a bd 03 e9 13 3d 40 16 06 3d 30 e0 fe 3c
       -0.033899933 0.03611089 0.032736063 0.03111276
000350 0c 66 ab bc ae 68 c0 3c d2 1b 21 3d 00 48 95 3a
       -0.020922683 0.023487415 0.039333172 0.0011389256
000360 9b 35 b7 3c 2a 97 ec 3a 34 9a f1 3b 3b af 82 bc
       0.022364428 0.0018050421 0.007373119 -0.015952697
000370 fd 4e d8 3c 7d b0 35 3c c9 fe 00 bc 30 b1 bd ba
       0.026404852 0.011089441 -0.0078732455 -0.0014472362
000380 6b da 5b 3d 6c 62 19 3d c7 ff 3b 3d ed 53 e6 3c
       0.053675096 0.037447378 0.045898225 0.02811619
000390 38 f6 18 3d c1 b8 84 3c 15 0a c8 bb 06 9e ce 3c
       0.037344187 0.016201379 -0.0061047175 0.025221836
0003a0 7b c8 9e bc 2e c6 e0 bc d6 50 ec bc c6 20 1a 3d
       -0.019382706 -0.02743825 -0.02884714 0.03762891
0003b0 ee cb 97 3c 13 46 c8 bc e4 c8 1d bd 26 d2 36 bc
       0.018529858 -0.024447476 -0.038521662 -0.011158502
0003c0 b6 4d e3 3b e6 82 84 3c 56 22 8d 3b 5b f8 e1 bd
       0.006936754 0.016175698 0.0043070717 -0.11033698
0003d0 ca 6d b7 bd 61 c3 ca bd 37 27 b2 bd 8d ae e8 bd
       -0.089564875 -0.09900547 -0.08698886 -0.11361418
0003e0 c2 6c a3 bd c5 52 b6 bd f4 49 df bc 82 14 61 bb
       -0.07979728 -0.08902506 -0.027256943 -0.00343445
0003f0 a0 cd 01 bd a0 8d d5 3c 56 49 e0 3b ab d9 9e ba
       -0.03169024 0.026068509 0.00684468 -0.0012119313

conv4.bias f4 [64]
000000 0c 29 59 3c 38 e5 5f bd cc c8 63 bc 3c e6 a0 3c
       0.013254415 -0.05466196 -0.013902854 0.019641034
000010 3c 37 8e bd 0e 2c 7a bd 4b 2d 01 3d 5e 9b 3d bb
       -0.06944129 -0.06107717 0.031537335 -0.0028931717
000020 0a 09 2f 3d e3 86 93 bb ee 2c 9d ba 6f 42 c3 3c
       0.04273323 -0.0045021637 -0.001199154 0.023835389
000030 ed df 6f bd 48 3c 07 3d 84 30 f2 3c a4 a1 a7 3c
       -0.05856316 0.033016473 0.02956415 0.020462818
000040 88 ed c2 3b 63 cb 5c bd ee 5d d6 3c 14 d1 c8 3c
       0.005948726 -0.053904902 0.026167836 0.024513759
000050 5b bc 85 bd 25 a5 7d 3c ed 8c a2 bd 20 bb ff 3c
       -0.065300666 0.015481268 -0.07937036 0.031217158
000060 43 15 a3 3c 82 57 5e bd 87 d3 03 bd ec 58 cc bc
       0.0199076 -0.054282673 -0.03218415 -0.024944745
000070 5a 4f f8 3c 03 a3 5e bd 0b 3f 1d bd 6d a8 b7 bc
       0.030311275 -0.05435468 -0.0383902 -0.022419179
000080 d0 f1 aa 3c 0f 91 aa bc 00 dc 80 bd 2a 2f 95 3c
       0.020867258 -0.020821122 -0.06291962 0.018210966
000090 93 bb cb 3b b2 67 57 bd 8b de ef 3b 04 22 dc 3c
       0.006217429 -0.052589126 0.0073202304 0.026871689
0000a0 fe 3d 54 bd 83 46 b2 3c d2 f0 11 bd 57 1b 2a 3b
       -0.051816933 0.021762138 -0.035630055 0.0025956237
0000b0 f3 8f 3e 3d e1 18 b1 bb c1 6c 92 bc e2 1d e3 bd
       0.046524 -0.005404577 -0.017874124 -0.11089684
0000c0 67 61 6d bd b0 e4 d9 bc ab f8 4b 3d c5 7c ad 3c
       -0.05795422 -0.026598305 0.049797695 0.021177659
0000d0 34 2f 36 bd 73 47 e5 bc 50 9c f4 3c 3a 5b c5 3c
       -0.04447861 -0.027988171 0.029859692 0.024091352
0000e0 c2 e3 5d bc a8 1b fe bc 1f fc c5 3c 82 21 fe bb
       -0.013543071 -0.031019047 0.024168072 -0.0077554593
0000f0 de c4 1b be 1c 9c 47 bc 67 6d 56 bd 2a a4 b0 3c
       -0.15211818 -0.0121832155 -0.052350428 0.021562655

conv5.weight f4 [1, 64, 3, 3]
000000 26 17 27 bd f2 8b a3 3c a1 53 74 3c 65 81 83 3c
       -0.04079356 0.019964192 0.014912517 0.016052911
000010 83 44 4f 3d 1b c7 a5 3b 4a 43 0d 3c 9f 42 41 3d
       0.050602447 0.0050591356 0.008622 0.047182675
000020 3b 01 95 3c 4b 19 e4 bc 7d 12 4c 3b a1 31 5c bc
       0.018189063 -0.027844092 0.003113895 -0.013439567
000030 c5 37 9e bc bf 05 f5 3b 79 b9 f3 bc 08 f1 27 3d
       -0.019313702 0.0074774916 -0.029751526 0.04100135
000040 c3 3e ee bc 54 27 71 3c e5 f3 42 bb f8 cd c8 bc
       -0.029082661 0.014718849 -0.0029747423 -0.024512276
000050 ef 57 39 bc 13 03 cf 3c d9 f1 b0 3c 3a e6 9a bb
       -0.011312469 0.02527002 0.021599697 -0.004727152
000060 91 0c df ba 6d a6 1b bd f7 96 76 3c 1b c9 f4 3c
       -0.0017017295 -0.038000513 0.015050641 0.02988105
000070 c4 7f 2d 3d 4f 20 16 3d 14 03 4e bc 06 63 29 3c
       0.042358175 0.036651906 -0.012573976 0.01033855
000080 41 e0 e4 3c fa f8 f3 3b b2 c0 f1 bc ce 65 8a bc
       0.027938964 0.007445452 -0.02951083 -0.016894247
000090 1f fe bc bc ed 7a 2f bc fd c5 3e bd 48 d7 6c bd
       -0.023070393 -0.01071046 -0.046575535 -0.057822496
0000a0 d1 d4 15 bd c9 1c 9a bd f4 60 54 bb 98 0c 9a 3c
       -0.03657991 -0.075250216 -0.0032406421 0.018804833
0000b0 99 ad 12 3c 0f cd 3d ba f8 a3 67 3d 45 43 64 bc
       0.008952522 -0.0007240334 0.056552857 -0.013932054
0000c0 42 7a 3a 3d 65 2b a7 3b b9 0c ef 3c 90 5e c9 bc
       0.04552675 0.0051016086 0.029180871 -0.024581224
0000d0 18 18 8c bc b2 63 b5 3c 52 23 1a 3d f2 26 ae 3b
       -0.017101333 0.022142265 0.03763134 0.0053147012
0000e0 08 55 2a bc 49 20 6b 3d 05 08 35 3c 17 6d 12 3d
       -0.01039625 0.057403836 0.011049275 0.035748567
0000f0 99 e4 4c 3d 8c 87 d7 3c ac a2 33 3d 52 28 b6 3b
       0.050022695 0.026309751 0.043856308 0.005559006
000100 84 13 f7 bc b0 d7 05 39 e6 73 08 bd 67 79 2b 3c
       -0.030160673 0.00012764218 -0.033313654 0.010465956
000110 09 f8 aa 3c e1 91 17 3b 35 d0 df bb 3b 77 3a 3d
       0.020870226 0.0023127722 -0.00683024 0.045523863
000120 6b e0 26 bd 2f 62 7f bc 20 35 8d 39 09 e6 0f bd
       -0.040741365 -0.015587374 0.00026933197 -0.035131488
000130 04 73 6f bd c7 1e 1d 3c 5f f5 3c bc a9 45 ba bc
       -0.058459297 0.009589857 -0.01153311 -0.022738295
000140 cf 2f b2 bc fe 75 52 bd d2 a0 15 3a 96 aa 04 bd
       -0.021751313 -0.051382057 0.0005707863 -0.032389246
000150 04 72 7a bc 93 83 55 bc 06 c8 d5 3b b6 cd 5d 3b
       -0.0152859725 -0.013031858 0.006524089 0.0033844537
000160 46 98 d8 bc 15 36 43 3c 64 e1 71 ba a9 90 02 3d
       -0.026439797 0.01191475 -0.0009227006 0.03187624
000170 db 69 0d 3d bd 13 f1 bb 22 75 49 3c e3 19 fa 3c
       0.03452478 -0.0073570893 0.012295993 0.030529922
000180 df b0 c8 bc 59 a6 a7 b9 9a b8 23 bd fb 26 04 3c
       -0.024498401 -0.0003197666 -0.03997097 0.008065934
000190 13 49 48 b8 fb d4 c8 bb 61 42 01 bd 50 bc 53 3d
       -4.775177e-05 -0.006128905 -0.031557444 0.05169326
0001a0 bd 17 c7 3c f8 b8 0e bb 0b c6 a6 3d 9e 72 5e 3d
       0.024303311 -0.002177773 0.081432424 0.054308526
0001b0 bf 2b 12 3b 5d 62 00 bd f0 0c ad 3a dd 3a 3e 3b
       0.0022303907 -0.031343807 0.0013202708 0.0029026784
0001c0 88 be 2c bd a3 f2 0e bd 16 fb 58 bc e8 07 2d 3c
       -0.042173892 -0.034899365 -0.013243457 0.010560967
0001d0 c2 a9 8d bb be 65 dd 3c 34 a4 f7 bc cc 12 8b bc
       -0.004323215 0.027026054 -0.030229665 -0.016976736
0001e0 49 4e 01 3d e7 5c e4 3c 05 eb 27 3d a1 1e 9f 3c
       0.0315688 0.02787633 0.040995616 0.019423785
0001f0 c6 28 20 bc 3b 99 30 bc d0 37 02 bc e2 55 7d 3c
       -0.009775346 -0.0107787205 -0.007947877 0.015462371
000200 28 2f ee 3c 60 e9 fa bc d9 d8 c1 bb 00 42 34 3d
       0.02907522 -0.03062886 -0.005915743 0.044008255
000210 62 01 8f 3c 55 98 10 3d b6 7c 86 bb 46 e6 29 bb
       0.017456714 0.035301525 -0.004104222 -0.0025924607
000220 19 4f 74 bd 5a 9c 1f 3d bb b7 b1 bc e1 56 99 bd
       -0.059645746 0.038967468 -0.021694055 -0.07487274
000230 67 8d 22 3c 91 e2 a2 3c da 8d 80 bd 17 39 42 3d
       0.009921408 0.019883426 -0.06277056 0.047417726
000240 85 80 ef 3c 25 04 f7 bc de d8 b6 3c 44 12 e1 3c
       0.029236088 -0.030153343 0.022320207 0.02747453
000250 a7 cc c8 3c d8 dc 1a 3d 07 1c 3f 3d 66 cb 67 bc
       0.024511648 0.03780827 0.04665759 -0.014147615
000260 0b 8f 9c bb a2 40 2a bd f6 a1 c6 bc 5f c5 71 3c
       -0.0047777942 -0.041565545 -0.02424715 0.01475653
000270 a8 be 0c bd 4d 8f f1 3c 57 aa c6 bc c3 7d 9f 3c
       -0.03436151 0.029487276 -0.024251146 0.019469148
000280 56 af a4 bb 78 ab bc 3c 2a 21 6d 39 dd 86 54 3c
       -0.0050257845 0.023030981 0.00022614436 0.012971607
000290 63 68 50 bc 2d d9 94 3b b7 4b da 3b f2 3d 08 3d
       -0.0127202 0.004542491 0.006661858 0.0332622
0002a0 2f 38 27 bd 1c 11 19 bd 07 ba 1e 3d 4a 2d 7b bc
       -0.040825065 -0.037369832 0.03875163 -0.015330622
0002b0 64 91 9c 3e d9 7d 05 3e 5e ef 99 bd 5a 27 b9 3e
       0.30579674 0.13036288 -0.07516359 0.36162835
0002c0 b9 78 3e 3e 0e 3e 11 bd da 37 a6 3e fc ad 1f 3e
       0.1860074 -0.03545957 0.32464486 0.15593714
0002d0 08 fb f4 bc 1a d0 90 bd 7b aa a3 bc 7a 78 5e bd
       -0.029904857 -0.07070942 -0.019978752 -0.054314114
0002e0 66 c4 ac bc cd 7d a7 bb 9b d5 85 bd b8 62 b7 ba
       -0.021089744 -0.005111432 -0.06534883 -0.0013991212
0002f0 eb c1 9f 3b 63 96 05 bc 02 2f cf bc ad 90 c5 3c
       0.0048754117 -0.008153531 -0.02529097 0.024116838
000300 af 51 d1 bc 19 e8 4f bd 61 96 de 3c d6 df 01 bc
       -0.025551645 -0.050758455 0.027171316 -0.007926902
000310 a6 a2 99 b9 1c 74 7d 3c ae a2 de 3c a7 b7 e0 bc
       -0.00029303617 0.015469577 0.027177181 -0.027431322
000320 70 d5 bb 3c 13 4f 1b bd 2b 59 9c bd a1 7a af bc
       0.022928923 -0.037917208 -0.07634195 -0.021420779
000330 bb c2 64 bd 3a 2a c0 bc 18 4b 51 bc 5b 96 34 3c
       -0.055849772 -0.023457635 -0.012774251 0.011022176
000340 2d bc aa bb 9e d3 c2 3c af c4 62 3b 48 36 04 3d
       -0.0052104206 0.023782548 0.0034602096 0.03227833
000350 66 89 82 3b f5 73 5f 3c b8 94 20 3d 4a 00 06 3d
       0.0039836643 0.013638486 0.03920433 0.03271512
000360 d7 32 62 bc 9d 45 03 3d ef 83 ae 3c 67 92 4c 3d
       -0.0138060665 0.03204881 0.021303145 0.049944308
000370 5a 3b d6 3c 57 f0 1d 3d f1 a2 04 3d 5a 25 89 bc
       0.026151348 0.038559284 0.032381956 -0.016741443
000380 02 94 bf bb 4c 77 ce 3c 0e 6e 23 bd 3a 97 c9 3c
       -0.0058465013 0.02520337 -0.03989988 0.024608243
000390 49 47 84 3c 0f 20 a5 bc a3 ab 04 3c 8a b9 a8 bc
       0.016147273 -0.020156888 0.008097562 -0.020596284
0003a0 5c 12 0a bd d4 86 24 bb 17 65 8d bc 0d 08 13 3d
       -0.033708915 -0.0025104778 -0.017260117 0.03589635
0003b0 2b 15 20 3d 60 5b 60 3d 7f 00 56 bc 0b b5 09 3d
       0.039082687 0.054774642 -0.013061642 0.03361992
0003c0 7a 19 3e 3d eb 4a 02 3d f1 0d 07 3d 5c 6b df bc
       0.046411015 0.03180973 0.03297228 -0.027272873
0003d0 94 b1 ad ba 16 63 6f 3b 29 e5 dd bc 82 ee b2 bc
       -0.0013251775 0.0036527566 -0.027086811 -0.021842245
0003e0 63 29 47 3c 21 a2 10 bd 39 af ae 3b 0f 09 0b bd
       0.012155863 -0.03531087 0.0053309468 -0.033944186
0003f0 9a 59 df 3d f8 8b 9b 3e 69 54 66 bd 72 98 63 3e
       0.10905762 0.30380225 -0.056232844 0.22226122
