weights/best_model_falsra.pth (torch, 153921 bytes, 11 tensors)

conv1.weight f4 [32, 1, 3, 3]
0	0x3e6b13a3	0.2295671
1	0xbdea1c26	-0.1143115
2	0xbe97ae16	-0.29625005
3	0xbe48b400	-0.19599915
4	0x3ea94ac4	0.33064854
5	0x3e794cab	0.24345653
6	0x3e1818db	0.14853232
7	0x3dfc1966	0.12309532
8	0x3be99300	0.0071281195
9	0xbdcc110b	-0.09964188
10	0x3c09c080	0.008407712
11	0x3e17de48	0.14830887
12	0xbdc5b226	-0.0965312
13	0x3e98453a	0.29740316
14	0xbe1d5cc0	-0.15367413
15	0xbde98860	-0.114029646
16	0x3e83df0e	0.25756115
17	0xbd0d166b	-0.034445208
18	0xbdafda90	-0.08586609
19	0xbdf85890	-0.12126267
20	0xbe50d766	-0.20394668
21	0x3d718b80	0.05897093
22	0x3e03abe0	0.12858534
23	0xbc41ea80	-0.011835694
24	0x3ca60d16	0.020269912
25	0xbe106100	-0.14099503
26	0xbe31fdce	-0.17381975
27	0x3e529df3	0.20568065
28	0x3e04d60c	0.12972277
29	0xbe993789	-0.29925182
30	0xbe2c1470	-0.16804671
31	0x3df09173	0.11746492
32	0x3d0e14a3	0.03468765
33	0xbeb1480a	-0.34625274
34	0xbdd5ac32	-0.10433234
35	0xbe5888f6	-0.21145996
36	0xbea647eb	-0.32476744
37	0xbe8e30dc	-0.27771652
38	0xbe9cc918	-0.30622172
39	0xbed60488	-0.41800332
40	0xbf48d1c7	-0.78445095
41	0xbf1ad54b	-0.6048171
42	0xbf39fe49	-0.72653633
43	0xbf2e5356	-0.6809591
44	0xbf4c9589	-0.7991567
45	0x3e5b8c2f	0.21440195
46	0x3f366fe3	0.71264476
47	0x3f043a66	0.5165161
48	0x3e261215	0.16217835
49	0x3f37686e	0.7164372
50	0x3f1583ce	0.58404243
51	0x3e102ed6	0.14080366
52	0x3f47e73e	0.7808722
53	0x3f0139be	0.5047873
54	0x3e0ee0ea	0.13952985
55	0x3ec4be5a	0.38426477
56	0x3edd4817	0.43219063
57	0x3d639a6e	0.055567198
58	0xbcca430d	-0.024690175
59	0x3e82bdfb	0.2553557
60	0x3ee9ed92	0.45689064
61	0x3ea8fbb1	0.33004525
62	0xbdb2fc47	-0.08739524
63	0x3d93d35a	0.072180465
64	0xbf002b33	-0.50065917
65	0xbed08e68	-0.40733647
66	0x3ca00557	0.019533796
67	0xbe9b8abc	-0.30379283
68	0x3d5b9fb7	0.053619113
69	0xbebe35cd	-0.37150422
70	0xbd3d859b	-0.046269994
71	0xbf184eea	-0.59495413
72	0xbec99221	-0.393693
73	0xbea29492	-0.31753975
74	0xbf0f293a	-0.5592228
75	0xbee7a4fa	-0.45243055
76	0xbf089d4e	-0.5336503
77	0xbedf59ef	-0.436233
78	0xbeda426e	-0.42628807
79	0xbe36443c	-0.17799467
80	0x3d5733b2	0.052539535
81	0x3f1dae4b	0.61594075
82	0x3f4bb198	0.7956786
83	0x3dd81079	0.10550017
84	0x3e5f925d	0.21833177
85	0x3e839fdc	0.257079
86	0x3f1ae77e	0.6050948
87	0x3cd28224	0.025696822
88	0x3e1c9cf8	0.15294254
89	0x3e3d25e8	0.18471491
90	0x3e6e0b62	0.2324653
91	0x3eae141c	0.33999717
92	0x3f1703f1	0.5899039
93	0x3f35d5c5	0.7102931
94	0x3f532320	0.8247547
95	0x3f2defcb	0.6794402
96	0x3de53d11	0.11193288
97	0x3f28c3a0	0.659235
98	0x3db7c0b1	0.089723
99	0xbc83dd3b	-0.016096702
100	0x3e73e4df	0.23817776
101	0x3ea1d906	0.31610888
102	0x3f11a4e9	0.5689226
103	0x3f39f527	0.726397
104	0x3e231639	0.15926446
105	0x3f0aa0ce	0.5415162
106	0x3f09a368	0.53764963
107	0x3f2017a0	0.6253605
108	0x3f1b1f3e	0.60594547
109	0x3f3da1dc	0.740751
110	0x3e9b41a8	0.3032353
111	0x3f09066c	0.53525424
112	0x3eb79d7f	0.35862347
113	0x3e416cc7	0.18889152
114	0x3f17bbae	0.5927075
115	0x3f261a1b	0.64883584
116	0x3e910569	0.2832444
117	0x3ddb6016	0.10711686
118	0xbe3cab9e	-0.18424842
119	0xbde3a526	-0.11115484
120	0xbdaf5140	-0.08560419
121	0xbe1af8ee	-0.15134022
122	0x3d82fa86	0.0639544
123	0x3c1f882b	0.009737055
124	0x3e21b1fb	0.1579055
125	0x3c9062eb	0.017625293
126	0xbefa7579	-0.4891775
127	0xbecf0b2d	-0.40438214
128	0xbe0bdf1d	-0.1365933
129	0xbec2a974	-0.38019907
130	0xbf3167b0	-0.6929884
131	0xbf1a534c	-0.6028335
132	0xbf0a203c	-0.53955436
133	0xbe75c9b0	-0.24002719
134	0xbeb49841	-0.3527241
135	0x3ee96fa3	0.45592985
136	0xbd0c46a8	-0.03424707
137	0x3df770d2	0.12082066
138	0x3d9bbe04	0.07604602
139	0x3f0f608f	0.5600671
140	0x3f267b42	0.65031826
141	0x3f22da65	0.63614494
142	0x3e9cf547	0.30655882
143	0x3f094571	0.53621584
144	0xbf27f024	-0.656008
145	0xbdb13619	-0.086528964
146	0xbdd63e9a	-0.10461159
147	0xbe394148	-0.18091309
148	0xbee26210	-0.4421544
149	0xbf0d44ee	-0.55183303
150	0xbec37f10	-0.38182878
151	0xbeb42c85	-0.35190216
152	0xbd4a82fd	-0.049441326
153	0xbd83fdab	-0.06444868
154	0x3d63018b	0.055421393
155	0xbe08c97b	-0.13358109
156	0xbd947320	-0.07248521
157	0x3e88e97f	0.26740643
158	0x3daa6466	0.08319931
159	0xbe55998b	-0.20859353
160	0x3e0dd308	0.13850033
161	0x3e9e017c	0.30860507
162	0xbebfe9be	-0.3748302
163	0x3c0db7a9	0.008649745
164	0xbed51fdd	-0.41625872
165	0xbef34354	-0.47512305
166	0xbe6c2476	-0.23060784
167	0xbe85f714	-0.26165068
168	0xbe302a8d	-0.17203732
169	0xbf1280bf	-0.572277
170	0xbe10eb0f	-0.14152168
171	0x3de50226	0.111820504
172	0xbd342e6b	-0.04398958
173	0xbe824256	-0.25441235
174	0xbe07e316	-0.1327022
175	0x3b4fda00	0.0031715631
176	0x3e9b15c6	0.3029005
177	0x3e97b0c2	0.29627043
178	0xbe0ef440	-0.13960361
179	0xbe260513	-0.16212873
180	0xbe6f1710	-0.23348641
181	0xbe41dec8	-0.1893264
182	0x3e549456	0.2075971
183	0xbe037d6b	-0.12840812
184	0xbe2ff2e6	-0.17182502
185	0xbcd44e16	-0.02591614
186	0x3dce13d6	0.10062377
187	0x3e4ceef0	0.20013022
188	0x3e354990	0.17703843
189	0xbd940dfe	-0.07229231
190	0xbdd954a8	-0.1061185
191	0xbe4c06f5	-0.19924529
192	0xbf344d54	-0.70430493
193	0xbee66d47	-0.45005247
194	0x3e402992	0.18765858
195	0xbf12bcd6	-0.5731939
196	0xbf027857	-0.50964874
197	0xbe39204c	-0.18078727
198	0x3eb3428d	0.35011712
199	0x3ee0916d	0.4386095
200	0x3ee6f5f4	0.45109522
201	0x3dfa5cdf	0.12224745
202	0x3ea37433	0.3192459
203	0x3f086805	0.5328372
204	0x3ef7bac7	0.48384687
205	0x3ecb10fd	0.396614
206	0x3f1d4beb	0.61443967
207	0x3c24ee5d	0.010066596
208	0x3de5c13b	0.112184964
209	0x3d3af138	0.0456402
210	0x3e5da6a9	0.21645607
211	0x3ec77d8b	0.3896297
212	0x3dd9aa36	0.10628168
213	0x3f10cab4	0.565593
214	0x3e24ea6b	0.16105048
215	0xbe27abbb	-0.16374104
216	0xbec60e00	-0.38682556
217	0xbec5e18c	-0.3864864
218	0xbe93f5bd	-0.2889842
219	0xbd716ddd	-0.058942664
220	0x3f371adb	0.71525353
221	0x3f278d8c	0.6545036
222	0x3d7577ae	0.05992859
223	0x3f45d781	0.7728196
224	0x3eebe4f2	0.4607311
225	0x3f270c49	0.6525312
226	0x3f0fcf01	0.5617524
227	0x3e58d13c	0.21173567
228	0x3dc8093d	0.09767387
229	0x3ea265f4	0.3171841
230	0x3f06d638	0.5267062
231	0x3f0be7b7	0.54650444
232	0x3f284391	0.657281
233	0x3dafe362	0.08588292
234	0xbc126056	-0.008934101
235	0xbdbeb7c6	-0.09312396
236	0x3ea076db	0.3134068
237	0x3e4ca62b	0.19985263
238	0x3e896367	0.2683365
239	0x3cda80ab	0.026672682
240	0xbe94643b	-0.2898272
241	0x3ddacda6	0.106837556
242	0x3e83f0f2	0.25769764
243	0x3e93f18e	0.2889523
244	0x3e559c66	0.20860443
245	0x3c3611d6	0.011112651
246	0x3d30074b	0.042975705
247	0xbd2e47f6	-0.042549096
248	0x3e91b444	0.28457844
249	0x3d7ffb76	0.06249567
250	0xbe7e1058	-0.24810922
251	0xbe08f628	-0.13375151
252	0x3d83d2f6	0.06436722
253	0x3e807d28	0.25095487
254	0x3d89bbdb	0.06725284
255	0xbe896d2e	-0.2684111

conv1.bias f4 [32]
0	0xbe9e9c64	-0.30978692
1	0xbe476398	-0.19471586
2	0xbe2f1d88	-0.17101109
3	0x3e3b20d1	0.18274237
4	0x3db60471	0.08887566
5	0x3a3261ad	0.0006804716
6	0x3d30ded9	0.043181274
7	0x3e30aaef	0.17252706
8	0x3da7672f	0.081739776
9	0x3ded6b49	0.11592729
10	0x3b68a4b0	0.0035498552
11	0x3e3e4edd	0.18584771
12	0x3e0f58b4	0.13998681
13	0xbe487c93	-0.19578771
14	0x3ddb80ee	0.10717951
15	0x3e16d728	0.14730513
16	0x3d787e70	0.060667455
17	0xbe9c2087	-0.30493566
18	0x3e8dec32	0.27719265
19	0xbe2427f8	-0.16030872
20	0xbe1a5753	-0.15072374
21	0x3e5a7e29	0.21337189
22	0x3e9015e1	0.28141692
23	0x3d480b07	0.04883864
24	0xbc027b00	-0.007963896
25	0x3e25405d	0.16137834
26	0xbe124a88	-0.14286244
27	0xbe3182cb	-0.1733505
28	0xbea8b2fb	-0.3294905
29	0x3dd2cfaf	0.10293519
30	0x3c872beb	0.016500434
31	0xbd303e36	-0.04302808

conv2.weight f4 [32, 32, 3, 3]
0	0x3a800c4b	0.0009769289
1	0xbd1ff80a	-0.039054908
2	0xbcfc617f	-0.030808209
3	0x3cc61ecf	0.024184613
4	0x3d308b23	0.04310144
5	0x3b8f7200	0.0043776035
6	0xbcdf0596	-0.027224343
7	0xbb19f25c	-0.0023490405
8	0xbc819c0f	-0.015821485
9	0x3d08c54b	0.03339128
10	0xbcffed60	-0.031241119
11	0xbc0a60b9	-0.008445912
12	0x3d07d41a	0.03316126
13	0x3d34cfd0	0.044143498
14	0xbbbf1dc7	-0.005832407
15	0x3d02c818	0.031929106
16	0x3d2e2063	0.042511355
17	0xbc308b59	-0.010775411
18	0xbd24f2ca	-0.040270604
19	0xbd458288	-0.048220187
20	0xbd549818	-0.05190286
21	0x3d550453	0.052006077
22	0xbc404315	-0.011734744
23	0xbd09f2f0	-0.03367895
24	0x3c817f73	0.015807843
25	0xbce62cdf	-0.028097568
26	0xbbcad143	-0.0061894967
27	0xbc9609e4	-0.018315263
28	0xbc744e09	-0.014911183
29	0x3d4e9d87	0.0504432
30	0xbd2649a7	-0.040597584
31	0x3d10e945	0.035378713
32	0xbd0ce11c	-0.03439437
33	0x3d35d7b4	0.044395164
34	0xbaaf0e4c	-0.0013355701
35	0x3c919274	0.01777003
36	0xbd8b0919	-0.067888446
37	0xbb5eb00e	-0.0033979448
38	0xbd440f1a	-0.047865964
39	0xbd48a918	-0.048989385
40	0x3cfb5893	0.030681884
41	0x3c66f9cc	0.014097642
42	0x3cca5cc3	0.024702435
43	0x3c8e17a3	0.017345255
44	0x3ba54062	0.0050430754
45	0x3d9871c7	0.07443576
46	0x3d6ccaf4	0.05781074
47	0x3d854a17	0.06508272
48	0x3e0ec740	0.13943195
49	0x3d965714	0.073408276
50	0x3dd68516	0.10474603
51	0x3dedc15c	0.11609146
52	0x3e1ff81e	0.15621993
53	0x3db13483	0.08652594
54	0xbcc3459d	-0.023836905
55	0xbd6b371f	-0.057425614
56	0x3d2703de	0.040775172
57	0x3d0f17e0	0.03493488
58	0xbd125238	-0.03572294
59	0x3c9b65b8	0.018969402
60	0xbd3810a3	-0.04493774
61	0x3d0c4efa	0.034255005
62	0x3d217ede	0.03942763
63	0xbd09814e	-0.03357058
64	0xbcea5ed4	-0.02860967
65	0xbcd3de62	-0.025862876
66	0x3c45a4b5	0.012063195
67	0x3c7ba8b0	0.015360042
68	0x3d3fd86b	0.04683725
69	0xbd55ad3b	-0.05216716
70	0xbb81549d	-0.0039468543
71	0x3d1df380	0.038562298
72	0xbd62b476	-0.055347882
73	0xbc6e151e	-0.014531402
74	0xbd18bb00	-0.037287712
75	0x3c808b28	0.015691355
76	0xbc980e00	-0.018561363
77	0xbce400a8	-0.027832344
78	0xbd22e65d	-0.039770473
79	0xbd345751	-0.044028584
80	0xbc3f47a5	-0.011674796
81	0xbd807e36	-0.06274073
82	0xbd05cae9	-0.032664213
83	0x3c5886ff	0.013215779
84	0xbd30def3	-0.04318137
85	0x3d34fa5a	0.044184066
86	0x3c8127fa	0.015766133
87	0x3c262470	0.010140523
88	0xbd89d221	-0.06729532
89	0xbce58965	-0.028019616
90	0x3e08a5f0	0.1334455
91	0x3d7b0498	0.061283678
92	0x3e0de5f4	0.13857251
93	0x3dde9703	0.10868647
94	0x3db669bd	0.08906887
95	0x3df92d91	0.12166894
96	0x3e166347	0.14686309
97	0x3d86db8d	0.06584845
98	0x3dd3ab8e	0.10335456
99	0xbcbcee05	-0.023062715
100	0xbc36b571	-0.011151657
101	0xbbdf8a82	-0.0068219313
102	0xbd851f86	-0.06500153
103	0x3c8d9a06	0.017285358
104	0x3d064a6b	0.032785814
105	0x3ce016dc	0.02735465
106	0x3b05a1d2	0.0020390642
107	0xbd441e59	-0.047880504
108	0xbb250707	-0.002518119
109	0xbcf4e63b	-0.029894939
110	0xbd62dac9	-0.05538443
111	0xbcd258f9	-0.025677191
112	0x3d1adc83	0.037807953
113	0x3c093012	0.008373277
114	0xbd557e79	-0.052122567
115	0x3d450cd7	0.04810795
116	0x3d416ecc	0.047224805
117	0xbc538918	-0.012911104
118	0x3d0b4776	0.034003697
119	0x3cc0d976	0.023541193
120	0x3d045f6a	0.032317556
121	0xbbabadfd	-0.005239247
122	0xbd1780ab	-0.03698794
123	0xbcc859ba	-0.024456847
124	0xbcfc37bb	-0.030788293
125	0x3d0a2547	0.033726957
126	0x3bd4bff6	0.00649261
127	0xbd50593c	-0.05086635
128	0x3bcc32dd	0.0062316493
129	0xbd7706bb	-0.060309153
130	0xbd6da4a8	-0.058018357
131	0xbd4c7d2c	-0.04992406
132	0xbd6ab65c	-0.057302818
133	0xbd79678c	-0.060889766
134	0xbcfb4010	-0.030670196
135	0xbd3545d1	-0.044256035
136	0xbc9dcea7	-0.019263579
137	0x3d4d3475	0.050098855
138	0x3d3da211	0.046297137
139	0xbd29b588	-0.041432887
140	0xbcbf8a92	-0.023381505
141	0x3cfe61cd	0.031052494
142	0x3cde8075	0.027160862
143	0x3cd73647	0.026270999
144	0xbd86b70e	-0.06577884
145	0x3d2371ef	0.039903577
146	0xbc307b54	-0.010771591
147	0xbd04e826	-0.032447957
148	0x3ca91b34	0.020642854
149	0x3c99841c	0.018739752
150	0xbcb4ad6f	-0.022055356
151	0xbd4cb13c	-0.04997371
152	0x3c9f8fc3	0.01947773
153	0x3d65599e	0.05599367
154	0xbd4481c4	-0.047975317
155	0x3d291642	0.041280992
156	0xbcfe0400	-0.031007767
157	0x3a0a3dc0	0.00052734837
158	0xbc213131	-0.009838388
159	0x3d026857	0.031837787
160	0xbd45a2b3	-0.048250865
161	0xbd0fb770	-0.03508705
162	0xbc909d66	-0.017653178
163	0xbd157dd6	-0.03649696
164	0x3c6cfe7b	0.01446497
165	0xbc3d7214	-0.011562843
166	0xbd3bc73b	-0.045844298
167	0xbb9b97c8	-0.0047483183
168	0xba0e80f2	-0.00054360845
169	0x3cae84f6	0.021303635
170	0xbcd8a531	-0.026445957
171	0xbd56f133	-0.05247612
172	0x3c16b3a8	0.009198107
173	0xbc2eac05	-0.01066113
174	0xbb5ea677	-0.0033973732
175	0xbaa9edeb	-0.0012964582
176	0xbd3fc2c2	-0.046816595
177	0xbc89d09f	-0.016823111
178	0x3caf19c8	0.021374598
179	0xbc5b05d4	-0.013368089
180	0x3d1e9673	0.0387177
181	0x3d22e53d	0.0397694
182	0x3d564b8c	0.05231814
183	0x3d536990	0.051614344
184	0xbcddc2f0	-0.027070493
185	0xbb72ce1b	-0.0037049118
186	0x3b50efcc	0.0031881211
187	0x3cbe6366	0.023240756
188	0xbbdd070a	-0.006745224
189	0xbbee9985	-0.0072814845
190	0xbb5dab1e	-0.0033823918
191	0xbd94826c	-0.072514385
192	0x3a976e55	0.0011553267
193	0x3cd15d49	0.025557177
194	0x3aca57da	0.0015437559
195	0xbd701d22	-0.058621533
196	0xbd126cf5	-0.03574844
197	0xbd290dab	-0.0412728
198	0xbd814301	-0.06311608
199	0xbd473234	-0.04863186
200	0x3d283c7b	0.041073304
201	0xbc62a77d	-0.013833878
202	0x3d278a8e	0.04090362
203	0x3d1d004f	0.038330372
204	0xbd0037b7	-0.031303134
205	0x3d1ec44c	0.038761422
206	0xbc233c61	-0.009963126
207	0x3d143e58	0.036192268
208	0x3cdf6677	0.027270539
209	0xbc011f17	-0.007880948
210	0x3d29af4d	0.041426945
211	0x3d286cf5	0.041119535
212	0x3cfc68b7	0.03081165
213	0x3c8cee8b	0.01720359
214	0xbd74f244	-0.059801355
215	0xbb92d5af	-0.0044810395
216	0x3cd90e18	0.026495978
217	0x3df87f20	0.12133622
218	0x3e11a172	0.14221743
219	0x3e16c4ff	0.14723586
220	0x3e2a657f	0.1664028
221	0x3d962529	0.073313065
222	0x3da16221	0.07880045
223	0x3cffe043	0.031234866
224	0x3da416bf	0.08012151
225	0xbd87a57b	-0.0662336
226	0xbb0662d8	-0.0020505693
227	0xbbf94180	-0.007606685
228	0xbd408232	-0.046999164
229	0xbd78ace1	-0.060711745
230	0x3d30ea43	0.04319216
231	0xbd039a1f	-0.032129403
232	0xbbf8da59	-0.0075943884
233	0x3d4253ee	0.047443323
234	0x3c5bd8d7	0.013418398
235	0x3d5a4b2a	0.05329434
236	0x3d0efc7d	0.03490876
237	0xbcf8636b	-0.030320844
238	0xbd45c43a	-0.04828284
239	0x3d07cef4	0.03315635
240	0xbd59527a	-0.05305717
241	0x3a81d67f	0.0009905844
242	0x3ccd8221	0.025086464
243	0xbd5e77fe	-0.054313652
244	0x3ca2628b	0.01982238
245	0xbd62ae48	-0.05534199
246	0xbd30ce06	-0.04316523
247	0x3b9b2289	0.0047343415
248	0xbc494e00	-0.012286663
249	0x3bddc6b9	0.0067680744
250	0x3cb25e59	0.021773504
251	0x3c4afc8a	0.012389312
252	0x3d255538	0.040364474
253	0xbd1e8659	-0.038702343
254	0xbc668473	-0.014069664
255	0x3cc86c51	0.024465712

conv2.bias f4 [32]
0	0xbd8fa2d3	-0.07013478
1	0xbd887ac1	-0.066640384
2	0xbd294c74	-0.041332677
3	0x3ce7e41f	0.028307019
4	0xbc22819d	-0.0099185975
5	0x3c88fed4	0.016723074
6	0xbd801d42	-0.062555805
7	0xbd5321b7	-0.051545825
8	0x3d1832a5	0.037157673
9	0xbd850ee1	-0.064969786
10	0xbd1257d6	-0.035728298
11	0x3cec744c	0.028864048
12	0x3be055ae	0.0068461513
13	0x3c1b8abd	0.009493527
14	0xbc838d3e	-0.01605856
15	0x3a67a089	0.0008835872
16	0xbc0a3439	-0.008435302
17	0xbd87b8f8	-0.06627077
18	0xbbabf73f	-0.00524798
19	0x3bf4dc69	0.007472564
20	0xbd8be6d0	-0.06831133
21	0x3cf926dc	0.030414037
22	0xbd50334b	-0.050830167
23	0xbcdcd404	-0.026956566
24	0xbb393fa6	-0.0028266697
25	0x3d65638d	0.056003142
26	0x3d03bc57	0.032162037
27	0xbd052ae1	-0.032511596
28	0xbd20a125	-0.03921618
29	0xbc0008c9	-0.007814595
30	0xbd13f790	-0.036124766
31	0xbd393e8e	-0.045225672

conv3.weight f4 [32, 32, 3, 3]
0	0xbd87d602	-0.066326156
1	0xbca2b9d3	-0.019863999
2	0xbd9f00af	-0.07763802
3	0x3c0a8a2f	0.008455797
4	0xbb1bedc9	-0.0023792854
5	0xbd60acac	-0.054852173
6	0xbd8acdd9	-0.067775436
7	0xbd84e677	-0.0648927
8	0x3c0556a4	0.0081383325
9	0x3d222457	0.039585438
10	0x3ce4c787	0.027927173
11	0xbd9399d0	-0.07207072
12	0xbd8f01ea	-0.06982787
13	0x3b519860	0.0031981692
14	0xbc98bf68	-0.018645957
15	0x3d17039c	0.036868677
16	0x3cc4ffa4	0.02404768
17	0x3d0605c8	0.032720357
18	0x3bdd6cae	0.0067573404
19	0x3d4d0954	0.050057724
20	0xbc66aa52	-0.014078693
21	0xbcc183b0	-0.023622364
22	0xbc506bea	-0.012721041
23	0xbd69016d	-0.056886125
24	0xbcefc067	-0.02926655
25	0xbd7b726f	-0.06138843
26	0xbb134532	-0.0022471664
27	0x3cab3c8b	0.020902893
28	0xbad8a55a	-0.0016528771
29	0x3d1d376b	0.03838293
30	0xbd8557d0	-0.065108895
31	0xbdadf860	-0.084946394
32	0xbc393656	-0.011304459
33	0xbd1e8eaf	-0.038710292
34	0xbd8cc108	-0.06872755
35	0x3cbd5f20	0.023116648
36	0xbd20797f	-0.039178368
37	0xbcc7d8fc	-0.024395458
38	0x3d2b25c0	0.041784048
39	0x3d454e3e	0.04817032
40	0x3d330c40	0.043712854
41	0x3d444764	0.047919646
42	0xbcaa7033	-0.020805454
43	0x3d6cd659	0.057821605
44	0xbc100256	-0.008789619
45	0xbbe5593a	-0.006999162
46	0x3d1cc0bb	0.03826974
47	0x3cad4584	0.021151312
48	0xbd2af729	-0.041739617
49	0xbd31df16	-0.043425642
50	0xbd6aa7f8	-0.057289094
51	0xbb70d38a	-0.003674718
52	0x3a7815a4	0.0009463674
53	0xbc933940	-0.017971635
54	0x3ce68490	0.028139383
55	0xbd300108	-0.042969733
56	0xbd57382d	-0.052543808
57	0xbd027cb3	-0.031857204
58	0x3d52035c	0.051272735
59	0x3d225da9	0.039640103
60	0xbd6026ce	-0.054724507
61	0xbb722d89	-0.003695341
62	0xbd05dd2a	-0.03268162
63	0x3d666fe5	0.056259055
64	0xbcd4f3aa	-0.025995094
65	0x3cef0535	0.029177288
66	0xbd2e353a	-0.04253123
67	0x3ce653b1	0.028116079
68	0xbd1056b1	-0.035238925
69	0x3d6f5cb2	0.05843801
70	0xbd2e7e20	-0.04260075
71	0xbd4cc613	-0.049993586
72	0xbd3e6e9a	-0.046492197
73	0x3c5afc63	0.013365838
74	0xbc4ea618	-0.012612842
75	0x3a7686fe	0.00094042707
76	0xbd915b41	-0.070974834
77	0xbdb3cec9	-0.087796755
78	0x3bee0d21	0.0072647487
79	0xbd64b9ac	-0.055841133
80	0xbd1a8997	-0.037728872
81	0xbd7e00d3	-0.062012505
82	0x3be7b5b5	0.0070712217
83	0x3ca54f1d	0.020179326
84	0xbbe31f6e	-0.006931237
85	0xbd93476a	-0.071913555
86	0xbb9ad9ec	-0.0047256853
87	0xbd38146c	-0.04494135
88	0xbd666b67	-0.05625477
89	0xbd596ee0	-0.053084254
90	0xbc874865	-0.016514013
91	0xbd4902b9	-0.049074862
92	0x3d321f0a	0.043486632
93	0x3d3c9fd8	0.046050876
94	0xbb2abbba	-0.0026051835
95	0x3caf6aa3	0.021413153
96	0xbcff267d	-0.031146282
97	0x3c4aad2b	0.012370388
98	0xbd425e4b	-0.047453206
99	0x3be3c37b	0.0069507933
100	0x3c95491c	0.018223338
101	0x3c2abacd	0.010420513
102	0xbcdd7401	-0.027032854
103	0xb9128dbf	-0.0001397645
104	0x3aec9503	0.001804978
105	0xbd07408f	-0.033020552
106	0xba24d723	-0.00062881614
107	0x3ce6a51a	0.028154898
108	0xbb965b98	-0.0045885555
109	0xbd5923b4	-0.053012565
110	0x3d2fdd94	0.042935923
111	0xbca02d05	-0.019552717
112	0xbc41a92c	-0.011820119
113	0xbc9132b8	-0.01772438
114	0xbc57dc5e	-0.013175098
115	0xbccf2895	-0.025287906
116	0x3d37ddcf	0.044889268
117	0x3cd119dd	0.025525028
118	0x3dc155ad	0.094401695
119	0xbd3961d7	-0.045259323
120	0xbc2f72ce	-0.010708524
121	0x3d3a88b0	0.04554051
122	0xbc96270f	-0.018329171
123	0x3d6417e1	0.055686835
124	0xbc07e3a4	-0.00829402
125	0x3c452c2f	0.01203446
126	0xbd134c2a	-0.035961308
127	0x3ca22110	0.019791156
128	0x3ca05ba9	0.019574957
129	0x3d1c4146	0.038148187
130	0x3d327abc	0.04357408
131	0x3b5df008	0.0033864994
132	0xbd2b618c	-0.041841075
133	0xbd0df9a8	-0.03466192
134	0x3cdf587a	0.027263869
135	0xbd0683d8	-0.03284058
136	0x3d182c38	0.037151545
137	0xbd23cd16	-0.039990507
138	0xbba54def	-0.005044691
139	0xbcdde47c	-0.027086489
140	0x3d0363db	0.03207765
141	0xbd974618	-0.07386416
142	0xbd851cdd	-0.06499646
143	0x3ca0b765	0.0196187
144	0x3ca437a5	0.020046065
145	0xbd67da4e	-0.056604676
146	0x3ce5020f	0.027955083
147	0xbd31996c	-0.043359205
148	0xbd53ed42	-0.05173994
149	0xbc960f58	-0.018317863
150	0xbcb5a5f3	-0.022173857
151	0xbca7bf47	-0.02047695
152	0x3d5b69ec	0.05356781
153	0xbc0bceaa	-0.008533159
154	0xbcddeb16	-0.027089637
155	0x3c2e44fe	0.010636566
156	0xbcaf5af5	-0.021405676
157	0x3cdcb3be	0.026941177
158	0xbd690a4e	-0.056894593
159	0x3c2fc166	0.010727262
160	0xbd4c00ab	-0.049805325
161	0xbd552b3b	-0.05204318
162	0x3d19a0c9	0.037506852
163	0xbd045a53	-0.032312702
164	0xbc81e97a	-0.0158584
165	0x3c25a6d0	0.010110572
166	0xbd0252ea	-0.031817354
167	0xbd485f5e	-0.048919074
168	0xbcd718b8	-0.026256904
169	0xbc153901	-0.009107829
170	0x3ce136c2	0.02749193
171	0x3d3462e3	0.04403962
172	0x3cad6c9e	0.021169957
173	0xbc8f2768	-0.017474845
174	0xbd2daa07	-0.04239848
175	0xbca65e14	-0.020308532
176	0xbd6e0052	-0.058105774
177	0x3c237332	0.009976195
178	0xbd2f3063	-0.042770755
179	0x3d24f8ce	0.04027634
180	0xbcd7c552	-0.026339207
181	0x3c69946e	0.01425658
182	0xbd2a9d2d	-0.0416538
183	0xbc873a5f	-0.016507326
184	0xbc22558e	-0.009908093
185	0x3a92ae6f	0.0011190901
186	0xbd2a2107	-0.041535404
187	0xbd2af8b6	-0.041741095
188	0x3d054654	0.032537773
189	0x3c98106f	0.018562524
190	0xbd3f41e0	-0.046693683
191	0x3d99dbb9	0.07512612
192	0x3ceb2a83	0.028706795
193	0xbd6fb103	-0.05851842
194	0x3cab103e	0.020881768
195	0xbd626ac5	-0.055277605
196	0x3c68631f	0.014183789
197	0x3c551180	0.013004661
198	0xbcc8b086	-0.024498235
199	0xbc5aa4ce	-0.013344957
200	0xbca99b19	-0.02070384
201	0x3cd97e26	0.02654941
202	0x3d0f3a80	0.0349679
203	0xbc4d23f7	-0.012520782
204	0xbd5ff45e	-0.054676406
205	0x3d6c28ce	0.057656102
206	0xbd62a17a	-0.055329777
207	0x3c649251	0.0139509
208	0xbcb1038b	-0.021608135
209	0xbd80c071	-0.06286705
210	0x3cae0839	0.021244155
211	0xbd471c26	-0.04861083
212	0xbd944436	-0.07239573
213	0xbda61a08	-0.08110434
214	0xbda6e2db	-0.08148738
215	0xbcb7cc97	-0.022436423
216	0xbc2474df	-0.01003763
217	0x3ca0e911	0.019642385
218	0xbd353377	-0.044238534
219	0x3cd037a0	0.025417149
220	0x3d0063f3	0.03134532
221	0xbcd186f8	-0.025577053
222	0x3d46d6d4	0.04854472
223	0x3d23a070	0.039947927
224	0x3d069788	0.032859355
225	0x3be09b77	0.0068544704
226	0x3db23cf5	0.08703033
227	0x3d9b7e02	0.075923935
228	0x3e6661ea	0.22498289
229	0x3e1c81e4	0.15283924
230	0x3e173501	0.14766313
231	0x3d5cab15	0.053874094
232	0x3da46430	0.08026922
233	0x3cb78615	0.022402802
234	0xbc90aebd	-0.017661447
235	0xbd08a7da	-0.0333632
236	0xbd5f5ee4	-0.054533854
237	0xbc169302	-0.009190323
238	0x3b0ef5b1	0.0021813924
239	0x3bb065cc	0.005383229
240	0x3c9cc472	0.019136641
241	0x3d2e38a0	0.04253447
242	0x3c38a3c8	0.011269517
243	0x3d40d690	0.047079623
244	0xbd7975a2	-0.0609032
245	0xbd7b6918	-0.061379522
246	0x3d5e4352	0.05426342
247	0xbce5ce2e	-0.028052416
248	0x3d2133c3	0.039356004
249	0x3ce2ffb3	0.027709818
250	0xbd0ff751	-0.03514797
251	0x3d234bcc	0.039867207
252	0xbcb9e164	-0.022690482
253	0x3cb16e62	0.02165908
254	0x3d908ba4	0.07057884
255	0xbd439e2d	-0.04775827

conv3.bias f4 [32]
0	0x3cab4489	0.020906704
1	0xbc7837c7	-0.015150017
2	0x3d893b79	0.06700797
3	0xbd2cd28b	-0.042192977
4	0x3c7e5f41	0.01552564
5	0x3cdb0e73	0.026740288
6	0xbce13abf	-0.027493833
7	0x3c5cb48d	0.013470781
8	0x3cf82824	0.030292578
9	0x3c5d2926	0.01349858
10	0x3c305f2d	0.010764879
11	0xbc43b260	-0.011944383
12	0x3d017c85	0.03161289
13	0x3d93f8a8	0.07225162
14	0x3d597939	0.053094123
15	0x3c713705	0.01472259
16	0xbd90c917	-0.07069605
17	0x3d307ce4	0.043087855
18	0xbd0cc0c1	-0.034363512
19	0xbcac7ba1	-0.021055045
20	0xbd2837ec	-0.041068956
21	0x3b91431f	0.0044330503
22	0x3c95b36a	0.018274028
23	0xbd0bfc00	-0.034175873
24	0x3c048ba1	0.008089931
25	0x3cad3bf0	0.021146744
26	0x3d4824c7	0.0488632
27	0xbd5c7874	-0.05382581
28	0x3cd86fbc	0.026420467
29	0x3d503f34	0.050841525
30	0xbd675a96	-0.056482874
31	0x3c904085	0.01760889

conv4.weight f4 [32, 32, 3, 3]
0	0x3dfe5655	0.1241881
1	0x3e35992a	0.17734209
2	0x3e18cacc	0.14921111
3	0x3de02cb7	0.10946029
4	0x3e1bae57	0.15203224
5	0x3da51476	0.08060543
6	0x3dc1b03c	0.09457442
7	0x3dfcca66	0.12343292
8	0x3da9ac8f	0.08284866
9	0x3c11c1fd	0.008896348
10	0xbd377451	-0.044788662
11	0xbd1f1c9d	-0.038845647
12	0xbcc93d54	-0.024565376
13	0xbc879f76	-0.01655553
14	0xbc65e9e7	-0.014032817
15	0xbd05d538	-0.032674044
16	0xbc8c85ab	-0.017153582
17	0x3ca07da8	0.019591168
18	0x3d3fc211	0.046815936
19	0x3d828030	0.06372106
20	0x3cc7fdb4	0.024412967
21	0x3c51794d	0.012785268
22	0x3cf80fa2	0.030280892
23	0x3af7932c	0.0018888465
24	0x3d54d54b	0.051961225
25	0xbc9dc06d	-0.019256795
26	0x3d804c13	0.0626451
27	0x3d46a304	0.048495308
28	0x3cfe9e66	0.03108139
29	0xbc65f11d	-0.014034537
30	0xbcb66415	-0.02226452
31	0xbcc3d27a	-0.023904074
32	0xbcc623c8	-0.024186984
33	0x3b5b64ce	0.0033476832
34	0x3d79c622	0.06097997
35	0xbcf30394	-0.029664792
36	0x3c3df2a7	0.011593497
37	0x3d9a6360	0.075384855
38	0x3d9b85c0	0.0759387
39	0x3dfe26e1	0.12409759
40	0x3e02cbf2	0.12773111
41	0x3e12931b	0.14313929
42	0x3d70079d	0.05860101
43	0x3e20bea4	0.15697724
44	0x3dc1fb04	0.094717056
45	0x3d8a3dc6	0.067500636
46	0x3df34a2a	0.1187938
47	0x3db1f303	0.08688929
48	0x3d73ee23	0.059553277
49	0x3df7a5f9	0.12092204
50	0x3d90da73	0.07072916
51	0x3d35167e	0.044210903
52	0xb9c25357	-0.00037064656
53	0x3d1dbe96	0.038511835
54	0xbd1a57e3	-0.03768147
55	0xbc983277	-0.018578751
56	0x3d634bc6	0.055492185
57	0xbc11e40a	-0.008904466
58	0x3d196de3	0.03745831
59	0x3d460e16	0.048353277
60	0x3caa7f5b	0.020812681
61	0xbd4b7ccc	-0.049679562
62	0x3c29c01e	0.010360746
63	0x3c56f4ef	0.01311992
64	0xbc92ce71	-0.017920705
65	0x3cfea973	0.031086659
66	0xbcff2fe4	-0.031150766
67	0xbd2e04f6	-0.0424852
68	0xbc97d10f	-0.018532304
69	0xbc129bae	-0.00894825
70	0xbd4afcf3	-0.049557637
71	0xbd4dd49a	-0.05025158
72	0xbb288322	-0.0025712927
73	0x3d691d50	0.05691272
74	0x3c87a35a	0.016557384
75	0x3dd363e8	0.1032179
76	0x3b912e26	0.00443055
77	0x3d3cdeef	0.046111044
78	0x3d0ca792	0.034339495
79	0x3d28c513	0.04120357
80	0xbbd5ec34	-0.0065284017
81	0xbca13041	-0.01967633
82	0x3d4cc29a	0.049990274
83	0x3c80d7ab	0.015727839
84	0x3cb44cd1	0.022009285
85	0xbccc32d8	-0.024926588
86	0x3cf0ccc9	0.029394524
87	0xbd1d0de2	-0.038343318
88	0xbd0e7189	-0.034776244
89	0xbc97f51a	-0.01854949
90	0x3d553758	0.052054733
91	0xbb6cb307	-0.003611745
92	0x3d1ec6dc	0.038763866
93	0x3d8bab87	0.068198256
94	0xbbf0deed	-0.0073507936
95	0xbce213ee	-0.027597394
96	0x3d705ce7	0.05868235
97	0x3d7f4261	0.062319163
98	0xbce7864e	-0.028262284
99	0xbd9ec230	-0.07751882
100	0xbc6dcf4c	-0.014514755
101	0xbd3242de	-0.0435208
102	0xbd9d1c13	-0.0767137
103	0xbde73fc0	-0.11291456
104	0xbc0c01c6	-0.008545345
105	0xbd827734	-0.063703924
106	0xbd12d473	-0.03584714
107	0xbd0270f1	-0.03184599
108	0x3d972389	0.07379825
109	0x3d854309	0.065069266
110	0x3dbe4c20	0.092918634
111	0x3d7704c9	0.060307298
112	0x3dbb1ebf	0.09136724
113	0x3e05c9dd	0.13065286
114	0x3bbd380e	0.0057745045
115	0x3defb195	0.11703793
116	0x3d6e0057	0.058105793
117	0x3dc823b3	0.09772434
118	0x3d5eec66	0.054424666
119	0x3d6b7d1a	0.057492353
120	0x3dd3d380	0.10343075
121	0x3db20af8	0.086934984
122	0x3de86044	0.11346486
123	0x3cd14078	0.025543436
124	0x3dc0eee0	0.09420562
125	0x3d45a8c1	0.04825664
126	0x3cf102c9	0.029420273
127	0x3d6f5064	0.058426276
128	0x3d75cec2	0.060011633
129	0xbb4ceb0c	-0.0031268029
130	0x3d55c5ba	0.05219052
131	0x3d8b2877	0.067948274
132	0x3c5d7353	0.013516265
133	0xbd22ebc6	-0.039775632
134	0x3cd350bd	0.025795335
135	0x3e0da117	0.13830982
136	0x3e35305f	0.17694233
137	0x3dfa9bfb	0.12236782
138	0x3e07ecaf	0.13273881
139	0x3e53367b	0.20626251
140	0x3c89e9f9	0.0168352
141	0xbca30f3b	-0.019904723
142	0x3d192763	0.037391078
143	0xbd76f9d7	-0.06029686
144	0x3e14bdb2	0.14525488
145	0x3d8248d6	0.063615486
146	0x3e0dc7d6	0.13845763
147	0xbdb634c8	-0.08896786
148	0xbdea6473	-0.114449404
149	0xbd22044c	-0.03955488
150	0x3dfd55d6	0.123698875
151	0x3d2c0a9e	0.042002313
152	0x3de63be2	0.112418905
153	0x3daa9773	0.08329668
154	0x3d114a96	0.03547152
155	0xbc7f4a8a	-0.015581736
156	0x3cdf0fbe	0.027229186
157	0x3da14266	0.078739926
158	0xbc19ff2e	-0.0093992185
159	0x3d6ef426	0.058338307
160	0x3cdadae9	0.026715713
161	0x3d90682a	0.07051118
162	0xbd50f6e0	-0.05101669
163	0xbcb7edf8	-0.02245234
164	0x3d49b9d1	0.049249474
165	0x3d005f3a	0.031340815
166	0xbd059b41	-0.032618765
167	0xbcfa91db	-0.030587127
168	0x3c133665	0.008985137
169	0x3cdc3ece	0.026885416
170	0x3d540b74	0.051768735
171	0x3d147a18	0.03624925
172	0x3cf5e999	0.030018615
173	0x3c1e8338	0.00967484
174	0x3cfd2a8f	0.030904083
175	0xbd2641f2	-0.040590234
176	0xbd33a640	-0.04385972
177	0x3d7b7c0d	0.0613976
178	0x3d84a53d	0.06476829
179	0x3d122f32	0.03568954
180	0xbb9ceaf9	-0.004788753
181	0x3c441a1b	0.011969115
182	0x3cc3a290	0.023881227
183	0xbd46727e	-0.048449032
184	0x3cda36f0	0.026637524
185	0xbd34153a	-0.043965556
186	0xbd036ee5	-0.03208818
187	0x3d0787cf	0.0330885
188	0xbc0d8067	-0.008636571
189	0xbc1c58e4	-0.009542678
190	0x3b5c2d1b	0.003359622
191	0xbd15d26d	-0.03657763
192	0x39a0746e	0.00030604325
193	0xbd8311d2	-0.06399883
194	0x3c869c28	0.016431883
195	0x3c2a871c	0.010408189
196	0xbc582e38	-0.013194613
197	0x3d309e5f	0.043119784
198	0x3d76f647	0.060293462
199	0x3e11af3f	0.14227007
200	0x3d02722d	0.031847168
201	0x3e5d8fb1	0.21636845
202	0x3e484745	0.19558437
203	0x3e4a01ab	0.19727199
204	0x3e0e173f	0.13876055
205	0x3e29270d	0.16518803
206	0x3de56bda	0.11202212
207	0x3cc7d88b	0.024395248
208	0xbcaa6d9a	-0.020804215
209	0x3d2d0029	0.04223648
210	0x3c5d0ed8	0.013492309
211	0x3cae17be	0.021251556
212	0xbaf205f3	-0.0018464908
213	0xbc6c7ee4	-0.01443455
214	0x3c1f32c9	0.009716698
215	0x3d454003	0.04815675
216	0x3d035541	0.032063726
217	0x3c20e91b	0.009821202
218	0x3c9c302b	0.019065937
219	0x3d5a177a	0.053245045
220	0xbc1c83fa	-0.00955295
221	0x3d46fe9d	0.048582662
222	0x3c01db03	0.007925752
223	0xbb8c86db	-0.004288537
224	0x3d889715	0.066694416
225	0x3cad3a20	0.02114588
226	0x3d44557f	0.047933098
227	0xbd03993a	-0.03212855
228	0x3c261c17	0.010138533
229	0x3c01b809	0.007917413
230	0xbccc1406	-0.024911892
231	0xbcbb38ea	-0.022854287
232	0xbd2fcb66	-0.042918585
233	0xbce82229	-0.028336601
234	0xbc4f6747	-0.012658901
235	0x3c9915b5	0.018687109
236	0x3d9a0a78	0.07521528
237	0x3dac0af7	0.08400529
238	0x3d95c357	0.07312649
239	0x3d5a228d	0.053255606
240	0x3ce566cf	0.028003125
241	0x3d840d32	0.06447829
242	0x3d938ce0	0.07204604
243	0x3c93f12d	0.018059338
244	0x3d01825e	0.03161847
245	0x3d9d9829	0.07695038
246	0xbd052753	-0.032508206
247	0xbd0df4c6	-0.034657262
248	0x3c984fca	0.018592734
249	0xbc2aaf04	-0.010417704
250	0x3d59543b	0.053058844
251	0x3cde4d1b	0.027136376
252	0x3d2963ac	0.04135482
253	0x3daa053d	0.083017804
254	0xbc6b6946	-0.014368361
255	0x3c896422	0.01677138

conv4.bias f4 [32]
0	0x3d4c9cb4	0.04995413
1	0xbc1da627	-0.009622133
2	0x3d8b6d26	0.06807928
3	0xbd6dc6eb	-0.05805103
4	0x3d3fdd16	0.046841703
5	0xbb99d2ed	-0.0046943338
6	0xbc926581	-0.017870666
7	0xbd6514ac	-0.055927917
8	0x3d82d82e	0.06388889
9	0xbb33ca83	-0.0027433939
10	0x3d2e44df	0.04254615
11	0x3db25f8e	0.08709632
12	0xbd2597f7	-0.040428128
13	0xbcddf78b	-0.027095577
14	0xbcd46df9	-0.025931345
15	0xbccbd98a	-0.024884004
16	0xbd259ecb	-0.04043464
17	0x3db763ea	0.08954604
18	0xbd77e8ef	-0.060524877
19	0x3d62e9de	0.055398814
20	0x3d9d3189	0.07675464
21	0xbd0cff67	-0.03442326
22	0xbd3f5ab2	-0.046717353
23	0x3ce3e459	0.027818846
24	0xbdfb5b72	-0.12273301
25	0x3d7978a2	0.06090606
26	0x3d8d323a	0.068943456
27	0xbd707124	-0.05870165
28	0xbcdcac0a	-0.026937503
29	0xbc33aadd	-0.01096603
30	0x3d9dc214	0.07703033
31	0xbcbb736a	-0.022882182

conv5.weight f4 [32, 32, 3, 3]
0	0x3ccf332d	0.025292957
1	0x3d04b592	0.03239972
2	0x3d901c84	0.07036689
3	0xbd36b322	-0.044604428
4	0x3d1288ce	0.035775
5	0x3cbf6fda	0.023368765
6	0xbda9cc6c	-0.082909435
7	0xbc0de2dc	-0.0086600445
8	0xbd76ba89	-0.060236488
9	0xbd1cba55	-0.038263638
10	0xbd250396	-0.040286623
11	0xbc2a1a9a	-0.010382319
12	0xbd901894	-0.07035938
13	0xbd7f74b3	-0.062367152
14	0xbd941d95	-0.07232205
15	0x3c50bcc1	0.012740315
16	0xbc04a65a	-0.008096302
17	0x3b845961	0.004038975
18	0xbcc37a07	-0.023861898
19	0xbc8aab0c	-0.016927265
20	0xbc40314e	-0.011730505
21	0xbcaf8a83	-0.021428352
22	0xbd1ccf2c	-0.038283512
23	0xbcdb4abe	-0.026769038
24	0xb9a4c5e3	-0.00031427955
25	0x3cf40f4a	0.029792447
26	0x3d11860e	0.035528235
27	0xbaaf8b81	-0.0013393016
28	0x3d0bfb4b	0.0341752
29	0x3c9513ca	0.018197913
30	0xbc48a55d	-0.012246457
31	0xbd5de6a0	-0.05417502
32	0x3c56f30f	0.013119473
33	0xbc8b04ab	-0.01697
34	0x3bb4a216	0.005512486
35	0xbcbd6cbf	-0.023123143
36	0x3d222fc3	0.03959633
37	0xbbb95091	-0.005655356
38	0xbc9dfefa	-0.019286621
39	0xbd6b5918	-0.057458013
40	0x3d65548d	0.055988837
41	0xbd07eff7	-0.033187833
42	0xbd86bdff	-0.06579208
43	0x3c463797	0.012098215
44	0xbb817d5c	-0.0039517116
45	0xbc129fba	-0.008949215
46	0xbcd1982f	-0.025585262
47	0xbcb145d0	-0.021639735
48	0x3d4814cf	0.04884797
49	0xbc235992	-0.009970086
50	0xbd3238c2	-0.04351116
51	0x3d09627f	0.0335412
52	0xbca3f33c	-0.020013444
53	0xbcdd51b2	-0.027016494
54	0x3d55a455	0.052158672
55	0x3ca8d1e5	0.020607898
56	0xbd514e65	-0.051100153
57	0x3c8a891e	0.016911086
58	0x3bc53dbb	0.0060193217
59	0xbcfcb21f	-0.030846654
60	0x3d0b88f1	0.034066144
61	0xbd540825	-0.05176558
62	0xbd345f13	-0.044035982
63	0xbcecaf99	-0.028892325
64	0xbcdf2d2b	-0.027243217
65	0x3c3342e0	0.010941237
66	0x3cf0b3d9	0.029382633
67	0x3a891d7d	0.0010461059
68	0x3ce62204	0.028092392
69	0xbd52119d	-0.05128633
70	0x3bb1f83f	0.0054312046
71	0xbbe385af	-0.0069434266
72	0x3dc13d4b	0.09435519
73	0x3d85a5bf	0.06525754
74	0x3f430e66	0.76193845
75	0x3d463b44	0.048396364
76	0x3d861a8f	0.065480344
77	0x3ed62530	0.41825247
78	0x3f05208b	0.5200278
79	0x3ec745ba	0.38920385
80	0x3f11b39a	0.56914675
81	0xbcb22710	-0.021747142
82	0x3b132c6b	0.0022456895
83	0xbc9dfb8c	-0.019284986
84	0x3d5c0fc9	0.05372599
85	0xbd64f1f6	-0.055894814
86	0x3d5e7adc	0.054316387
87	0x3d1e98f4	0.038720086
88	0x3bbbc4d3	0.0057302504
89	0x3d037607	0.03209498
90	0xbd1a69b5	-0.037698466
91	0xbc130e54	-0.008975584
92	0x3d8fa3ae	0.07013641
93	0xbc6e1331	-0.014530943
94	0x3be6356b	0.007025411
95	0x3addac78	0.0016912362
96	0xbd56f419	-0.052478883
97	0xbd309095	-0.043106634
98	0x3ca002fe	0.019532677
99	0x3c811b40	0.015760064
100	0xbcc5bde9	-0.024138408
101	0xbd129d10	-0.035794318
102	0x3c7c1a47	0.015387124
103	0xbcb825d0	-0.022478968
104	0x3d356f54	0.044295624
105	0x3beca6bf	0.007222026
106	0xbc2fc8a8	-0.0107289925
107	0x3d595306	0.053057693
108	0xbc81e894	-0.015857972
109	0x3c10b761	0.008832783
110	0x3c74938a	0.014927754
111	0x3cbdcd39	0.023169147
112	0xbd11dc18	-0.03561029
113	0xbd0d38c8	-0.03447798
114	0xbcc458b6	-0.023968082
115	0xbcf52ebb	-0.02992951
116	0x3d25f871	0.040520135
117	0x3bc93e63	0.0061414703
118	0x3d15dbeb	0.036586683
119	0x3ceed4b2	0.029154155
120	0x3c5b359d	0.013379482
121	0xbd03cda8	-0.03217855
122	0xbc7876ac	-0.015165012
123	0x3d0d62a7	0.03451791
124	0xbd151f15	-0.036406595
125	0x3c80d10f	0.015724687
126	0x3c77d66d	0.015126807
127	0x3ce4166e	0.027842727
128	0x3c344369	0.0110024
129	0x3d9be489	0.07611949
130	0x3cd7e164	0.026352592
131	0x3c918fb7	0.017768724
132	0xbb2f57e6	-0.0026755272
133	0xbd1def27	-0.03855815
134	0x3cefe256	0.02928273
135	0xbd8466f8	-0.06464952
136	0xbd7afc25	-0.06127562
137	0xbdda9bd5	-0.10674254
138	0xbdb094c4	-0.08622125
139	0x3c8006b3	0.015628194
140	0xbd6d8d4a	-0.057996072
141	0xbd182101	-0.03714085
142	0x3b67bb8c	0.003535959
143	0x3c6a40e9	0.014297702
144	0x3d691319	0.05690298
145	0x3cc2e51a	0.023790885
146	0x3c1cda97	0.0095736
147	0x3c95eeef	0.018302409
148	0xbd2823be	-0.04104971
149	0xbbb53a38	-0.005530622
150	0xbbc3bf11	-0.0059737046
151	0x3aa38842	0.0012476521
152	0xbcc0e9b1	-0.023548933
153	0xbd7fa624	-0.062414303
154	0x3d27ba5e	0.040949218
155	0x3d879ac7	0.06621318
156	0xbd412e88	-0.047163516
157	0xbc68634a	-0.014183829
158	0x3d09def3	0.033659887
159	0xbd106cbd	-0.03525995
160	0x3d5a7bba	0.05334065
161	0x3d432795	0.04764517
162	0x3cf067ff	0.029346464
163	0xbcb294d7	-0.021799488
164	0xbc6e2cab	-0.014537017
165	0x3cc827af	0.024432985
166	0xbaae94af	-0.0013319458
167	0x3cb3dd52	0.02195612
168	0x3cd9dfa8	0.026595905
169	0x3cfbd34f	0.030740408
170	0xbd07c61b	-0.033147912
171	0x3d366118	0.04452619
172	0xbb5245db	-0.0032085094
173	0x3d6d7f4d	0.05798273
174	0x3bc68fd1	0.0060596247
175	0xbd826cb9	-0.063683935
176	0xbd363a9a	-0.04448948
177	0xbd1f7d7d	-0.038938034
178	0x3d1be691	0.038061682
179	0x3cda123b	0.026620021
180	0xbdbad825	-0.091232575
181	0x3aaa6763	0.0013000782
182	0xbc49781c	-0.012296703
183	0xbd89d33a	-0.067297414
184	0x3b92ab43	0.0044759824
185	0x3cbd318a	0.023094911
186	0xbc70ab63	-0.014689299
187	0xbb702246	-0.0036641522
188	0xbd70ffbf	-0.05883765
189	0xbd55237a	-0.052035786
190	0xbd159ed4	-0.036528423
191	0x3d25837c	0.040408596
192	0xbd47152c	-0.048604175
193	0x3d4e4fa5	0.050368924
194	0xbb7d0aec	-0.0038611246
195	0x3cecbf4d	0.028899813
196	0x3c685d8f	0.014182462
197	0xbcc87ae3	-0.02447266
198	0x3d24660a	0.040136375
199	0xbc210575	-0.009827961
200	0x3ce99477	0.028513176
201	0xbb22cdfe	-0.002484202
202	0x3d19e771	0.037574235
203	0xbbe01e2d	-0.0068395347
204	0x3d2bc67a	0.04193733
205	0xbc0d4dcb	-0.008624504
206	0xbd2ffb84	-0.042964473
207	0xbc22ad28	-0.009928979
208	0xbd1230fc	-0.035691246
209	0xbc96639b	-0.018358042
210	0xbcd853de	-0.026407178
211	0xbdbf91c2	-0.09353973
212	0xbd7b2d8f	-0.061322745
213	0xbd71350d	-0.058888484
214	0x3bc47365	0.0059952014
215	0x3c433843	0.011915269
216	0x3d713f20	0.05889809
217	0x3d286b89	0.04111818
218	0x3db07db9	0.0861773
219	0x3d616039	0.055023406
220	0xbc73ffb9	-0.014892512
221	0x3b573f31	0.0032844061
222	0x3d872c2d	0.06600223
223	0x3bac672c	0.0052613225
224	0x3baf83f8	0.005356308
225	0x3c53eeed	0.012935382
226	0xbc002d35	-0.007823278
227	0xbdd4f193	-0.10397639
228	0x3c854fe5	0.016273448
229	0x3d69abcd	0.057048608
230	0x3d36f066	0.044662856
231	0x3c1bba15	0.009504815
232	0xbc7f4ff2	-0.015583025
233	0x3d33082c	0.043708965
234	0xbd92babf	-0.07164525
235	0xbb2bd2ca	-0.002621817
236	0xbda0e30c	-0.07855806
237	0xbcb40ed9	-0.021979736
238	0xbd6c2614	-0.0576535
239	0xbb937bac	-0.004500827
240	0xbcce0cd9	-0.02515261
241	0xbb669b67	-0.0035187842
242	0xbd2f7b38	-0.04284212
243	0xbd4fb2c8	-0.05070761
244	0xbcc0b1ae	-0.023522224
245	0xbd796374	-0.06088586
246	0x3b04e59e	0.0020278464
247	0x3cdf0568	0.027224258
248	0xbc2a8408	-0.010407455
249	0xbd14ad66	-0.036298178
250	0x3c41fa8c	0.01183952
251	0xbd1fe57c	-0.039037213
252	0x3cb8c723	0.022555893
253	0xbd0298e6	-0.031884097
254	0x3c8ff926	0.017574858
255	0xbd0bd45d	-0.034138072

conv5.bias f4 [32]
0	0xbd1be6c3	-0.03806187
1	0x3d83168f	0.06400787
2	0x3c3fa6bd	0.011697468
3	0x3c88e796	0.016711991
4	0xbc388b0e	-0.011263622
5	0x3d976b7e	0.073935494
6	0x3d3da786	0.04630234
7	0xbcd5583d	-0.026043052
8	0x3cc41b39	0.023938762
9	0x3d8cc9ce	0.06874429
10	0xbe5f1dde	-0.21788737
11	0x3d8746aa	0.06605275
12	0x3d5122a2	0.05105842
13	0x3dc1c28e	0.094609365
14	0xbaebfcb9	-0.0018004394
15	0xbd8f6df0	-0.07003391
16	0xbd92cd39	-0.07168049
17	0xbd3c1570	-0.045918882
18	0xbd265a88	-0.04061368
19	0x3d8eec82	0.06978704
20	0x3d9f438a	0.07776554
21	0xbd020f26	-0.031752728
22	0x3d61229b	0.054964643
23	0x3d8cbe73	0.06872263
24	0x3ba7e27b	0.005123434
25	0xbb3c7216	-0.0028754524
26	0x3cdeaf21	0.027183117
27	0x3c86072c	0.016360842
28	0xbd5715ff	-0.05251121
29	0xbc9e2d7b	-0.019308796
30	0x3c6d61fa	0.014488691
31	0x3d62754e	0.05528765

conv6.weight f4 [1, 32, 3, 3]
0	0x3e3ea0cd	0.18616028
1	0x3d63f65c	0.05565487
2	0x3dc16804	0.094436675
3	0x3d058fcc	0.03260784
4	0x3ce5065c	0.027957134
5	0xbcb5e654	-0.022204556
6	0x3d291d41	0.041287664
7	0xbc6f0b33	-0.014590072
8	0x3d30688d	0.043068457
9	0x3d88936f	0.06668746
10	0x3d7e0d13	0.062024187
11	0x3d41f0fd	0.047348965
12	0x3d656a89	0.056009803
13	0x3d45cd81	0.048291687
14	0xbd1d0f9d	-0.038344968
15	0x3d63d650	0.055624306
16	0x3c87bec3	0.016570454
17	0x3d0d23d5	0.034458
18	0x3e02f347	0.12788115
19	0x3eb923dc	0.3616017
20	0xbba12b7d	-0.0049185143
21	0x3df5a9f9	0.1199531
22	0x3ee81439	0.4532793
23	0x3de80e3e	0.113308415
24	0x3d15716f	0.03648513
25	0x3eb86e1b	0.36021504
26	0x3c114131	0.0088656405
27	0x3c53d428	0.012929
28	0x3d5bc82b	0.053657692
29	0xbd7f9d40	-0.062405825
30	0x3dbdd0cf	0.09268343
31	0x3e23c724	0.15993935
32	0x3e2b0c69	0.16703953
33	0xbe35836c	-0.17725915
34	0xbd90cc40	-0.070702076
35	0xbdc476e8	-0.09592992
36	0x3d33aeb0	0.043867767
37	0xbd083a0f	-0.033258494
38	0x3c5d6051	0.013511733
39	0xbd2517d7	-0.04030594
40	0x3bb5a450	0.005543269
41	0xbc112882	-0.0088597555
42	0xbc82cb04	-0.015965946
43	0xbd310ba5	-0.043223996
44	0xbb07ac49	-0.0020702055
45	0xbb45637d	-0.0030119114
46	0x3d5e8fca	0.054336347
47	0x3d425fa0	0.047454476
48	0x3d67c688	0.05658582
49	0x3cc97c47	0.024595393
50	0x3d7d3366	0.061816595
51	0xbc91c1bd	-0.017792577
52	0x3db2ef30	0.08737028
53	0x3c871c6a	0.016493041
54	0xbd63e872	-0.0556416
55	0xbbc88933	-0.006119871
56	0xbc0b0aaa	-0.008486429
57	0xbd1ffbcd	-0.039058495
58	0x3d43bb39	0.04778597
59	0x3d61dd22	0.05514253
60	0x3d638636	0.055547915
61	0x3ca33a23	0.019925183
62	0x3d3d1e79	0.04617164
63	0x3ccf3358	0.025293037
64	0x3d7f99f2	0.062402673
65	0xbce79539	-0.028269397
66	0xbd10683e	-0.035255663
67	0xbd1aad43	-0.03776289
68	0x3d25c90b	0.040474933
69	0x3d64f2e1	0.05589569
70	0xbd173503	-0.03691579
71	0xbc6a039b	-0.014283086
72	0x3cddd64c	0.027079724
73	0x3d3c9139	0.046036933
74	0xbd31ca42	-0.04340578
75	0xbd4969f5	-0.049173314
76	0x3d7c0852	0.061531372
77	0xbd7c9b0f	-0.061671313
78	0x3d0c9eff	0.034331318
79	0xba989fff	-0.0011644362
80	0x3d1226d1	0.03568155
81	0x3d47793f	0.048699614
82	0x3d670a7b	0.05640648
83	0xbd09cfb6	-0.033645354
84	0xbd0f0118	-0.034913152
85	0x3d2d9690	0.042379916
86	0xbb21aa92	-0.0024668318
87	0x3d6af646	0.05736377
88	0x3cb46d42	0.022024754
89	0xbd111e60	-0.03542936
90	0xbdc6defe	-0.09710501
91	0xbe0a5285	-0.13508041
92	0xbd83beaa	-0.06432851
93	0xbe240f92	-0.16021565
94	0xbdcea5e4	-0.10090235
95	0xbdabba22	-0.083851114
96	0xbe32d1d5	-0.17462857
97	0xbe38c496	-0.18043742
98	0xbe0cb8b5	-0.13742335
99	0x3cf7f469	0.030267911
100	0xbd99233f	-0.07477426
101	0xbc1dc6d3	-0.009629923
102	0xbcf86a94	-0.030324258
103	0xbe061600	-0.1309433
104	0xbda4cfa2	-0.08047415
105	0xbd28b202	-0.041185386
106	0xbdad57ad	-0.084639885
107	0x3b53b81b	0.003230578
108	0x3c4e4775	0.012590279
109	0x3c00a370	0.007851467
110	0xbd5f83ab	-0.054568928
111	0x3d8cddcd	0.06878243
112	0x3dce7520	0.100809336
113	0x3c4029ef	0.011728748
114	0x3d310e33	0.043226432
115	0x3d988d7b	0.0744886
116	0x3cad6a94	0.021168984
117	0x3c7fc708	0.015611418
118	0x3c0d483e	0.008623181
119	0x3d17fefc	0.037108406
120	0x3d47a3cc	0.048740193
121	0x3dc8ecb6	0.09810774
122	0x3dac7c1c	0.084221095
123	0x3bab0b5d	0.0052198605
124	0x3de06a72	0.10957803
125	0x3da16ffc	0.078826874
126	0x3d72b147	0.059251096
127	0xbc58e8c4	-0.013239089
128	0x3d1b057a	0.03784702
129	0xbd595126	-0.053055905
130	0x3bece7b2	0.0072297687
131	0xbd15cdac	-0.036573097
132	0x3c40bce2	0.011763783
133	0x3c57ba7f	0.013167023
134	0xbc8faf0b	-0.017539522
135	0xbd282d6d	-0.041058946
136	0xbcad21b0	-0.021134228
137	0x3d3e598b	0.046472114
138	0xbcd59f27	-0.026076866
139	0x3cd4b783	0.025966411
140	0x3d15c7f7	0.036567654
141	0x3d7621db	0.06009088
142	0xbb17b71d	-0.0023149916
143	0xbabe1d97	-0.0014504668
144	0xbc05a6ea	-0.008157471
145	0x3b5fa538	0.0034125578
146	0xbbb414b4	-0.005495632
147	0xbc463f3f	-0.01210004
148	0x3d2cbaf9	0.0421705
149	0xbcc164f3	-0.023607707
150	0x3d18a8b0	0.037270248
151	0xbc5c76f2	-0.013456093
152	0x3d7ae226	0.06125083
153	0xbd690067	-0.05688515
154	0x3d857b99	0.06517715
155	0xbd45b34a	-0.048266686
156	0x3c4e57ea	0.0125942025
157	0xbc918211	-0.017762216
158	0x3d4838d1	0.04888231
159	0x3d5dc956	0.054147087
160	0xbab2e088	-0.0013647238
161	0xbcfb3ced	-0.0306687
162	0xbd2a7f66	-0.041625403
163	0x3ba9b4d4	0.005179027
164	0x3c4cfdab	0.012511651
165	0x3ce3adc4	0.027792819
166	0x3bbad643	0.0057018115
167	0x3ca7fba1	0.020505728
168	0xbd06bc6e	-0.032894544
169	0x3c11673f	0.008874713
170	0x3cf25003	0.029579168
171	0x3c13b87f	0.009016155
172	0x3c6e60d6	0.014549455
173	0x3d102a95	0.03519686
174	0x3db06f10	0.086149335
175	0x3de0af31	0.10970915
176	0xbb0f9767	-0.0021910311
177	0xbbd242f2	-0.006416672
178	0x3d057a67	0.032587435
179	0x3d435966	0.04769268
180	0x3c5927b1	0.013254092
181	0x3d56a07c	0.052399144
182	0xbc82cab3	-0.015965795
183	0x3bc5b9a0	0.006034091
184	0x3da72df3	0.08163061
185	0x3d96c531	0.0736183
186	0x3c4d9e0d	0.012549889
187	0x3d85f211	0.06540311
188	0xbb46ad35	-0.0030315642
189	0xbd0c273d	-0.034217108
190	0xbd607b66	-0.054805182
191	0xbc3e704f	-0.011623456
192	0x3d490c99	0.04908428
193	0x3acbc9c1	0.0015547798
194	0xbc553e1c	-0.013015296
195	0xbc966e0b	-0.01836302
196	0xbd3822c4	-0.04495503
197	0x3c0a78f9	0.008451694
198	0x3b55082a	0.0032506087
199	0xbd695192	-0.056962557
200	0x3d1be0f7	0.03805634
201	0x3d9bdd60	0.07610583
202	0x3b3f4738	0.0029186737
203	0x3d4644d3	0.04840548
204	0xbd3f7980	-0.04674673
205	0x3d5a7558	0.053334564
206	0xbcdddf68	-0.027084067
207	0x3dc46d18	0.095911205
208	0x3b28f428	0.0025780294
209	0xbd0d4e28	-0.034498364
210	0x3ca6cc1c	0.020360999
211	0x3d45c4fc	0.048283562
212	0x3d2a0b89	0.041514907
213	0x3db6f64d	0.08933697
214	0x3d77408d	0.060364295
215	0xbc24ce92	-0.010059016
216	0xbd022308	-0.03177169
217	0xbb8a3eac	-0.004218897
218	0xbd35a794	-0.044349268
219	0x3d3bcf2c	0.04585187
220	0x3d9efb19	0.07762737
221	0x3d936655	0.07197253
222	0xbdb822c7	-0.08991008
223	0xbcc90e8f	-0.024543075
224	0x3cf95e92	0.030440602
225	0x3cb35b3b	0.021894088
226	0xbd03087b	-0.03199051
227	0xbceac4ed	-0.028658355
228	0xbc15fc88	-0.009154446
229	0xbc1c03c6	-0.009522384
230	0x3d11c994	0.03559263
231	0xbd56f384	-0.05247833
232	0x3d75a8ba	0.059975363
233	0x3c629836	0.013830235
234	0x3d1fad83	0.038983833
235	0x3d7e9002	0.062149055
236	0x3c8759e9	0.016522365
237	0x3d01ef68	0.031722456
238	0x3d0fd9ac	0.035119697
239	0xbd72513c	-0.059159502
240	0x3d0def3d	0.034651984
241	0x3d9eeb54	0.07759729
242	0xbd3ef636	-0.046621524
243	0x3d29d6cd	0.041464616
244	0xbc553dcf	-0.013015225
245	0xbc0bd05b	-0.0085335625
246	0x3e454883	0.19265942
247	0x3e16133b	0.14655773
248	0x3e03b71d	0.12862821
249	0xbd41578c	-0.04720263
250	0xbd45e152	-0.048310585
251	0xbaa0556c	-0.0012232489
252	0xbc4658c4	-0.012106124
253	0xbd15404f	-0.036438283
254	0x3c7fa30a	0.015602836
255	0x3ce3db3a	0.027814496
