weights/best_model_carnm.pth (torch, 614503 bytes, 31 tensors)

entry.conv.weight f4 [64, 1, 3, 3]
00000000: 6d4b 39be 920e 0c3d cbfa 79be d9fa 5bbd
00000010: 9ecb 3c3e 652a 6dbd ffea 623c f75c 8abe
00000020: 2746 b23d bec3 2e3c c6c4 d73d a817 e73d
00000030: 3e68 88be f81e e9bd 0a73 a3be 6e02 62be
00000040: 4602 e53d 3ff0 503d 792f 1d3d e5a4 343e
00000050: c7bb 71be 19ec 5dbe e364 233d 48d9 a43e
00000060: 56ab f63d 102e 8b3e e0ed 213e 500d 8b3e
00000070: 58bc 233e 8f44 ca3e a916 1fbe 0ed8 d63c
00000080: e2be c43e b3e1 51bd 9a02 063e cec6 913e
00000090: 1a06 7b3e c935 973e 10cb 9b3e f55d 3f3d
000000a0: 4af5 71be 4255 93be d270 803e 294f 2abd
000000b0: 1b3c 87bc 6c8d ab3e a149 af3e bcaa 553c
000000c0: c14f 9f3e 7736 043e c81d 1cbe 661c d73e
000000d0: 5d0d 8d3e 53c0 31bb 40cb aa3d 5e88 123e
000000e0: 5b3e 08be 89a7 80be da89 5b3e c47d 7a3e
000000f0: 63d6 a3be d8b2 f2bb b131 413c 83ba 7cbd
00000100: e9ff 8b3e 7e10 a93c 4d50 84be 910a df3d
00000110: c6be 9c3c 62a2 e8bd 133a c03c aad6 123e
00000120: aea3 e5bd 43d7 963e b0ad a83d 73a8 a33d
00000130: dfa8 8abc 754c af3e 49b3 27be 6ba7 8ebd
00000140: 94a6 aa3e cc0e b1be ebb0 21be f934 bfba
00000150: 41d0 e33d 441b 953e 4a7e 073e a56a 803e
00000160: d916 4fbe fb63 8a3c c902 94bd a318 ae3e
00000170: ae91 24bd 9be8 943d 0997 f6bd 4e1d ae3e
00000180: 59f1 d1bd 0dd1 72be 68c9 95be 5f3f 533e
00000190: 3933 573e dca8 693e 4fa2 e7bd ee27 7f3e
000001a0: 27ad 82be d42c 41be 427e 3f3e a7b1 1fbe
000001b0: fa2c 343b 91a0 d73d 7919 9a3e 5718 5abe
000001c0: 5400 3f3e 80a8 a23e 2f11 9d3e 7815 ac3e
000001d0: 2477 e93d 8253 28be 440f 193e 3b6c a43e
000001e0: 61d6 793e 45e2 503e 34d7 b4bc 6f82 343e
000001f0: 6efa 7a3e 71b4 74be b339 bd3d c260 eebd
00000200: 55e3 123e 97ca 11be 3236 55be 2df5 7ebe
00000210: 988c 7ebd e816 633e 92b2 66be 58a2 6c3e
00000220: 670d 93bd 874f 8abe 4d47 373e e0d4 843c
00000230: ce23 1dbe bc13 743e 2cf7 cebd 2dea c33d
00000240: 5257 443e b395 193e 9de4 913d 3b0c f8bd
00000250: 4657 8abd 450e aabd 14d1 813e 6f52 4b3e
00000260: 998f 04be d3d0 953a 4845 cf3e b545 a03e
00000270: 3e06 db3e 74ad 8d3e 82cd 65bd ae1a 843e
00000280: bb2f cb3e ca07 4d3e ded4 f4bd ee32 87bd
00000290: c9bc 563e c748 8cbe 1a20 573e 406a 82be
000002a0: a63c 74be 5aea ce3c 3354 2bbe 2cff c23d
000002b0: cf7d 8a3e 4c67 843d 4f29 51be ff72 31bd
000002c0: 3271 8e3e af80 7bbe 08ef 3c3e 930e a4be
000002d0: 1759 13be f631 2b3c d8dc 6a3d cbe4 843e
000002e0: 1992 1dbd 4857 1d3d 3006 2d3e f4bb 74be
000002f0: 80f9 323e 870f 2dbe 261f 913d bd01 413e
00000300: 1b4d bebd ca07 653e 36f9 4a3e 1a0d 383d
00000310: ba63 6d3e 6125 8b3e affb 6c3c fea9 b5be
00000320: 4ad3 b53d 9099 6d3e 51e4 c4bd 24cb 6b3e
00000330: da54 423c 6f2e 0cbd cc7b b7bd 4586 7bbe
00000340: 0f70 edbc cea3 80be b560 5cbe 3815 43be
00000350: fa66 103e 67f2 8b3e 58f7 20be 163d e0bd
00000360: 0dd6 0cbe baa4 41be f21e f3bd 62f3 73be
00000370: 7e54 99be 5c13 383e d8db 33bd 80a0 823e
00000380: e94c 2cbe cc32 29be 76ae 653e 1427 4cbe
00000390: 0e14 8dbe 8a6f bebd dc3e 973e b6d1 113d
000003a0: b019 4c3e 713a 833d 1eee 0f3e 77ac 6b3a
000003b0: bdf9 16be bfbf 80be 3497 983e 5559 83bd
000003c0: 1d5a 5b3e 85a8 003e 493d 1cbe b49c 8a3e
000003d0: 8df0 6b3e fad9 7bbe cca1 10be 8f98 bc3d
000003e0: 5d08 253e b2a0 903d d7c4 91bd d834 9fbd
000003f0: c231 a93c 0fbc 833e 7b61 a03d 7984 b6bd
-0.18095179 0.034193583 -0.24412076 -0.053706024 0.18437049 -0.05790176 0.013849973 -0.27024052
0.08704787 0.010666786 0.105355784 0.11283809 -0.2664203 -0.1138286 -0.31923705 -0.2207124
0.11182074 0.051010367 0.03837535 0.17641027 -0.23606788 -0.21672095 0.039891135 0.32197022
0.120443985 0.2718358 0.15813398 0.27158594 0.15989816 0.3950543 -0.15535988 0.02622607
0.38426882 -0.051240634 0.1308693 0.28471988 0.24514046 0.29533222 0.30428362 0.046720464
-0.23628727 -0.28775984 0.25086075 -0.0415794 -0.016508153 0.33506334 0.34235862 0.0130411945
0.31115535 0.12911402 -0.15245736 0.42013854 0.27549258 -0.002712269 0.08339548 0.14309832
-0.13305037 -0.2512782 0.21439305 0.24462038 -0.31999502 -0.0074065737 0.0117916325 -0.06170131
0.2734368 0.020637747 -0.25842515 0.10890687 0.019133937 -0.11359097 0.023465192 0.143397
-0.1121286 0.29461107 0.08236253 0.079911135 -0.016926227 0.3423802 -0.16376986 -0.06965526
0.33330214 -0.34581602 -0.15790145 -0.0014587931 0.11123706 0.29122365 0.13231769 0.25081363
-0.2022356 0.016893378 -0.07227094 0.3400317 -0.040177993 0.072709285 -0.120405264 0.34006733
-0.102511115 -0.23712559 -0.29255223 0.20629643 0.21015634 0.22818321 -0.11310255 0.24917576
-0.2552273 -0.18864757 0.18700507 -0.15595113 0.0027492628 0.105286725 0.3009756 -0.21298347
0.18652469 0.3176918 0.30677173 0.3361013 0.113996774 -0.16438106 0.1494723 0.32113823
0.24398185 0.20398815 -0.022075273 0.17627881 0.24509594 -0.23896958 0.09239521 -0.11639549
0.14344533 -0.14237438 -0.20821455 -0.24898215 -0.0621458 0.22176707 -0.22529057 0.23108804
-0.07180291 -0.270138 0.17898293 0.016214788 -0.1534569 0.23835653 -0.10105738 0.0956615
0.19173935 0.14998512 0.07123683 -0.12111708 -0.06754927 -0.08303503 0.25354826 0.19855665
-0.12945403 0.0011430032 0.40482545 0.31303182 0.427782 0.27671397 -0.05610419 0.25801605
0.39684853 0.20022503 -0.11954664 -0.06601511 0.20970453 -0.27399275 0.2100834 -0.25471687
-0.2385126 0.025258232 -0.16731338 0.095213264 0.2704911 0.06465015 -0.20425914 -0.04332256
0.27820736 -0.24560808 0.18450558 -0.3204237 -0.14389454 0.010448923 0.05733952 0.25955805
-0.038469408 0.038413316 0.16896892 -0.23899823 0.17477989 -0.16900454 0.07086019 0.1884832
-0.092920505 0.22366253 0.19821629 0.04493437 0.23182574 0.27176955 0.014464303 -0.35481256
0.08878191 0.2320311 -0.096138604 0.23026711 0.0118610505 -0.03422397 -0.08959159 -0.24562939
-0.028984098 -0.25124973 -0.21521266 -0.19051063 0.14101782 0.27333376 -0.15719354 -0.10949151
-0.13753529 -0.18910494 -0.11871137 -0.23823312 -0.29947275 0.17976135 -0.04391083 0.25513077
-0.16826214 -0.16523284 0.22429833 -0.19936782 -0.27554363 -0.09298618 0.29540145 0.035600387
0.19931674 0.06407631 0.14055678 0.0008990238 -0.14743705 -0.2514629 0.2980286 -0.06413523
0.21421094 0.12564285 -0.15257753 0.2707268 0.23040982 -0.2459487 -0.1412422 0.09208786
0.16116472 0.070619 -0.07117622 -0.07773751 0.02065361 0.25729415 0.07831093 -0.08911986

entry.conv.bias f4 [64]
00000000: 6399 e93d 2c81 94bd e9e5 383d ba73 893e
00000010: 7c8f 9dbe 720f 96be 0354 a9be 3412 583c
00000020: d4bf 003e 4993 4e3e bf2e acbe 8d85 143e
00000030: ff2f 3fbe 3f7b 9b3e fb21 933d 532b 67be
00000040: e83e 8ebe 0bc9 8b3e e33c 8d3e 9926 46bd
00000050: 5a18 95be 3dc5 a6be f105 93be 6830 d8bd
00000060: f313 5bbe fc0e babc bdea 95bd 6d3a 05bd
00000070: 6f80 34bd 8b1e 0d3d c95f 4e3e 057e a2be
00000080: 514d b1be 2202 2b3e b6ed bebc d318 2cbc
00000090: 6f31 69be dcbd 833d 44ba 033e 25da 1b3e
000000a0: 9ca1 a93d 2782 90be 1b52 1e3e 3526 4d3c
000000b0: d54c 4c3e aeb1 f1bc bb4e 9e3e 0edc 283e
000000c0: 1970 c53d 3c74 80be 9a5a bcbc 619c 353e
000000d0: 3dba e33d e632 9a3e a845 813e 82d5 8a3e
000000e0: 696d 313c 8411 083d e37f 653e c88b 19bc
000000f0: 3fa3 a13d 297a 023e 9dbb 31be ae83 febd
0.11406209 -0.072512 0.045141134 0.26846105 -0.30773532 -0.2930866 -0.33071908 0.013187934
0.12573177 0.20173372 -0.33629414 0.1450407 -0.18670653 0.30367467 0.07184216 -0.2257512
-0.2778237 0.2730182 0.27585515 -0.048376653 -0.2912014 -0.32572356 -0.2871547 -0.10556108
-0.21394329 -0.022712223 -0.073201634 -0.032526422 -0.044067796 0.034452956 0.20153727 -0.3173677
-0.346293 0.16700032 -0.023306709 -0.010503965 -0.22772764 0.06432697 0.12864023 0.15219934
0.08282778 -0.28224298 0.15461008 0.012521316 0.19951184 -0.02950367 0.30919442 0.16490194
0.096405216 -0.2508868 -0.022992421 0.17735435 0.111195065 0.30116957 0.25248456 0.2711602
0.010829308 0.03321983 0.22412066 -0.009371705 0.07892465 0.12741913 -0.17356725 -0.1242746

entry.bn.weight f4 [64]
00000000: 394c 873f ba99 873f 3f98 7a3f b614 793f
00000010: 8ae4 793f a26f 783f f7f7 813f d0e5 783f
00000020: c137 793f 6300 7f3f 3296 813f d8ec 793f
00000030: 904a 7c3f 4273 7d3f 94c9 843f dd6d 813f
00000040: 7424 7a3f a95b 7f3f 0919 833f 1c80 7d3f
00000050: 9a30 753f 860f 663f 49ba 833f bd84 823f
00000060: e021 823f 3d72 7d3f c53c 733f 053b 7c3f
00000070: 5508 743f 7a83 883f d258 8b3f 0613 813f
00000080: 4bc5 7e3f e542 873f f1d7 8f3f 3d10 893f
00000090: c5db 7b3f fe4b 813f 9cf5 863f aa8f 723f
000000a0: 501b 853f 1878 833f b468 843f 4847 7a3f
000000b0: f969 773f 27e0 7d3f 4158 793f 01c9 873f
000000c0: 6c60 743f 5f4f 853f 4d30 843f 39ef 753f
000000d0: 6c41 853f 9826 873f 024c 803f 4365 883f
000000e0: 6241 833f 2dd1 7a3f 10a0 843f bd20 783f
000000f0: 2438 7d3f 3f81 833f 704d 873f 58ab 843f
1.0570136 1.0593789 0.9788856 0.9729723 0.9761435 0.9704534 1.0153798 0.97225666
0.973507 0.99609965 1.0123961 0.9762702 0.98551273 0.99003994 1.0374017 1.0111653
0.97711873 0.9974924 1.0242015 0.99023604 0.95777285 0.89867437 1.0291225 1.0196759
1.0166588 0.9900244 0.950146 0.98527557 0.95325214 1.0665123 1.0886481 1.008393
0.99519795 1.056729 1.1237775 1.070808 0.98382217 1.0101316 1.0543704 0.94750464
1.039896 1.0271025 1.0344453 0.97765017 0.96646076 0.99170154 0.9740029 1.0608217
0.9545963 1.0414847 1.032724 0.9606815 1.041059 1.0558653 1.0023196 1.0655903
1.0254328 0.97975427 1.0361347 0.96924955 0.9891379 1.0273818 1.0570507 1.036479

entry.bn.bias f4 [64]
00000000: 9774 113e b389 ce3c 5ae8 a7be a04c 8ebe
00000010: 67ee edbd 1cc9 afbe 8bd3 14bd d7d4 a7bd
00000020: 700d 9abe bf3c 48bd 30b5 783d 49e1 0dbe
00000030: cc0a 6fbe f69c 9fbd 69ed f23d 7e95 7bbd
00000040: f314 86bd b72b 1ebe db1b a43c 15c7 93bd
00000050: b84b 23be d098 d4be a4c3 ffbc be50 713d
00000060: aa2b 523d a157 81bd fc00 0bbe c186 4dbd
00000070: 9141 6bbe dd83 62bb 7450 323c b9bd 5cbd
00000080: ee6d e4bd c23d 54bd a01e 0f3e e98f 323d
00000090: 6947 32be dfe4 2ebd 2d23 f83d b978 07be
000000a0: b75a 20bb 00ae a13e 4b39 b33d b0fc 48be
000000b0: 17f7 8bbe 95cb 47bd 6123 17be 9b42 293e
000000c0: 9ea6 73be 5e33 133e 2c72 0fbd d53d 2fbe
000000d0: 0bce 3b3e db7b e23c 8ead 18bd f7b5 213d
000000e0: dbf5 7dbd b927 3dbd ea34 14bd d014 94bd
000000f0: 65be 3cbe 0397 263c 7c9e 4a3e 9bfa 783d
0.14204632 0.025212144 -0.32794458 -0.27792835 -0.11617737 -0.34333122 -0.036334556 -0.08194893
-0.30088377 -0.048886057 0.06071967 -0.1385547 -0.23343962 -0.0779361 0.11861689 -0.061421864
-0.065469645 -0.15446363 0.020032814 -0.07215706 -0.15946853 -0.41522837 -0.031221218 0.058914892
0.051311173 -0.06315542 -0.13574594 -0.05017734 -0.2297423 -0.003456346 0.010883439 -0.05389187
-0.1115378 -0.05181671 0.13976526 0.043594275 -0.17410053 -0.042698737 0.12116084 -0.13229646
-0.0024468133 0.31578064 0.08751162 -0.19627643 -0.27336952 -0.048778135 -0.1475959 0.16529314
-0.23794028 0.14375064 -0.035020992 -0.17113431 0.18340318 0.02764695 -0.03727489 0.039480176
-0.062002044 -0.04618046 -0.036183275 -0.07230532 -0.18432005 0.01016784 0.1978702 0.06078587

entry.bn.running_mean f4 [64]
00000000: af00 e93d f177 95bd 8876 3e3d da15 8a3e
00000010: 9b8f 9dbe 12fb 94be ecb5 a9be a26d 5a3c
00000020: 1b58 023e 74ee 4d3e 6d40 abbe 26be 153e
00000030: d495 3cbe e527 9c3e 19c0 903d 3c90 65be
00000040: a1d6 8cbe a182 8d3e 566b 8c3e 5dc6 3dbd
00000050: b9d8 94be ee11 a6be 9ffc 91be 705d dabd
00000060: 0630 5cbe 14ce b8bc d49e 96bd c641 f7bc
00000070: a662 32bd 00e1 0b3d 513e 4d3e 70e6 a2be
00000080: 309d b0be d504 293e 5c85 b3bc 8c60 42bc
00000090: c29b 67be 1615 853d 3ed8 023e 895d 1b3e
000000a0: cad1 a83d fa3a 90be a036 1d3e 730b 443c
000000b0: 294d 4e3e 96b1 efbc 88ab 9e3e f8c3 273e
000000c0: edb5 c73d f007 81be 6770 bfbc 78db 373e
000000d0: 968c e13d 6e2f 9a3e 313e 813e 5f23 8b3e
000000e0: 35b6 303c 495d 073d c311 653e 2ecc 1cbc
000000f0: 7cc1 a33d 1c19 023e 4c7c 33be 51b5 ffbd
0.113770835 -0.07298268 0.04649976 0.26969796 -0.30773625 -0.290978 -0.33146608 0.013331803
0.12728922 0.20110494 -0.3344759 0.14623317 -0.1841653 0.30499187 0.0706789 -0.22418302
-0.275075 0.27638724 0.2742564 -0.046331752 -0.29071596 -0.32435554 -0.28513047 -0.10662353
-0.21502694 -0.022559203 -0.07354513 -0.03018273 -0.04355111 0.034150124 0.20043303 -0.31816435
-0.34494925 0.1650575 -0.021914177 -0.011863839 -0.2261801 0.064981624 0.12777802 0.151724
0.08243139 -0.28169996 0.15352869 0.01196562 0.20146622 -0.029259484 0.30990243 0.1638335
0.097514965 -0.25201368 -0.023369027 0.17954814 0.11013143 0.3011431 0.2524276 0.27175424
0.010785629 0.033047948 0.22370057 -0.009570165 0.079958886 0.12704891 -0.17527884 -0.12485755

entry.bn.running_var f4 [64]
00000000: 9ebe 0237 8062 4337 b656 9037 c575 8a38
00000010: a3e3 7837 15de b838 3915 9a36 361d 7236
00000020: 215d bd37 883b a536 ba2b bc36 e7fc 1a37
00000030: c570 8938 6f73 f337 ad6d 4437 57be b836
00000040: 0050 0937 f31c 1c39 0302 8137 c960 b436
00000050: 04fb 8036 f89c 0738 fd88 2036 e7c4 b037
00000060: 58f1 a937 4ebd 8236 cb7d 5d36 95e7 ab36
00000070: dadb ee37 c616 c136 ef98 a736 0b61 b636
00000080: 55fc 1838 1a6d 3637 064b c036 d2c8 1937
00000090: 823b 3038 b92b 9036 833c 6937 3c9e e836
000000a0: 890b 5b37 0879 4637 6574 bf37 706c 8c38
000000b0: 0e13 8e38 8944 3337 d070 ef37 a276 5437
000000c0: 59b5 c937 4813 a437 e8e2 1437 06db 8537
000000d0: e083 6a37 65bb b636 969a d435 a98e 3337
000000e0: 8ebf e136 2e6e 4236 0153 6636 f706 7736
000000f0: a0e0 7e38 f733 3237 afdf 8837 30c5 ff36
7.792985e-06 1.164584e-05 1.7206516e-05 6.602289e-05 1.4834953e-05 8.81517e-05 4.5920283e-06 3.6077813e-06
2.2573922e-05 4.9243135e-06 5.607927e-06 9.237999e-06 6.553674e-05 2.902161e-05 1.1708046e-05 5.505786e-06
8.184463e-06 0.00014888104 1.5378935e-05 5.3756853e-06 3.8439193e-06 3.2332697e-05 2.3921596e-06 2.1072525e-05
2.0258754e-05 3.89634e-06 3.3004787e-06 5.123157e-06 2.8474187e-05 5.7544994e-06 4.9947917e-06 5.43532e-06
3.6474627e-05 1.08734475e-05 5.73078e-06 9.166268e-06 4.201709e-05 4.2966244e-06 1.3901971e-05 6.9325597e-06
1.3056103e-05 1.1829899e-05 2.2823175e-05 6.695918e-05 6.774637e-05 1.06851885e-05 2.8543553e-05 1.2663806e-05
2.4045514e-05 1.9559302e-05 8.874318e-06 1.5956826e-05 1.3978191e-05 5.4458383e-06 1.5840221e-06 1.0702447e-05
6.7278224e-06 2.8972386e-06 3.4320985e-06 3.6809922e-06 6.0767517e-05 1.0621726e-05 1.6316624e-05 7.622548e-06

residual_groups.0.0.conv.weight f4 [64, 64, 3, 3]
00000000: c1ed ac3d 8d35 873d a352 9c3d 6809 193d
00000010: 7400 b73c c602 483d 15c7 953d 1e39 563d
00000020: 2370 713d 5b72 963d 0f69 073d f34d cc3d
00000030: 3ad8 bb3d a4a6 953d e15c d83c ad82 a63d
00000040: 8b90 3a3d a188 df3c c08f 4b3d e358 fcbb
00000050: d0d7 403d 0e9f b5bc 1f07 6dbc 99d1 713b
00000060: 600e 083c 2026 b23c 2048 a33b d62e 4c3c
00000070: f30f 2c3d 3ddd dabc b174 c33c ddf2 673d
00000080: 223c 9f3d 58f4 373c 196c 393d 651b 843b
00000090: f978 8bbc 1fd2 90bc 1fcb b83c e583 92bc
000000a0: 9c98 83bc 2680 31bc b3a4 8e3c 36aa cd3c
000000b0: 75f2 43bb 2a1a 1b3d 091c 76bb 21ce c23c
000000c0: c995 383c 351f 96bc a09b 6e3c bfe5 d8bc
000000d0: 125c 20bc 46c6 8e3c 4539 9bbb e515 a9bc
000000e0: ec6d 2c3b 9084 bebc 6973 0c3d 01a5 60bd
000000f0: 39e1 373b b9fc e7bc 9d3f c43b 7b09 f1bc
00000100: 5a91 01bd 866a 83bb de82 113d ad51 c6bc
00000110: 4ee9 42bd 3edb c0bc c285 83bb eb77 853c
00000120: 14aa 96bc 98c1 dc3c 8a71 10bc 6dc0 133d
00000130: 4b2c 1bbb 651f 8c3d 7490 9d3b 6894 a2bc
00000140: cac2 8fbc ae62 153c 647f 86bc d8a1 a7bc
00000150: c178 453b 0729 533c c3d6 fb3c 0fca 443b
00000160: 9449 923c 5d80 29bc 3c53 7dbc 2591 053d
00000170: 6e80 f8bc 5560 2f3b 0db8 053d 2b2f 003c
00000180: ef82 763a ef4a 853c 544a 4d3c 3368 66b9
00000190: f790 cabc 0c42 46bd 534a 743c bef3 5ebc
000001a0: c7e0 d63c 6265 c8bc c5f7 413d a38a c83c
000001b0: a1dd 483d f71c 34bc 0aac 62bc 07c7 313c
000001c0: 29bb 533c 509b b7bb 9571 0ebc 7d58 383c
000001d0: e91f 3c3d 9e1a edbc 4e38 6abc cd10 fe3c
000001e0: be52 703c 79c9 6e3c ab96 003d bc38 aebc
000001f0: 6a23 103d a124 0a3d 0fce 3e3d 801d 393d
00000200: 1835 953d d288 3f3c 1e4e 973d 0c94 b93d
00000210: d3fe 213d 583f d63d d554 8c3d d61b aa3c
00000220: d8ca d8bb 5e8b cdbc 45a3 efbb a28d 783c
00000230: 23b0 0d3d 1188 0bbd aef2 1e3c 8011 05bd
00000240: a675 cf3b b3af 68ba a1c3 b6bc 1421 113d
00000250: 0221 bebc ea02 003d f87d 7b3c c03f 8cbc
00000260: b505 0f3d c050 83bc a696 483d 20a0 92ba
00000270: 3c12 033d 7ec9 453d 8657 7d3c bc90 933c
00000280: 82d2 823c 4480 47bc 7e00 633d 852c 3d3d
00000290: 687d bc3b 0908 303d 713f 883d d98a 683d
000002a0: 7591 9d3b d434 2d3d 7a2e 0cbb 1b5e 4f3b
000002b0: ced6 23bc 3211 96bc a9e4 0c3d 20ea bd3c
000002c0: 543d 98bd c1eb 653c 0df5 493d 7ee7 ebbc
000002d0: 2749 26bd 28e7 2a3d 4bf2 d53b 539d 233d
000002e0: a838 b73c 0916 debc 8db0 09bd c13c ee3c
000002f0: 658a 053d 92fd 86bc 3e4c 633d 4082 4d3c
00000300: 29d1 4b3b 4a13 513d ac05 253c 1272 ccbc
00000310: 59de f63c 3162 893c 079a 9bbd 5ae7 dabb
00000320: 23d4 973b 08ca 77bd a4ee 72bd 84b2 0b3c
00000330: 2bf8 d0bc 153b 703c d01c 35bd 1c0e 0c3d
00000340: c967 bb39 83d4 d53c 68c0 193d 8a76 793d
00000350: 6b96 ea3b df81 ae3c bd16 d33c f8dd 8a3d
00000360: eb31 ee3c f468 103d 5329 bb3c b860 343d
00000370: 6add 373d 84bc 4f3d 2a48 a83b fae7 913d
00000380: 6c3f 703d b0a9 adbb 955e 4fbd 9fa1 363c
00000390: c652 07bc 1e32 de3c 9ec1 903c a2cd cebb
000003a0: 687d 20bd da01 39bd e4ff ddbc b9ce 2d3d
000003b0: 8435 0d3d 4ffc 5b3c 1ea2 a2ba d179 9cbc
000003c0: 7198 d7bb a5f2 f8bc 7fc6 173c e368 103c
000003d0: 7508 ffbc ae46 363c 3132 09bc 4092 0c3d
000003e0: 9095 cd3c bbc0 00bb 3dd6 633c 56b5 993c
000003f0: 280d 6ebc f0a7 b3bc e86f 34bc d5d8 603a
0.084437855 0.06602011 0.07632949 0.037362486 0.022339083 0.04883077 0.073133625 0.052300565
0.058944833 0.0734603 0.033059176 0.09975805 0.09172101 0.07307175 0.026411476 0.08130393
0.045548003 0.02728683 0.049697638 -0.007701026 0.047080815 -0.02217057 -0.01446703 0.0036898612
0.0083042085 0.021746695 0.004982963 0.012462338 0.042007398 -0.026716823 0.023859354 0.056628097
0.07775141 0.01122769 0.045269106 0.004031586 -0.017025458 -0.017678319 0.022557793 -0.017885158
-0.01606398 -0.010833776 0.01741252 0.025105577 -0.0029899154 0.03786675 -0.0037553331 0.02377993
0.01126618 -0.018325428 0.014563471 -0.026476739 -0.009787576 0.017428529 -0.0047370517 -0.020640323
0.0026310636 -0.02325657 0.03428975 -0.05484486 0.0028057827 -0.02831875 0.0059890286 -0.029423466
-0.03163276 -0.0040105013 0.035525195 -0.024208868 -0.047585778 -0.023542043 -0.004013748 0.016292533
-0.018391646 0.026947781 -0.008816132 0.036072183 -0.0023677524 0.068419255 0.00480848 -0.019846156
-0.017548937 0.009117765 -0.016418166 -0.020462915 0.003013179 0.0128882 0.030742055 0.0030027663
0.01785735 -0.010345546 -0.015461739 0.032609124 -0.030334678 0.00267603 0.032646228 0.007823746
0.0009403666 0.016271083 0.012529928 -0.00021973327 -0.024727328 -0.04840283 0.014910298 -0.013607917
0.026230229 -0.024462406 0.047355432 0.02448017 0.049039487 -0.010993234 -0.013834963 0.0108506745
0.01292304 -0.0056032315 -0.008694072 0.011251566 0.04592887 -0.028943356 -0.014295651 0.03101387
0.014668165 0.014574402 0.03139369 -0.021267287 0.035190023 0.03372634 0.04658323 0.04519415
0.072855175 0.011690335 0.073879465 0.09061441 0.03954966 0.104613006 0.06852118 0.020765226
-0.0066159777 -0.02509087 -0.0073131644 0.015170487 0.034591805 -0.03406531 0.009701414 -0.032487392
0.0063311635 -0.0008876279 -0.02231008 0.035431936 -0.023209099 0.03125278 0.0153498575 -0.017120242
0.034917552 -0.016029716 0.048971795 -0.0011186637 0.03199981 0.04828786 0.015462762 0.01801335
0.015969519 -0.012176577 0.05542039 0.046185035 0.0057522543 0.042976413 0.066527255 0.05677304
0.0048085996 0.04228671 -0.0021390007 0.0031641785 -0.009999944 -0.018318746 0.034397755 0.023182929
-0.074335724 0.014033259 0.049305964 -0.028796908 -0.040597107 0.041724354 0.0065291277 0.039944958
0.022365883 -0.027110117 -0.033615638 0.029081704 0.032602686 -0.016478334 0.055492632 0.012543261
0.003110001 0.051043786 0.010072153 -0.024956737 0.03013532 0.016770454 -0.07597738 -0.0066804113
0.004633443 -0.060495406 -0.059309617 0.008526448 -0.02550896 0.014662524 -0.04421693 0.034193143
0.00035744745 0.02610231 0.03753701 0.060904063 0.0071590445 0.021302162 0.025767678 0.067806184
0.029076537 0.03525634 0.022846853 0.04403755 0.04488889 0.050716892 0.0051355558 0.07124324
0.058654234 -0.0052997693 -0.05062731 0.011146932 -0.008259481 0.027123507 0.017670449 -0.0063111344
-0.039182097 -0.04516778 -0.027099557 0.042433474 0.034474865 0.013426854 -0.0012407934 -0.019101055
-0.0065794517 -0.03038914 0.009263634 0.008814069 -0.031131962 0.01112525 -0.008373783 0.034319162
0.025095731 -0.0019646126 0.013906059 0.018763226 -0.014529504 -0.021930665 -0.011013009 0.00085772324

residual_groups.0.0.conv.bias f4 [64]
00000000: 7603 f4bc ee52 15bc ae64 c03b 5a72 b93c
00000010: 9f75 05bd 7188 ac3c 0ea0 18bd 8084 15bd
00000020: f165 f2bc bb47 9f3c c7d5 513c e9d3 dbbc
00000030: 579b 6a3c 1598 273d 7544 c33b dd44 c83c
00000040: 16f8 0a3d 8019 543c e16e ce3c 1901 9dba
00000050: fbc4 d83c cf68 0f3c e65a 0abd 1bcd 273d
00000060: 0b69 b43c a027 173b 6ef2 e83b 80e4 89bc
00000070: b6e2 02bd e5ac 25bd 2a55 9a3c d155 54bc
00000080: 3379 79bc d7bb 08bd cd83 02bb 788e 873a
00000090: 2bcb 2337 c43d 90bc 3d2e b5bc 58dc 2abd
000000a0: a070 ee3b 7ab2 e0bc d7e5 cfbc ad58 953c
000000b0: d12a e0bb 4e75 413c aaed 34bb f90c 273c
000000c0: 204d 2abd 3b04 e8bb 8520 033a 4f68 94bc
000000d0: d83b b13c c597 80bc 6c7c aa3c 74e2 abbc
000000e0: b590 0abc ca05 813c ae68 903c cfec 173d
000000f0: 808e e9ba 85a2 f03b d64e b4bc a92d 273d
-0.029786807 -0.00911401 0.005871377 0.022637535 -0.032582875 0.021061154 -0.037262015 -0.036503315
-0.029589625 0.019443383 0.012807316 -0.026834445 0.0143192625 0.04091652 0.0059590884 0.0244469
0.033928 0.012945533 0.025199356 -0.0011978477 0.026461115 0.008753016 -0.033778094 0.04096709
0.022022745 0.002306439 0.007108978 -0.01683259 -0.03195449 -0.04044809 0.018839438 -0.012959913
-0.01522665 -0.033382263 -0.0019914985 0.0010342142 9.762861e-06 -0.017607577 -0.022116775 -0.041714042
0.0072766095 -0.027428854 -0.02537815 0.01823076 -0.0068410416 0.011807753 -0.002760748 0.010195964
-0.04157746 -0.0070805824 0.0005002099 -0.018116144 0.021634981 -0.01569737 0.020811282 -0.020982005
-0.008457352 0.01574983 0.01762804 0.037091073 -0.0017818958 0.0073435926 -0.022010248 0.04081503

residual_groups.0.0.bn.weight f4 [64]
00000000: 8260 7f3f 9fb0 813f de35 7f3f 679e 7f3f
00000010: 53ea 833f a0bc 803f be06 7d3f be81 7f3f
00000020: 2543 7e3f 4261 803f 416f 783f 3b68 7e3f
00000030: 5b04 843f bbb1 7e3f f3a0 803f d61b 803f
00000040: 22c1 813f 0b9f 7f3f 638d 7d3f e8d1 803f
00000050: 0252 7f3f a67e 7e3f aebf 863f ddbc 7e3f
00000060: 1261 843f cb5c 793f e732 7e3f 8d86 803f
00000070: adab 803f b661 823f 3afe 843f f3bf 803f
00000080: e596 7e3f b348 7f3f c038 7b3f 0e25 813f
00000090: f7e2 803f 4b0a 803f fa5e 813f 63b2 7d3f
000000a0: 7851 7f3f 23fa 863f ee55 7b3f aea7 7e3f
000000b0: 4593 7e3f 91c4 7d3f a9dc 863f 639d 813f
000000c0: e514 823f 8eab 7a3f 4371 7a3f a401 7f3f
000000d0: 9537 803f b10d 7d3f 82f3 843f 6c14 803f
000000e0: 688a 7e3f 493f 803f 1fcd 7e3f 0d3a 803f
000000f0: fd34 803f 7bad 7e3f efb6 7e3f 14c0 813f
0.99756634 1.0132025 0.9969157 0.9985108 1.0305885 1.0057564 0.9883841 0.99807346
0.99321204 1.0029681 0.9704476 0.99377793 1.0313829 0.99489945 1.0049118 1.0008495
1.0137064 0.99852055 0.99043864 1.0064058 0.9973451 0.99412 1.0527246 0.9950693
1.0342124 0.97407216 0.9929642 1.0041062 1.0052391 1.0186069 1.0390084 1.0058578
0.99448997 0.99720305 0.9813347 1.0089433 1.0069264 1.0003141 1.010711 0.9910032
0.99733686 1.0545086 0.98177993 0.9947461 0.99443465 0.9912806 1.053609 1.0126156
1.0162627 0.9791802 0.97829074 0.9961188 1.0016962 0.98849016 1.0386813 1.0006232
0.9942994 1.0019313 0.9953174 1.0017716 1.0016171 0.9948346 0.99497885 1.0136743

residual_groups.0.0.bn.bias f4 [64]
00000000: 0a74 1fbe 612d 84bd 66a4 68bd fac7 23be
00000010: f1f0 f5bc b056 fabc 7c88 1cbd 528b 223c
00000020: 926b acb6 5367 25be c0c0 7cbd aba9 873b
00000030: f20f 8dbc 92a8 aa3c 165f f138 e818 e6bc
00000040: 0bab f53c bece efbd 8226 42be 2e5a 3dbe
00000050: 56e3 303d a803 c33c 6c19 3ebd f271 253d
00000060: 0318 a0bc c58b 19bd db26 6ebe b9ec b73c
00000070: 061b 83bd 2d28 573c cebb d6bc 407d 3dbe
00000080: d5c7 bf3c c4ec 823c 3209 16be a6cb 0ebd
00000090: 42f8 21bd 3a0f 83bd 1341 50bd e12f a9bd
000000a0: f651 eebd b9ef ab3d ef88 16be b386 a63c
000000b0: 86a5 81bc a192 1dbe 40d9 653d d280 a83d
000000c0: c565 893c 9d6f 2dbe 009d 0ebe 7bfb 983d
000000d0: eaa6 40bd faf2 cdbd 2999 d9bc 7b2b d2bd
000000e0: 3b20 373c 369f 923d 642d 483c 7383 3ebe
000000f0: f863 44bc f986 fcbc 2a4f b03c 6df3 1c3d
-0.15571609 -0.06453968 -0.056797408 -0.15994254 -0.030022116 -0.030558914 -0.0382161 0.009920912
-5.1385223e-06 -0.16152696 -0.06170726 0.004140099 -0.017219517 0.020832334 0.00011509487 -0.028088048
0.029988786 -0.11709355 -0.18960002 -0.18491432 0.043185554 0.023805454 -0.046410963 0.04039187
-0.0195427 -0.03748681 -0.2325701 0.022451745 -0.06401639 0.013132137 -0.0262126 -0.1850481
0.023410717 0.01598204 -0.14651945 -0.034862183 -0.039543398 -0.063993886 -0.05084331 -0.08261085
-0.116367266 0.08395333 -0.14700674 0.020327901 -0.015825998 -0.15387966 0.05611539 0.082276955
0.01677216 -0.16937108 -0.13927078 0.07469841 -0.04703418 -0.1005611 -0.02656229 -0.102621995
0.011177118 0.07159273 0.012217853 -0.18604831 -0.011986725 -0.030826079 0.021522123 0.038318086

residual_groups.0.0.bn.running_mean f4 [64]
00000000: 301f c33f 743f ee3f 4c73 c53f f103 423f
00000010: b5b2 89bf 8344 c4bf d90d 243f 9d39 243e
00000020: 0fa5 b4be 5b4e 453f 5d77 d7be f4fc d0be
00000030: 15d7 e8bf ca5d 16bf f731 22c0 5f7e 223f
00000040: e39b 37bf 81aa 493f efa2 303f 0ca4 2c3f
00000050: e5ea 17bf 4127 05bf c030 f43f efd3 31bf
00000060: d87b 9fbf 3fa3 953e 9660 913f ee03 4cbf
00000070: 9ed1 463f 8173 65be 8117 8ebf e6fc 573f
00000080: f2cd 37bf 243f 0ebf 48f5 a03f 151c 33bf
00000090: b1c6 c33f 0210 5e3f ec15 74bf 49eb 563f
000000a0: 462c 1040 c136 5fbf 5618 943f e58d a9be
000000b0: 111a 60bf 183d 8b3f f669 53bf 036a 0abf
000000c0: 81c5 fb3e acda 8e3f d543 713f d43e 23bf
000000d0: 3d95 5a3f 8a5c 2d3f aafa 63bf 00d4 353f
000000e0: c3d3 b9be 0cf0 01bf 1f69 f8be 4b46 723f
000000f0: d6be 8bbf 5397 24bf 6808 24bf d779 54bf
1.5243893 1.8613114 1.5425811 0.75787264 -1.0757662 -1.5333408 0.6408363 0.16037603
-0.3528218 0.77072686 -0.42083254 -0.40817988 -1.8190638 -0.5873686 -2.5342996 0.63474077
-0.7172224 0.78775793 0.68998617 0.67437816 -0.59342796 -0.5201302 1.9077377 -0.6946401
-1.2459669 0.2922611 1.1357601 -0.79693496 0.776636 -0.22407342 -1.1100923 0.8437027
-0.7179862 -0.55565095 1.2574854 -0.69964725 1.5295011 0.86743176 -0.9534595 0.83952767
2.2527022 -0.8719292 1.1569927 -0.3311607 -0.87539774 1.0878019 -0.8258356 -0.5406801
0.4917412 1.1160483 0.9424413 -0.63767743 0.8538397 0.6771933 -0.8905436 0.7102661
-0.36294374 -0.5075691 -0.485177 0.9463851 -1.0917614 -0.642934 -0.64075327 -0.8299841

residual_groups.0.0.bn.running_var f4 [64]
00000000: a90f cd3f d149 103f 47f9 8f3e 4f07 b83e
00000010: 9cd4 0240 d118 8a3f 6205 0b3f 99f6 493e
00000020: 7d81 543f 184b 0e3f df45 8c3f 28d9 d33e
00000030: abbd bd3e 27bc 0e3f 6efb 523f 0103 5c3f
00000040: dc09 663f 491e fb3e f6ef c73e c496 ef3e
00000050: a568 f33e 9e84 1b3f e119 fa3e c915 0a3f
00000060: efc1 f13f 08dd 573f 4528 373f c65c 883f
00000070: 6d87 5b3f fd76 f53f d1ff 1340 a405 0c3f
00000080: 8080 823f 9610 193f 1c7a 753f 2131 0f40
00000090: edd9 023f 5ae7 2f3f 1231 dd3f e547 153f
000000a0: 6705 123f 918d 0040 525f 493f 9a58 0e3f
000000b0: e610 383e 7422 443f 2030 0440 ec0e ca3f
000000c0: e87e 053f 2ab9 553f f028 0540 ccab bc3e
000000d0: 948e 2d3f e209 fa3e 01c8 1a40 bc4f 223f
000000e0: 4df0 073f 0497 ec3e 98ae 9f3f b698 093f
000000f0: 8a4e 4d3e c033 ba3f 35d0 0b3f 240f 703e
1.6020404 0.56362635 0.2811987 0.35943076 2.0442266 1.0788823 0.5430509 0.19722976
0.83010083 0.55583334 1.0958823 0.41376615 0.37058768 0.5575585 0.824149 0.85942084
0.89858794 0.49046543 0.39050263 0.46794713 0.47540775 0.6074923 0.4884787 0.5393949
1.8887309 0.8432164 0.7154582 1.0653312 0.8575352 1.9176937 2.3124888 0.54696107
1.0195465 0.59790933 0.9588945 2.2373736 0.5111378 0.6871239 1.72806 0.5831283
0.57039493 2.0086405 0.7866107 0.55603945 0.17975196 0.7661507 2.0654373 1.5785804
0.5214677 0.8348566 2.0806236 0.3684982 0.6779568 0.48835665 2.4184573 0.63402915
0.53101045 0.46208966 1.2475157 0.53748643 0.20049492 1.4547043 0.54614574 0.23443276

residual_groups.0.1.conv.weight f4 [64, 64, 3, 3]
00000000: c159 913a 354f 7b3c f15c f93c d48d 9e3c
00000010: 394d 233d 0124 513d 07da cd3b 174f c5bc
00000020: 2f12 4a3d 1ecf 91bc 8031 fcbc 02fa f03b
00000030: 56df b0bc 66b6 183d b66a 143d b2a6 26bd
00000040: ab07 c33c aaaf bf3b 005e fbbc 643a ae3d
00000050: 8574 a43d d602 a8bb 7810 003d d879 933c
00000060: 7f9b 7fbc 955f b6bc 64fd c53c b37c fbbc
00000070: 191a f9bc d9f0 7f3d a1d4 d5bc e2bd 353a
00000080: ee24 193d e628 5a3c 6da7 acbc 0b0f 33bc
00000090: a44a b9bc 906b 7e3c c3da d1bc 9238 bb3c
000000a0: 1b88 723c b4a9 8b3d 795f 60bd 3b78 70bd
000000b0: ecf3 0fbd ff21 cdbc 5c15 3fbb 3ffc 333d
000000c0: 096d da3a 0af1 0c3d 0cae b33d 341f 1cbc
000000d0: 9385 c33c f45e e0bb c12c a73a 8202 f53c
000000e0: 4681 2cbc 2d3a 1b3d 4aa2 d1bb 54b5 843b
000000f0: c966 f33c ecd1 5fbc 4729 c9b9 466a fa3c
00000100: 9c5b 1c3b c815 20bd 9db6 acbc 1a49 4ebb
00000110: b9c7 1dbd 52d9 0bbd 2cf6 39bd 584b a6bc
00000120: 3ec3 3fbc b59f dd3c ea93 ebbb 477f 2ebd
00000130: ad0c 03bc 9de2 083d 2a46 be3c dc4c 9fbc
00000140: 0774 e13c 38d3 29bd dd90 af3a d4ac c33c
00000150: 22ca 1abb f418 9c36 716b 3c3d 2dac 283c
00000160: eb09 00bd 7966 e0bc 02c5 babb 715c 09bd
00000170: c794 26b9 404d 293c 3b18 70bc 3ac5 0cbc
00000180: 0cac 3ebd 8032 05bd 17dc 0a3d 24c8 c23a
00000190: 1ff8 25bd 96d1 b93c e0d2 5ebc e980 2a3c
000001a0: 5ce0 7dbb 4d3d 0f3d c0a7 ccbc 608a 00bd
000001b0: 114f edbc 4a56 07bd 2087 bbbc 0913 86bc
000001c0: c151 b83c bb6a 933c 5b13 3abd afc2 f1bc
000001d0: df8a 8bbc 78be a9bc 7e1c 0b3b 8b64 bb3a
000001e0: ee16 dfbb aafb b83c 6ce4 f03c b53f 0c3d
000001f0: 785b 38bd b2b6 863c 0d60 adbc 13fc 723d
00000200: 7e20 ba3c d8ea e9bc a64f f53c af21 3f3d
00000210: 7579 c0bc 173f 68bc b2a5 4fbc dfac 11bd
00000220: a00b 903b 1dc7 c1bb a1e8 a7bc 0bf1 0abd
00000230: b2ae 1e3d b714 3dbd 62a3 ed3b b7c3 fe3c
00000240: a4d9 a0bc afb6 1cbd 411a 81bb eb52 553b
00000250: d194 713c 3b3e ce3c 5f89 a6bc d85e a43a
00000260: 47b4 68bc 2976 a4bc 4973 223c e61a b53c
00000270: 1298 d93c f0e2 86bb 55ff 2c3c e56c 29bd
00000280: 0ce1 9dbb 86ea 223d fcdb 823b e59b fbbb
00000290: a336 493d bf80 90bc d4c0 4c3c 5d91 a23c
000002a0: 44bc 4fbd be9e 0ebd 9db8 7d3c ab13 4bbc
000002b0: fb1f 693c f8eb 293c de4e b9bc 7af3 bf3c
000002c0: b185 d73c 21e3 d4bb a60f 133c d31a 553c
000002d0: e669 103d 53a4 11bc 45a5 35bd 15ef f3bb
000002e0: 40f8 10bd ba7f 04bd 5817 053d b4f0 acbc
000002f0: 0e10 3a3c 88f2 cebc 4bfa f03c 679f aebc
00000300: 0e95 853c 164f 9e3c e240 573b 19ec 103d
00000310: 8ae1 6dbc 0c16 963c c831 fc3a 0f32 1a3d
00000320: 58d1 9a3c 632b b2bc d6b3 d0bc 0817 393b
00000330: ddf9 0dbd b19a 053d d8e1 2f3d 32e6 a5bc
00000340: c43e 3cbc 4af2 4dbd a0d9 733a 9d5b 013d
00000350: c615 e7bc f982 043d 576e 70bc bd0d 14bb
00000360: 9673 8a3c efa0 19bd a38b 843c c898 2abd
00000370: afe0 ed3c 4b70 a239 4e84 1abd f454 793a
00000380: 2b0f cf3c 28d0 c1bb 2aab b6bc 123a f43b
00000390: 87b3 53bd b915 f13c 93dd 073b 89b2 413c
000003a0: 643f b1bc 6292 47bd 998c 01bd 15f9 5e3c
000003b0: 3e02 0bbd 029a ca3c a7e5 33bd 3d94 7dbc
000003c0: 1b39 c0bc de5f f73c 8d82 a9bb ae24 f63b
000003d0: 82dd 453b 3e6a 413c 5b6e 2abd 840e f23b
000003e0: a204 db3c e8a9 a23c a256 643c 3e1c 2a3d
000003f0: 6019 413b 7d02 28bd 868c 5b3c b070 4c3c
0.0011089371 0.015338709 0.030439826 0.019354738 0.039868567 0.051059727 0.0062820944 -0.024085565
0.049333747 -0.017798956 -0.030785322 0.007354022 -0.02159087 0.037283324 0.03623458 -0.040686317
0.023807367 0.005849798 -0.030684471 0.08507231 0.08030037 -0.005127291 0.031265706 0.018002436
-0.015601038 -0.022262374 0.024168678 -0.03069911 -0.030407952 0.06248555 -0.026102366 0.0006932897
0.037388735 0.013315415 -0.021075929 -0.0109288795 -0.0226186 0.015528575 -0.025617009 0.022854123
0.014802958 0.06819478 -0.05477855 -0.05870841 -0.03514473 -0.025040625 -0.0029157018 0.043941732
0.0016664575 0.03440956 0.08773431 -0.009528924 0.023867404 -0.006847257 0.0012754427 0.029908422
-0.010528868 0.037897278 -0.00639752 0.0040499363 0.029712098 -0.013660889 -0.00038368462 0.030568253
0.0023858314 -0.039083272 -0.02108317 -0.0031476677 -0.03852055 -0.0341428 -0.045400783 -0.020299599
-0.011704264 0.027053693 -0.0071892636 -0.04260185 -0.007998628 0.03341924 0.023226816 -0.01944583
0.027521146 -0.0414612 0.0013394613 0.023886122 -0.0023619016 4.652067e-06 0.0460009 0.010294956
-0.03125946 -0.027392613 -0.0056997547 -0.033535425 -0.00015886418 0.010333359 -0.0146542145 -0.008591944
-0.046550795 -0.032518864 0.0339013 0.0014860672 -0.04051983 0.022682946 -0.013600081 0.010406711
-0.0038738465 0.03497057 -0.024982333 -0.031381965 -0.028968366 -0.033041276 -0.022891581 -0.016366499
0.02249992 0.017995229 -0.045428615 -0.029511778 -0.017033992 -0.020720705 0.00212267 0.0014296932
-0.0068081534 0.02258094 0.029405795 0.034240443 -0.045009106 0.016444538 -0.021163965 0.059322428
0.022720572 -0.028554365 0.029945206 0.046662983 -0.023495415 -0.014175198 -0.012673782 -0.035565253
0.004395917 -0.0059136287 -0.020496668 -0.033921283 0.03874082 -0.046162333 0.0072521428 0.031099183
-0.01963503 -0.03826016 -0.0039398973 0.0032550644 0.014744953 0.025176158 -0.020329176 0.0012540473
-0.014203138 -0.020075874 0.009915181 0.022107553 0.02656177 -0.0041164085 0.010558923 -0.041363616
-0.0048180874 0.03977444 0.0039935093 -0.007678496 0.04912437 -0.017639516 0.012497146 0.019844705
-0.050716653 -0.034819357 0.01548591 -0.012394826 0.014228816 0.010371201 -0.022620615 0.023431528
0.026308866 -0.0064968024 0.008975899 0.013006884 0.035257243 -0.008889276 -0.044347066 -0.0074442723
-0.035393 -0.032348372 0.032492965 -0.02111087 0.011356367 -0.025262132 0.029416224 -0.021316243
0.016306426 0.01932482 0.003284507 0.03538141 -0.014519105 0.01832106 0.001924091 0.037645396
0.018898651 -0.021749204 -0.025476377 0.0028242487 -0.034662116 0.03261823 0.04293999 -0.020251367
-0.011489574 -0.050279893 0.0009302143 0.03158151 -0.028208625 0.032351468 -0.014674745 -0.0022591196
0.016900819 -0.037506994 0.016179865 -0.04164961 0.029037802 0.00030982713 -0.03772383 0.0009511255
0.025275787 -0.0059147067 -0.022298414 0.0074532116 -0.051684882 0.029429303 0.0020731434 0.011822351
-0.021636672 -0.048723586 -0.031628225 0.0136091905 -0.033937685 0.02473164 -0.043920185 -0.015477237
-0.02346473 0.03019708 -0.0051730336 0.007511697 0.0030191843 0.011805115 -0.04160915 0.0073869843
0.026735608 0.019856408 0.0139366705 0.04153084 0.0029464588 -0.041017998 0.013400203 0.012478039

residual_groups.0.1.conv.bias f4 [64]
00000000: 82e2 28bb 5355 a13c 27d1 48bb 0c78 6c3b
00000010: 5b12 c13b 480a 11bc 5555 1e3c d841 13bd
00000020: ffd1 b13c 8a77 903b 7c72 adbc 3ee3 eabb
00000030: 2d7b 36bc 17f7 0a3d c2c1 9cbc e16b 063d
00000040: a81d 0f3d 30e8 013d 9eb0 c63c 777e 68bc
00000050: c177 813c bcbe 17bc 42f9 3e3c 4416 1cbc
00000060: 2320 5ebc dc03 29bc 74a1 5c3b 7ab6 183d
00000070: 6281 dc3b 0fbc 093d 7e86 13bd 6ab0 afbc
00000080: 4eec 31ba 1e4e 0ebd 6a92 dc3c f89f 08bc
00000090: 9533 83bc b767 d83c 235d a5bc 8dd1 ef3c
000000a0: e3c6 9abc 8e4a dfbc 8103 7cbc f8d5 373c
000000b0: 6ebf b13b 408d f0ba cab0 0cbc dbd6 6e3b
000000c0: 705d 1ebc 376c adbb 4990 0cbd 2742 95bc
000000d0: 02d4 26bd 9fe7 9e3c fc95 cb3c 3032 02b9
000000e0: 8e68 91bc 3248 87bc 8818 52bb b1b0 9b3c
000000f0: b76f c83c 65e2 03bd ae55 51bc 393b 8bbc
-0.0025769775 0.019694006 -0.0030642243 0.0036082296 0.0058920807 -0.008852549 0.009663899 -0.035951465
0.02170658 0.0044087814 -0.021172754 -0.0071682027 -0.011137766 0.03392705 -0.01913536 0.032817725
0.03494039 0.031715572 0.02425414 -0.014190308 0.015804173 -0.009261783 0.011656107 -0.009526793
-0.013557467 -0.010315862 0.003366557 0.0372834 0.006729291 0.033626612 -0.036016934 -0.021446425
-0.00067872263 -0.034742467 0.026925284 -0.008338921 -0.016015807 0.026416643 -0.020186013 0.029274726
-0.018893665 -0.02725723 -0.015381695 0.011220448 0.0054244315 -0.0018352643 -0.008587072 0.0036443982
-0.009665832 -0.005292441 -0.03431729 -0.01822002 -0.04072953 0.019397555 0.024851792 -0.00012416462
-0.01775005 -0.016513918 -0.0032058079 0.019005151 0.024467332 -0.03219833 -0.012776775 -0.016996013

residual_groups.0.1.bn.weight f4 [64]
00000000: baf8 7d3f 436e 833f 3dd3 7b3f fdc6 813f
00000010: 936f 853f 40be 7e3f 739a 823f 150d 893f
00000020: 77cc 943f 567a 7e3f d45d 7c3f 3748 7d3f
00000030: 3a96 803f 208c 7e3f cd65 7b3f a842 813f
00000040: b82d 853f 7c81 803f d245 833f 9c23 793f
00000050: a5f8 893f a090 7e3f 71c6 813f 10fe 803f
00000060: 3ece 753f 0540 813f 6c87 6c3f 48e2 803f
00000070: c8b0 893f 66d7 7d3f 875b 7f3f 2608 9e3f
00000080: 5e18 5c3f d68a 7e3f df55 7c3f 5759 7e3f
00000090: f6e4 803f 6835 853f 918b 7b3f 5540 7e3f
000000a0: a4cf 7d3f 7c0b 7f3f 0778 7b3f 0a1f 7f3f
000000b0: b2b8 7e3f 1f76 853f 3e1c 823f fe75 7c3f
000000c0: d93f 7d3f 2eb9 853f ec4c 803f a662 7d3f
000000d0: b477 7e3f 5beb 7c3f ba3a 7e3f 89dd 823f
000000e0: f6df 803f 0c0a 7e3f c0f7 7b3f d99d 7e3f
000000f0: e04d 7c3f 9847 7f3f 1308 7d3f 6cc4 8e3f
0.9920765 1.0268024 0.983692 1.0138851 1.0424675 0.9950905 1.0203384 1.0707117
1.1624898 0.9940542 0.9858067 0.98938316 1.0045846 0.99432564 0.9820221 1.0098467
1.0404577 1.0039515 1.0255682 0.9731996 1.0779005 0.9943943 1.0138685 1.0077534
0.96017826 1.0097662 0.9239414 1.0069056 1.0757074 0.99156797 0.99749035 1.2346237
0.8597468 0.99430597 0.9856853 0.9935507 1.0069873 1.0406923 0.98259836 0.9931691
0.9914496 0.996269 0.9823002 0.99656737 0.9950057 1.0426673 1.0164869 0.9861754
0.9892555 1.0447137 1.0023475 0.9897865 0.994014 0.98796624 0.9930836 1.0223857
1.0068347 0.9923408 0.9842491 0.99459606 0.9855633 0.9971862 0.98840445 1.1153693

residual_groups.0.1.bn.bias f4 [64]
00000000: c9bd 17bc 7eb3 d2bd ca7b bdbc 7b04 a6bd
00000010: adf4 17bd 77e7 0f3c 18d3 afbd 3c6e 30be
00000020: 09bd 58bd b00f 39bc 0033 77bc 1615 813b
00000030: 52cd 44bd f7cf 963c 0c6d 0fbd c646 36bd
00000040: a9a4 70be 315f 9bbd 7c0f c8bd 27b2 0fbd
00000050: 711d c7bd acd2 ef3c b4d1 d4bd 5a4c 4cbd
00000060: 516b 86bd 40d2 74bd 948e b0bc eb39 9dbd
00000070: 0680 d2bd 601f 6eba e21c 1e3c a9fa 88bd
00000080: cc3a 3f3d 1c33 383b 91a3 a1bc 9f60 86bc
00000090: 6204 3fbd 0791 9fbd 820f 9ebb 1271 2aba
000000a0: b270 8dbd 3593 9d3b aac3 9fbc 80b5 f9bd
000000b0: 7bcc 3e3d 2119 3abe 37fe f2bd c277 6cbc
000000c0: a821 9bbc aa61 b8bd f217 20bd 3cd1 213b
000000d0: 67f3 033c c13a 0c3c 766e 96bd ec99 a5bc
000000e0: b2b3 57be b740 99bc 8053 bd3c 972c 1a3d
000000f0: ffaf 8bbc 77b9 043d 36dd d9bc d67e 2cbe
-0.009261557 -0.10288142 -0.023130316 -0.08106323 -0.037098575 0.008783213 -0.08585185 -0.17229551
-0.052914653 -0.011295244 -0.015087843 0.003939281 -0.04804737 0.018409712 -0.035016105 -0.04450109
-0.23500313 -0.07586516 -0.097685784 -0.03508201 -0.097224124 0.02927526 -0.1039156 -0.049877502
-0.06563438 -0.059770823 -0.021552362 -0.076770626 -0.10278325 -0.0009083655 0.009650441 -0.06688435
0.046686932 0.0028106635 -0.019731315 -0.016403494 -0.04663504 -0.07791334 -0.004823626 -0.0006501834
-0.069062606 0.004808808 -0.01950248 -0.121928215 0.046581727 -0.18173648 -0.11864894 -0.014432849
-0.018936947 -0.09003003 -0.039085336 0.0024691364 0.008053637 0.00855893 -0.073452875 -0.020214997
-0.21064642 -0.018707616 0.023111105 0.03764018 -0.017051695 0.032403436 -0.02659474 -0.16845259

residual_groups.0.1.bn.running_mean f4 [64]
00000000: 1846 25be 384a a53d 5ede 8fbe c394 f8bc
00000010: 5f2f 153e 9b87 2fbf eb7c 643d 581e a4bd
00000020: 3718 133f ff86 4cbf e55f d83d ac12 68bf
00000030: 810d dcbc 1ca0 49bf 4c84 b4be 0783 c6bd
00000040: 86b1 ab3e 2771 64bd 09f3 2abe 06c3 363e
00000050: 1f49 0e3e 3925 02bf 861a 103e cfcd 61bd
00000060: 7c49 923f 62a0 b7bb 8d3d 0fbe b9ae de3e
00000070: 0129 4d3d 59bf dcbe dfc1 91bf f6c3 8fbe
00000080: 96fa 3bbf 1620 0fbf 7d90 cb3c e98b c3be
00000090: 77a3 25bd c6a8 b7bd 977f 27bf 9960 65bf
000000a0: 0b46 0a3f 58c5 24bf 4b73 583e 2013 3f3c
000000b0: d5b1 1cbf 9784 9d3e 5afb aa3d 549e fd3e
000000c0: 7dc7 85be 4bcc 043d 9fe7 283f e369 15bf
000000d0: 9f2c 13bf 097b 34bf 3471 3c3f 99e3 923d
000000e0: 9523 443e e543 9dbe e571 39be 9341 1ebf
000000f0: dd3e 36be 3348 27bf bb18 dbbd ea16 783e
-0.1614002 0.08070797 -0.2809934 -0.030344373 0.14568852 -0.6856629 0.055783194 -0.080136
0.57458824 -0.7989349 0.105651654 -0.9065349 -0.026861908 -0.7875993 -0.35257185 -0.0969296
0.33533877 -0.055771973 -0.16694273 0.17847833 0.13895081 -0.5083805 0.14072618 -0.055127915
1.1428676 -0.005603836 -0.13988324 0.43492678 0.050087932 -0.43114737 -1.138729 -0.28079194
-0.7342924 -0.55908334 0.02484917 -0.3819268 -0.040439095 -0.08967738 -0.6542906 -0.8960052
0.5401313 -0.6436362 0.21137731 0.011662275 -0.6120885 0.3076522 0.08348723 0.49534857
-0.2612876 0.03242139 0.65978426 -0.58364695 -0.5748996 -0.70500237 0.73610234 0.07172317
0.19154198 -0.30715862 -0.18109854 -0.6181881 -0.17797418 -0.6534454 -0.10698076 0.24227491

residual_groups.0.1.bn.running_var f4 [64]
00000000: 0c2b b03f 3e9f 163f aac3 5840 f397 5b3f
00000010: b704 973f d355 2640 0825 523f 4839 183f
00000020: eabb 813f 3415 ad40 7106 a13f ff7f eb40
00000030: 5dcc 9f3f 13a6 2840 4f8b 3a3f ef5a 8d3f
00000040: b59c 373f a398 553f c6f2 413f 830c 1840
00000050: 5399 033f 156f 3340 3d8c 853f 5dcb a43f
00000060: 8a0b 2540 93bb 5f3f 8a36 0940 09e9 8a3f
00000070: 6444 193f 4cf2 a93f 3aaf 3e40 5adb ed3f
00000080: 9b20 0140 6f78 bd3f c1ad 1240 3a74 ad3f
00000090: d586 ac3f 4af0 353f e212 3440 77b2 2a41
000000a0: fd15 0a40 ca16 a73f d639 6a40 450c 3a3f
000000b0: d8ca 6b3f f37f 233f 843f 113f 35eb c440
000000c0: c29a f73f 5439 693f a8c2 8d40 148c 0f40
000000d0: 24a9 ee3f 9934 903f 333e 9640 706f f540
000000e0: 3490 0c3f 41e8 f03f 3eec 623f 0e5e 6b40
000000f0: c41a eb3f 6673 9e3f 731e 1940 d40d 803f
1.3763137 0.58836734 3.3869424 0.8577873 1.1798314 2.5989883 0.82087755 0.59462404
1.0135472 5.4088383 1.2580091 7.3593745 1.2484242 2.6351364 0.7286882 1.1043376
0.7172349 0.8343603 0.7576107 2.3757637 0.5140583 2.803655 1.0433422 1.2874562
2.5788293 0.8739559 2.1439538 1.0852367 0.5986998 1.3277068 2.979445 1.8582566
2.017615 1.4802378 2.291855 1.3551095 1.3478647 0.71069777 2.8136525 10.6685705
2.157592 1.305383 3.65978 0.7267497 0.9210639 0.6386711 0.5673754 6.153712
1.9344103 0.911031 4.4300117 2.2429247 1.8645368 1.1266052 4.6950927 7.669853
0.54907537 1.8820878 0.88641727 3.6776156 1.8367543 1.2378967 2.3924835 1.000422

residual_groups.1.0.conv.weight f4 [64, 64, 3, 3]
00000000: e224 323d 7fe8 363d a4b0 9a3d 9560 8a3d
00000010: c364 873d 22a3 263c 285a ac3c 8c51 ae3d
00000020: 7afb b23d e0e5 c43c 6719 da3d 843e 0b3d
00000030: 098d a03d a26a e93d 1ba4 dc3d e90f ad3d
00000040: cdf3 b83d 4226 c13d 5c84 05bd 0fbe fb3c
00000050: 28aa 9aba a5e3 afbb 4e36 143c eddb febb
00000060: d06a b13c 7dd8 123d 1b55 a03c c987 0cbd
00000070: 9906 09bd 3904 223d 6775 1c3d fa04 553d
00000080: 8d9d a3bc ed4b 093c 8f0b d3bb f43f cf3b
00000090: 2336 21bb 7128 0b3c 2f85 14bd 3ff8 c7bc
000000a0: 7476 debc d354 a5bc 7e0b 1c3c 2b03 6f3c
000000b0: b7ce 243d 33ac 14bd ab23 e03b db1e 063d
000000c0: 8456 fbbc 5bb4 c53b 4736 5d3d a219 963c
000000d0: dc4c cd39 23ad 9c3b 111b afbc 9a12 3cbd
000000e0: 62d9 16bd 72da 76bc 4aec c2bb ef3f c53c
000000f0: 2380 7e3c 83d6 cdbc 297c 7a3c f0f6 a1bc
00000100: 0b71 17bd 35ff c73b 5677 e9bc 1ad7 06bc
00000110: b857 ddbb 1273 6f3b ec04 59bc 1f8c cb3c
00000120: 4f54 2a3d 2df4 2ebc 5587 cbbb 3423 9c3b
00000130: 80b0 9c3b d5a3 09bd f753 3bbb bf82 063d
00000140: 6a45 1d3d dde9 ec3c 96d7 203c a60b 193d
00000150: 63bd 0f3b af4a e73c 8ca6 7fbc 4aa3 72bd
00000160: e9a8 5abd 975d 6abc e86a c63c c323 543d
00000170: c4fc 1d3d 0382 c1bb 6043 ac3b 2328 4bbd
00000180: 42ae 26bd 5abd 053d 31bd 233d aac6 febc
00000190: 7c34 483c 1cbb 493c cf8f 0e3d f6f1 b93c
000001a0: bc79 05bd 1374 32bc 1e4c f0bc 5257 7f3c
000001b0: 6062 02bd 4ea0 8cbc 0561 443c 32fb 2c3c
000001c0: 2441 113d dcf7 dfbb 5f13 ce3c 5e3b f1bc
000001d0: 2470 313d 7fa4 3fbd de91 723b 0a29 283d
000001e0: 6d50 dd3b 7325 733c ed2a c93b d29f d73c
000001f0: 534a 093d 9348 13bc 5a37 203d 7757 993d
00000200: ecd5 853d d8b8 783d 74a9 eb3c 2ac1 9e3b
00000210: 79ee 283d d0e2 f93c 7c71 a43d 00cc 193c
00000220: 5182 df3c ca13 38bc d338 29bd cf07 6bbc
00000230: bebe 81bd 3d1c 03bd f6e7 08bd 268f 0ebc
00000240: e385 2dbd 93b0 d03c 9968 1fbd 6767 3cbd
00000250: 5f57 b43c e10a 033d 8d42 72bd e436 27bd
00000260: 7873 bdbc 29ac 233d a9b9 b23c 8bf3 363d
00000270: 976d 0b3d 034c 353d d517 0b3c 3f7f fe3c
00000280: 1beb 323d 3324 6f3d 74ef afbb 2745 203d
00000290: 2432 af3c e524 913d ce6b 883d baad 883d
000002a0: 2551 4a3c 4eb5 9a3d e93c 203d 281c 55bc
000002b0: 1634 83bc c017 89bb 1571 20bd 58ea 27bd
000002c0: a0b4 813c cdee cb37 df8c 41bd d411 1dbd
000002d0: 973b 0a3c 9bb8 17bc 53d7 cc3b 8833 96bb
000002e0: e7df 0abd 669f 053d 4e90 fbba f717 6e3b
000002f0: 0073 253b d770 d53c b7b5 d1bc 821e d5bb
00000300: b840 133b e05d 243d fef6 70bc 14a9 3fbc
00000310: 9d3b 093d edd4 97bc 2f74 b3bc b4ac 543c
00000320: 7653 d3bb 5643 31bd 6d92 1abd 0f65 58bd
00000330: 5df1 2bbc 5be3 60bd 742b 82bd 700c 1e3c
00000340: 9a7a 833c eac2 373d 62bc 873d 66ab 073d
00000350: 2373 1fbc 1bbc ba3c f99b 923c cef5 7e3d
00000360: d9dc 8a3d cdff 8d3c 810d 563d 3c24 093d
00000370: 28e0 423c 2de0 163c 2542 083d 0c8c 2c3d
00000380: 36ea 873d 4c89 ecbc f69e 7fbb 6ff4 b2bb
00000390: b603 48bc d6ab 48bc 29c1 ca3c b69c 2b3d
000003a0: 76fb 913c 57ef 44bd 8815 7dbb 245f 973c
000003b0: 00c0 b7bc 0b2d abbc 70a3 46bd aaff 833c
000003c0: 7581 aa3c 53fb 9bbc 6e33 de3b e677 c2bc
000003d0: 182c 33bc ecbb 1dbd effe 0fbd 8c8d 19bd
000003e0: f835 5b3c 0faa dc3b c6a3 09bd aebe a8bc
000003f0: e105 373d ea3c 2fbd 189f 21bd 99df c5bc
0.043492205 0.04465532 0.07553223 0.06756703 0.06611016 0.01017073 0.021039084 0.085116476
0.087393716 0.024035394 0.10649376 0.033995166 0.078394 0.11397292 0.10773488 0.084503
0.09030876 0.09431125 -0.03259693 0.030730275 -0.0011799978 -0.0053677135 0.00904615 -0.007777682
0.021657377 0.03585099 0.019571831 -0.034309182 -0.033453558 0.03955481 0.0381979 0.0520067
-0.019972587 0.0083799185 -0.006440587 0.0063247625 -0.0024598918 0.008493529 -0.036259826 -0.024410365
-0.027156092 -0.020182049 0.009524224 0.014588158 0.0402362 -0.036297034 0.0068401895 0.03274427
-0.030680902 0.006033463 0.05400684 0.01832277 0.00039157912 0.0047813817 -0.021375211 -0.045916177
-0.036828406 -0.01506673 -0.005948578 0.024078337 0.01553348 -0.025126701 0.015288391 -0.01977107
-0.03697304 0.006103421 -0.028499287 -0.008229995 -0.0067548417 0.0036537093 -0.013245802 0.024847088
0.04158431 -0.010678333 -0.006211201 0.0047649387 0.0047817826 -0.033603508 -0.0028583982 0.032839533
0.038396277 0.028920108 0.009817025 0.037364624 0.0021932952 0.028233854 -0.015603673 -0.059237756
-0.05338374 -0.01430454 0.024220899 0.051791918 0.038571134 -0.005905391 0.005257055 -0.049598824
-0.04069353 0.032651283 0.03997535 -0.03110059 0.0122195445 0.012312677 0.034805115 0.022698384
-0.032586798 -0.010891932 -0.02933317 0.015584784 -0.0318321 -0.017166283 0.011986022 0.0105579365
0.035462514 -0.006834967 0.025155721 -0.029447254 0.043319836 -0.046787735 0.0037013213 0.041054763
0.0067539723 0.014840472 0.0061391504 0.026321325 0.033518147 -0.008989471 0.039115287 0.07487386
0.06534943 0.060723156 0.028767325 0.0048448043 0.04124305 0.03050366 0.08029458 0.009387016
0.02728382 -0.011235187 -0.041313957 -0.014345123 -0.06335209 -0.032009352 -0.03342434 -0.008701121
-0.042364012 0.025474822 -0.03891811 -0.04599705 0.022014318 0.031992797 -0.0591455 -0.040823832
-0.023126349 0.039959107 0.021817045 0.044665854 0.03404006 0.044261944 0.008489569 0.031066535
0.043681245 0.05838413 -0.005369121 0.03912845 0.021386214 0.07087115 0.06661187 0.06673761
0.012348448 0.075541124 0.03912059 -0.013007201 -0.016016047 -0.0041837394 -0.039170343 -0.040994972
0.015833199 2.4310686e-05 -0.047253486 -0.03834708 0.008437059 -0.009260322 0.0062512546 -0.0045837797
-0.033904936 0.032622717 -0.0019192786 0.0036330202 0.0025245547 0.026054783 -0.025599344 -0.006503881
0.0022468995 0.04012859 -0.014707325 -0.011698026 0.033504117 -0.018534148 -0.021905987 0.012980629
-0.0064491583 -0.043277107 -0.0377373 -0.052830752 -0.010494557 -0.054904323 -0.06355944 0.00964652
0.016049672 0.04486362 0.06627728 0.033122443 -0.009732041 0.022794774 0.01789664 0.062246136
0.067804046 0.01733389 0.052258972 0.03348182 0.011894263 0.009208721 0.033266205 0.042125747
0.06636469 -0.028874062 -0.003900466 -0.0054612677 -0.012207916 -0.012248 0.024750309 0.041897498
0.017820101 -0.048079815 -0.003861757 0.018477984 -0.02243042 -0.020895502 -0.04849571 0.016113121
0.020813683 -0.01904074 0.0067810332 -0.023738813 -0.010935806 -0.038509294 -0.035155233 -0.037488505
0.013379566 0.0067341398 -0.033603452 -0.020598736 0.04468334 -0.0427827 -0.039458364 -0.024154471

residual_groups.1.0.conv.bias f4 [64]
00000000: 93f4 22bd 434a ea3a be85 c2bc 6cdb 1b3d
00000010: ccf5 2fbc 174c aabb 806d 273c 0c5f f63a
00000020: 92f9 f53c 7944 7abb b9ec 2e3c 1080 023d
00000030: d574 b6bc 2317 92bc 0b64 c93c 1948 ed3c
00000040: f065 1ebd caf7 ceba 8be8 cbbc 4e36 cb3c
00000050: 2218 c93c 7971 cbbc 1bfb 32bc e47b 083c
00000060: 056a b73c d27a 21bc 8cd8 bfbc 5c4c d7bc
00000070: 4493 8bbb 1d3e e3bc 3d93 a73b 6dba 5dba
00000080: 99f3 193b 543b aebb 9306 b3bc 45b9 febc
00000090: dc8d be3c 3e82 c1bc 5182 7a3c 4dab 8b3c
000000a0: 0c8e 353c 195f 403b 2e6f edbc baf4 eabc
000000b0: 8133 3fbc 6812 c8bc a336 863c e321 183c
000000c0: f6ff a93c 0b17 d13c 606f 08bd 5dfa ff3c
000000d0: c753 e13c 8778 17bc cad5 233c 3f8b 84bc
000000e0: 9830 203d 0737 2ebc 4924 9ebc ee09 68bb
000000f0: d793 dd39 1f50 2bbd 8e80 1a3a 3715 12bd
-0.039784025 0.0017874915 -0.023745414 0.038051054 -0.010739755 -0.005197059 0.010218978 0.0018796637
0.030026231 -0.0038187786 0.010676556 0.03186041 -0.022272507 -0.017833298 0.024583837 0.028965043
-0.038671434 -0.00157904 -0.024891159 0.024806168 0.02454764 -0.024834381 -0.010924126 0.008330319
0.022389421 -0.009855943 -0.023418687 -0.026281528 -0.004259499 -0.027739579 0.0051139877 -0.00084582606
0.0023491143 -0.005317131 -0.02185372 -0.031094203 0.023261003 -0.023621675 0.015289859 0.017049456
0.01108123 0.0029353558 -0.028983679 -0.028681148 -0.011669994 -0.02442284 0.016383475 0.009285423
0.020751934 0.025523683 -0.03330934 0.031247312 0.027505768 -0.009245045 0.009999702 -0.016179679
0.039108843 -0.010633237 -0.019304411 -0.003540631 0.00042262554 -0.041824456 0.000589379 -0.035664763
