weights/best_model_srcnn.pth (torch, 34455 bytes, 5 tensors)

conv1.weight f4 [64, 1, 9, 9]
0.08176821 -0.046053696 -0.042155333 -0.04568 -0.113489166 -0.03613681 0.045437846 -0.035901528
-0.039788835 0.10665024 0.07998653 -0.00022552787 0.05380221 0.023301365 0.16931397 0.030223442
0.11530492 0.0017769013 0.07779383 0.010030507 0.026808165 -0.07794647 0.045913424 0.15361942
-0.06969719 0.041609224 0.03217131 -0.041821733 0.13034363 -0.03253763 0.22744328 0.33115956
0.15498316 0.010534193 0.08425638 0.06253067 0.1024961 -0.04697632 0.21440661 0.3586636
0.44564953 0.25035757 0.30835122 0.099527895 -0.008075163 0.0485527 0.0062761814 -0.044006933
0.2613281 0.3994899 0.2942463 0.08245615 0.10289347 -0.046183635 -0.086546466 0.11412731
-0.0029858495 0.06778773 0.05676922 0.028342964 0.05773214 0.09744477 -0.10366183 -0.06744517
-0.03720514 0.011126365 0.07961652 0.12605947 0.13033785 0.00928232 0.13824275 -0.04290822
0.01470106 -0.021756021 -0.1454959 -0.024785174 0.028580433 0.14737602 -0.092539646 0.10872596
0.051668566 0.014576471 -0.12690696 -0.14020061 -0.13406539 -0.16432923 0.02978083 -0.06311
0.020812776 0.1505752 0.12897786 -0.09500393 0.083301075 -0.039542817 0.05277928 0.13846898
0.03175135 0.06359494 0.08266873 0.018799622 0.14833091 0.17861292 -0.09017112 -0.1821613
0.19707796 0.15318461 0.06720008 0.120556965 0.10679829 0.16469215 0.1525449 -0.4486548
-0.7922725 -0.25816882 -0.031274218 -0.07984799 0.04422083 -0.18302771 -0.23843639 -0.18230462
-0.89715487 -1.7201444 -1.1803763 -0.76488185 -0.38040996 -0.116342194 -0.02980325 0.008883264
-0.074723676 -0.12141225 -1.1068515 -0.5087745 0.025429936 0.105503984 0.15088291 0.09720482
0.07600878 0.101597264 0.046759658 -0.7019013 -0.2517682 0.11341575 0.089078344 0.10200431
-0.04516851 -0.047920313 0.0534453 0.17258205 -0.079001755 0.05393117 0.12841879 0.106950425
0.09570333 -0.038137108 0.0033750662 0.018109353 0.036694273 -0.2026668 0.03905159 0.12945046
0.0072757774 0.080972664 0.09758283 -0.073067494 -0.1125722 0.09505387 0.080689795 0.067340195
0.040276065 0.0023700655 0.112890795 -0.0028153262 0.08415922 -0.055204887 0.09435347 0.09796166
0.0778733 0.031320803 0.06911808 0.004676647 0.07348239 0.1142526 -0.013541514 -0.050678793
0.07940608 0.12827261 0.09006857 -0.08477036 -0.05933188 0.107745185 0.02548007 0.1313484
0.097790636 0.29315355 0.08802617 0.047228117 0.041757107 0.0174419 0.0801488 0.23461896
0.18234299 0.2619207 0.27646905 0.2055313 0.14623174 0.132571 0.20514607 0.057688396
0.029552445 0.06463932 0.17553066 0.15070267 0.17545602 0.010030919 0.05005582 0.104642496
-0.08892163 0.003285638 0.031544544 0.11447379 0.18363804 -0.023724826 0.12133885 0.11857701
-0.03268693 -0.02645605 0.09502488 -0.055701245 -0.041855935 0.23127042 -0.032838844 -0.020650499
0.09968807 -0.10085337 0.0319007 0.11738909 0.09165416 0.0046798247 0.11578235 0.014143644
-0.0016548346 0.041513015 -0.14602351 0.04001235 -0.026842823 -0.08614656 0.009634565 -0.011393159
0.13126893 -0.06280123 0.09292247 0.069014505 0.018432064 0.03329886 0.090862766 0.24220192
00000000: 1776 a73d cda2 3cbd 12ab 2cbd f41a 3bbd
00000010: 026d e8bd 3104 14bd 091d 3a3d 7b0d 13bd
00000020: 9ef9 22bd 716b da3d facf a33d ad7b 6cb9
00000030: b55f 5c3d 81e2 be3c a460 2d3e 2797 f73c
00000040: fc24 ec3d eae6 e83a 5f52 9f3d ff56 243c
00000050: cc9c db3c 66a2 9fbd b70f 3c3d 694e 1d3e
00000060: 66bd 8ebd 6f6e 2a3d 10c6 033d 444d 2bbd
00000070: cd78 053e 2e46 05bd e4e6 683e bf8d a93e
00000080: e8b3 1e3e 9c97 2c3c 9c8e ac3d 1410 803d
00000090: 7ae9 d13d 3e6a 40bd 688d 5b3e c1a2 b73e
000000a0: 2d2c e43e de2e 803e 36e0 9d3e 48d5 cb3d
000000b0: b04d 04bc 32df 463d 6da8 cd3b 9d40 34bd
000000c0: cccc 853e f189 cc3e 73a7 963e c5de a83d
000000d0: d0b9 d23d 0d2b 3dbd 463f b1bd 94bb e93d
000000e0: 3eae 43bb 4bd4 8a3d d786 683d 812f e83c
000000f0: 8978 6c3d 2091 c73d a74c d4bd b120 8abd
00000100: 6b64 18bd 5b4b 363c fc0d a33d bc15 013e
00000110: 4977 053e df14 183c 828f 0d3e 88c0 2fbd
00000120: b7dc 703c af39 b2bc e1fc 14be 470a cbbc
00000130: 8321 ea3c bde9 163e 6d85 bdbd b7ab de3d
00000140: 6ba2 533d 27d2 6e3c e6f3 01be c090 0fbe
00000150: 7048 09be ec45 28be edf6 f33c d13f 81bd
00000160: 8e7f aa3c 6330 1a3e c612 043e 6c91 c2bd
00000170: c199 aa3d a6f7 21bd 162f 583d d0ca 0d3e
00000180: b40d 023d 103e 823d 394e a93d aa01 9a3c
00000190: 0fe4 173e 4ee6 363e a3ab b8bd 7e88 3abe
000001a0: cece 493e 6ddc 1c3e 32a0 893d 92e6 f63d
000001b0: 10b9 da3d 0fa5 283e bb34 1c3e 15b6 e5be
000001c0: 5fd2 4abf b42e 84be 6519 00bd 5887 a3bd
000001d0: e720 353d 9e6b 3bbe ab28 74be 10ae 3abe
000001e0: f1ab 65bf b12d dcbf 9216 97bf 4ccf 43bf
000001f0: 18c5 c2be d144 eebd f225 f4bc 1c8b 113c
00000200: ba08 99bd fca6 f8bd 4fad 8dbf 0c3f 02bf
00000210: 7152 d03c 7912 d83d 0d81 1a3e 5213 c73d
00000220: 7eaa 9b3d 3a12 d03d 0e87 3f3d ceaf 33bf
00000230: c3e7 80be 8446 e83d b56e b63d a3e7 d03d
00000240: 9e02 39bd 1748 44bd 75e9 5a3d 59b9 303e
00000250: accb a1bd eee6 5c3d 3780 033e d308 db3d
00000260: 1c00 c43d a835 1cbd 3730 5d3b 115a 943c
00000270: bc4c 163d e387 4fbe 8ff4 1f3d a98e 043e
00000280: a569 ee3b ffd4 a53d 82d9 c73d 69a4 95bd
00000290: 418c e6bd 9aab c23d b140 a53d a8e9 893d
000002a0: 84f8 243d 1a53 1b3b 4a33 e73d 5681 38bb
000002b0: ab5b ac3d 851e 62bd 643c c13d 1fa0 c83d
000002c0: 097c 9f3d 3e4a 003d c88d 8d3d 8f3e 993b
000002d0: ef7d 963d 44fd e93d 3add 5dbc 9194 4fbd
000002e0: a89f a23d e559 033e df75 b83d 159c adbd
000002f0: fc05 73bd 82a9 dc3d 94bb d03c 3280 063e
00000300: 7546 c83d 3918 963e 1147 b43d 4572 413d
00000310: 8009 2b3d 51e2 8e3c 0e25 a43d f43f 703e
00000320: 1fb8 3a3e 781a 863e 5a8d 8d3e cc76 523e
00000330: c6bd 153e b1c0 073e d011 523e ab4a 6c3d
00000340: f817 f23c 9f61 843d 4fbe 333e cd51 1a3e
00000350: beaa 333e b958 243c 5507 4d3d ce4e d63d
00000360: 8b1c b6bd dc53 573b da34 013d 3c71 ea3d
00000370: 9c0b 3c3e 915a c2bc 8180 f83d 81d8 f23d
00000380: bbe2 05bd 5cba d8bc 679c c23d fd26 64bd
00000390: 2171 2bbd 27d2 6c3e 0682 06bd 3c2b a9bc
000003a0: 4229 cc3d 368c cebd 4faa 023d b169 f03d
000003b0: 2db5 bb3d 3759 993b 4c1f ed3d beba 673c
000003c0: 09e7 d8ba 8d09 2a3d 3087 15be fde3 233d
000003d0: 7be5 dbbc 9c6d b0bd 4bda 1d3c 5faa 3abc
000003e0: 5d6b 063e ee9d 80bd 234e be3d 7a57 8d3d
000003f0: d7fe 963c 6364 083d 4216 ba3d c803 783e

conv1.bias f4 [64]
0.085307546 0.04487242 0.012313117 0.03773063 -0.069316566 -0.102259435 0.032208107 0.056835733
0.028372943 -0.0037876808 0.03805093 -0.05295421 0.007860429 -0.10443583 -0.048893772 0.021327699
-0.11642601 -0.09737902 -0.07221811 0.044840906 0.019576244 0.025526049 0.014212256 0.026818478
0.051774018 0.0017522103 -0.0623181 0.025160566 0.013624094 0.0067909574 0.012239622 0.05209461
0.08464119 -0.08549424 0.07466884 0.039637182 -0.00076879584 0.017531104 -0.105620414 -0.055210564
-0.00040961476 0.0063142464 -0.0594451 0.012211641 -0.07377178 -0.01810266 -0.05274454 0.058298778
0.017284527 0.045233402 -0.042127274 -0.0006881851 0.05765669 -0.08461036 0.019086795 0.07433601
0.09210579 -0.04694311 0.0132398615 0.042973243 0.0071590487 0.01947065 -0.08490954 -0.07622895
00000000: b9b5 ae3d 25cc 373d f5bc 493c 6f8b 1a3d
00000010: d8f5 8dbd 656d d1bd a6ec 033d 96cc 683d
00000020: 606e e83c bd3a 78bb 4bdb 1b3d 84e6 58bd
00000030: 07c9 003c 74e2 d5bd d644 48bd 6db7 ae3c
00000040: c370 eebd a76e c7bd 17e7 93bd 19ab 373d
00000050: 5c5e a03c 011c d13c 86da 683c 6db2 db3c
00000060: fe10 543d 6caa e53a 4441 7fbd 881d ce3c
00000070: 9837 5f3c ae86 de3b b288 483c 2861 553d
00000080: 5c58 ad3d 9b17 afbd faeb 983d 995a 223d
00000090: 0489 49ba 649d 8f3c 844f d8bd 7924 62bd
000000a0: 90c1 d6b9 bde7 ce3b b57c 73bd 5613 483c
000000b0: a915 97bd 084c 94bc a90a 58bd b3ca 6e3d
000000c0: 4898 8d3c a946 393d a68d 2cbd 5267 34ba
000000d0: 6c29 6c3d 3248 adbd e95b 9c3c 7a3d 983d
000000e0: f6a1 bc3d 6b47 40bd 01ec 583c b604 303d
000000f0: 7496 ea3b ea80 9f3c 0ee5 adbd ec1d 9cbd

conv2.weight f4 [32, 64, 1, 1]
-0.040720314 -0.09373534 0.082404405 0.06784669 0.02285844 0.015861005 -0.03716302 0.041898176
-0.0016583451 0.038059175 -0.04761818 0.059588745 0.05178614 -0.107725754 -0.11824249 0.10700547
-0.031244308 -0.115602165 0.111020654 -0.072071336 0.11393308 0.06762327 -0.038718898 0.09260138
0.0074953884 0.08449817 -0.11876111 -0.13894899 0.07691467 -0.12004246 0.01851091 0.07564488
0.08997227 -0.042081773 -0.0639334 -0.04942146 -0.085759535 -0.07508469 0.121984884 -0.056493163
0.039990664 -0.10340843 -0.09591598 0.057907645 0.085374326 -0.038586058 0.084790826 -0.0018851683
-0.0483767 0.028874181 0.03323318 -0.09107773 -0.076043166 0.12026352 0.039151374 -0.12005773
0.042009436 -0.03696832 0.07841888 -0.011102151 -0.0450401 -0.099488534 0.020051554 0.10542688
-0.14891031 0.22692381 -0.16733617 0.21882474 0.045642883 -0.10676381 -0.075780526 0.1616862
-0.20580314 0.97626984 -0.14188586 0.08027777 -0.06301478 -0.10223789 -1.2719836 -0.032439083
-0.028469814 -0.027264237 0.002002924 0.11149027 0.066388875 -0.057753623 -0.06366451 -0.20103106
0.09491807 -0.06656168 0.014500082 0.06639904 -0.012605512 -0.09922742 -0.30135942 0.014800186
-0.046433795 -0.054553464 0.14475088 0.15420504 1.0625868 -0.20308776 0.10903528 0.020773083
-0.76243395 -0.10789411 -0.0099608395 -0.16245256 -0.10700835 -0.1795667 -0.1176663 -0.08000262
-0.18724102 -0.20076296 0.025597831 1.6822437 -0.12761348 0.050450485 -0.19092561 0.092762336
0.1350858 0.117443666 -0.19611397 -0.1635857 0.02776136 0.088582255 -0.076929644 -0.032276712
0.0046694833 -0.032240413 0.16559274 -0.20022969 -0.112147436 -0.038538083 -0.023671754 -0.14662571
0.09320478 -0.1316582 -0.08951737 0.07829732 0.11881808 -0.014913278 -0.060463402 -0.03661965
-0.015516717 0.015977219 -0.08096266 -0.24004786 -0.48700523 -0.17136748 -0.098096214 0.10036731
0.02548244 0.08966142 0.076876074 0.08661577 0.11475136 -0.0039113183 0.030630276 -0.044590984
0.110263266 -0.087353185 -0.18192379 -0.017324097 -0.20015068 0.14572696 -0.054825455 0.07172188
0.5686361 0.05014943 0.08551793 0.12277031 -0.051104695 -0.022456327 0.08244655 0.10723957
-0.07334394 0.119914316 -0.07620375 -0.14749232 -0.046830364 -0.10402513 0.0864777 0.09962534
0.007587084 -0.087134585 0.028606797 0.029175498 -0.009481704 0.06702424 0.08016339 -0.090503745
-0.07190961 0.23365292 -0.18897267 0.09017742 0.077883005 -0.07445641 -0.12399065 0.051440727
-0.25606427 0.95302826 0.022120377 -0.101885915 -0.05987692 -0.077474825 -0.51727545 -0.11593169
0.010607227 -0.108413935 0.095966764 0.06088857 0.18297094 0.13253881 0.05923726 -0.07250134
0.05699531 -0.14408424 0.0047582686 0.06415194 -0.005265938 0.049923427 -0.20733017 0.14664271
0.004620579 -0.0030390471 0.139047 0.13931784 0.7160333 -0.20995842 0.064820334 -0.004951939
0.43971547 -0.003397052 0.009311146 -0.13819094 0.032801792 -0.020307586 0.034384016 -0.10869307
-0.24600136 -0.1620768 0.107554585 1.4358995 -0.12288958 -0.11164179 0.01002409 0.020277614
-0.12311591 -0.0196065 0.021060266 0.0353357 -0.053097684 0.003047002 -0.04221882 -0.08455512
00000000: 58ca 26bd 50f8 bfbd a4c3 a83d 35f3 8a3d
00000010: a041 bb3c f0ee 813c 4038 18bd 6c9d 2b3d
00000020: d45c d9ba f0e3 1b3d 480b 43bd 5413 743d
00000030: b41d 543d 529f dcbd 1e29 f2bd af25 db3d
00000040: 10f4 ffbc d4c0 ecbd cc5e e33d 239a 93bd
00000050: bf55 e93d 127e 8a3d b597 1ebd cba5 bd3d
00000060: e09b f53b 600d ad3d 0639 f3bd a548 0ebe
00000070: 7085 9d3d d2d8 f5bd 31a4 973c b4eb 9a3d
00000080: 6243 b83d f05d 2cbd 84ef 82bd 286e 4abd
00000090: b2a2 afbd 00c6 99bd 36d3 f93d 6065 67bd
000000a0: 40cd 233d cdc7 d3bd 996f c4bd 9130 6d3d
000000b0: bcd8 ae3d 6a0c 1ebd d0a6 ad3d c017 f7ba
000000c0: a626 46bd 8c89 ec3c 841f 083d f686 babd
000000d0: 85bc 9bbd b84c f63d 315d 203d d4e0 f5bd
000000e0: 1612 2c3d 186c 17bd 149a a03d cce5 35bc
000000f0: f87b 38bd a5c0 cbbd 2843 a43c 0cea d73d
00000100: f27b 18be b75e 683e 2c5a 2bbe 9813 603e
00000110: 08f4 3a3d fca6 dabd d232 9bbd 1191 253e
00000120: 0fbe 52be d2ec 793f 874a 11be ac68 a43d
00000130: e50d 81bd 1962 d1bd 5cd0 a2bf d8de 04bd
00000140: 8739 e9bc 4059 dfbc 7d43 033b 0355 e43d
00000150: e4f6 873d 108f 6cbd 8a62 82bd 16db 4dbe
00000160: 6864 c23d 7d51 88bd c091 6d3c 38fc 873d
00000170: 5987 4ebc bf37 cbbd c84b 9abe 7b7c 723c
00000180: 5d31 3ebd 7473 5fbd 9339 143e ede7 1d3e
00000190: d802 883f 3df6 4fbe e44d df3d 502c aa3c
000001a0: df2e 43bf 96f7 dcbd ca32 23bc f759 26be
000001b0: 3227 dbbd 55e0 37be 07fb f0bd 6ad8 a3bd
000001c0: 1cbc 3fbe ce94 4dbe 8bb2 d13c c353 d73f
000001d0: 1cad 02be 2ba5 4e3d 0182 43be 2efa bd3d
000001e0: ef53 0a3e 4e86 f03d 1ad2 48be 0283 27be
000001f0: cb6b e33c 9d6a b53d 4a8d 9dbd 9634 04bd
00000200: 7702 993b 860e 04bd 2591 293e 0309 4dbe
00000210: 8ead e5bd 1cda 1dbd 44eb c1bc 0d25 16be
00000220: 26e2 be3d 68d1 06be e254 b7bd 585a a03d
00000230: e556 f33d d256 74bc 79a8 77bd 7cfe 15bd
00000240: d439 7ebc a8e2 823c c0cf a5bd 1bcf 75be
00000250: c058 f9be f57a 2fbe abe6 c8bd 608d cd3d
00000260: 8dc0 d03c 68a0 b73d 3471 9d3d 9c63 b13d
00000270: c302 eb3d 842a 80bb 58ec fa3c 09a5 36bd
00000280: b5d1 e13d 3ae6 b2bd 3b4a 3abe 44eb 8dbc
00000290: 4df4 4cbe 7339 153e a890 60bd ece2 923d
000002a0: 2392 113f 7d69 4d3d 0624 af3d 006f fb3d
000002b0: 2853 51bd 55f6 b7bc bdd9 a83d 6ba0 db3d
000002c0: 5935 96bd a395 f53d b610 9cbd 3a08 17be
000002d0: 32d1 3fbd 210b d5bd 381b b13d 5f08 cc3d
000002e0: 139d f83b 9e73 b2bd cd58 ea3c 7401 ef3c
000002f0: 2659 1bbc 0144 893d b42c a43d 075a b9bd
00000300: 5845 93bd b642 6f3e 0d82 41be f0ae b83d
00000310: 2081 9f3d 9a7c 98bd cfee fdbd 83b3 523d
00000320: db1a 83be a9f9 733f cb35 b53c 90a9 d0bd
00000330: 8041 75bd 1fab 9ebd 2a6c 04bf 986d edbd
00000340: efc9 2d3c 2008 debd 398a c43d 4b66 793d
00000350: bc5c 3b3e 41b8 073e c5a2 723d 957b 94bd
00000360: ea73 693d d28a 13be 40eb 9b3b 1862 833d
00000370: e48d acbb 827c 4c3d 5c4e 54be 8229 163e
00000380: 3a68 973b c02a 47bb 5662 0e3e 56a9 0e3e
00000390: f54d 373f 57ff 56be 86c0 843d e043 a2bb
000003a0: 6322 e13e 13a1 5ebb c78d 183c ed81 0dbe
000003b0: 2c5b 063d 185c a6bc 41d6 0c3d 799a debd
000003c0: c8e7 7bbe 76f7 25be 9445 dc3d 8ecb b73f
000003d0: 88ad fbbd 73a4 e4bd 153c 243c 3d1d a63c
000003e0: 3224 fcbd d09d a0bc 9486 ac3c 2bbc 103d
000003f0: f57c 59bd 36b0 473b a4ed 2cbd 3c2b adbd

conv2.bias f4 [32]
-0.085463956 0.10835851 0.0082609495 0.011089466 -0.11938932 0.089983374 -0.012067568 0.0038953398
0.020114373 -0.15083748 -0.058057845 -0.120840475 -0.102104425 0.03703997 0.09108118 0.12024493
0.06125931 0.057695568 0.05642713 0.040118564 -0.05322015 0.043945577 0.07516855 -0.16343454
-0.07835884 0.077464595 -0.12946303 -0.13498618 -0.115471825 0.038123157 -0.016272057 0.05681507
00000000: ba07 afbd 11eb dd3d ef58 073c 97b0 353c
00000010: 6382 f4bd 3449 b83d 0cb7 45bc f548 7f3b
00000020: e6c6 a43c 2475 1abe 10ce 6dbd 367b f7bd
00000030: 201c d1bd 39b7 173d c588 ba3d f942 f63d
00000040: 0beb 7a3d 3052 6c3d 2220 673d 5d53 243d
00000050: 5ffd 59bd 4700 343d f8f1 993d 625b 27be
00000060: 997a a0bd c2a5 9e3d f591 04be d139 0abe
00000070: 7e7c ecbd 0727 1c3d fa4c 85bc ebb6 683d

conv3.weight f4 [1, 32, 5, 5]
0.03013267 -0.0284509 -0.00041191533 0.009920068 -0.0094716465 -0.013195095 -0.036924873 0.0074103745
-0.015540174 -0.027830197 0.0137442835 -0.025252815 -0.019610025 0.0111924 -0.014169746 -0.023318388
-0.027743774 0.012984975 0.006741617 -0.011535235 0.011065189 0.024337446 -0.02195357 0.0045264657
0.019364433 -0.07191919 -0.0825987 -0.08532234 -0.04839399 -0.060098875 -0.085925005 -0.085526325
-0.08788986 -0.03519449 -0.077434726 -0.13088162 -0.09420736 -0.09222251 -0.093596354 -0.10798722
-0.08701406 -0.08269077 -0.11658389 -0.080044486 -0.07141002 -0.087720394 -0.083478436 -0.1335957
-0.10911348 -0.11154434 0.009022117 -0.02141892 0.06993861 0.015837887 -0.029888682 0.03291762
0.032094344 0.09215142 0.015350489 -0.0027164484 0.109210804 0.06845386 0.2259597 0.08341825
0.08329885 0.02998052 0.017864052 0.079770915 0.0038499583 -0.026209438 -0.040867828 -0.03733828
0.084224574 -0.023007521 -0.00652713 -0.018533148 -0.042546973 -0.10106581 -0.030175868 -0.044024613
-0.070090614 -0.067468986 -0.09731251 -0.041982725 -0.0727167 -0.03823732 -0.012774249 -0.043631844
-0.037961487 -0.05019866 -0.01068046 -0.049432494 -0.067517005 -0.06101944 -0.06415358 -0.029148815
-0.07238721 -0.1183085 -0.099343084 -0.12661435 -0.019468267 0.009829439 -0.02426002 0.03257216
0.05125038 0.0066809575 -0.026752125 -0.066352345 -0.04517342 0.014895574 -0.0690527 -0.10614395
-0.2032915 -0.10234091 -0.070091076 -0.012706042 -0.08983839 -0.11134329 -0.108264424 -0.014082997
0.062044926 -0.00240035 -0.07921513 -0.019794349 0.04600726 0.08955871 0.068302244 0.11281192
0.09390113 0.06748707 0.0758547 0.01714357 0.05434742 0.07750091 0.109020926 0.069406286
0.030058611 0.09749971 0.06937958 0.12292018 0.05185263 0.047352828 0.059754964 0.064046666
0.09824555 0.058144983 0.06327847 0.056173984 0.051211838 0.0777325 -0.054302625 -0.0284987
0.07720903 -0.052954648 -0.006336603 -0.010240484 -0.008445067 0.06599267 -0.013512911 -0.069158226
0.07824512 0.063030824 0.1750512 0.05261701 0.07255448 -0.029740278 -0.05953315 0.04498094
-0.028381782 -0.039928354 -0.091110766 -0.100355 0.059021305 -0.05588103 -0.037288997 -0.07591223
-0.049092624 0.075100414 -0.008215726 -0.0469598 -0.064837225 -0.07286866 0.07691123 -0.03334422
-0.07684299 0.04142809 0.06253508 0.23252088 0.079971604 0.07161886 -0.052198295 -0.067647554
0.11988156 -0.03214251 -0.051319495 -0.06228358 -0.08837956 0.06948285 -0.06347064 -0.055346735
0.050070416 0.04104667 0.11481075 -0.0025004544 0.022816284 0.051877543 0.040606435 0.12906751
0.016059566 -0.03944591 0.1296838 0.14092919 0.2709506 0.10503255 0.13292964 0.031803466
0.0057675913 0.09655518 0.008600241 -0.024407595 0.054066114 0.045465093 0.12635028 -0.0052053407
0.022134205 -0.03336353 -0.022385681 0.027623715 -0.009918256 0.015041463 -0.0017659146 -0.036802553
-0.029025944 0.023460677 0.010594518 0.003842979 0.0064769215 0.007126937 0.024937473 0.017933635
-0.024684655 -0.013136962 0.009519754 -0.044232216 0.022079665 -0.00085481553 -0.026850149 0.018963458
0.02573011 -0.025036097 0.019269707 0.026601419 0.013514697 -0.0014400701 0.027494432 0.034318548
00000000: cad8 f63c dd11 e9bc 57f6 d7b9 c887 223c
00000010: f72e 1bbc 3d30 58bc 893e 17bd bad2 f23b
00000020: 379c 7ebc 27fc e3bc b42f 613c fede cebc
00000030: 34a5 a0bc 5460 373c 3928 68bc 3406 bfbc
00000040: e946 e3bc efbe 543c c8e8 dc3b 48fe 3cbc
00000050: c44a 353c 535f c73c f9d7 b3bc bf52 943b
00000060: 29a2 9e3c 5e4a 93bd 8229 a9bd 7bbd aebd
00000070: c738 46bd 3d2a 76bd 73f9 afbd 6d28 afbd
00000080: 99ff b3bd 1928 10bd 1996 9ebd d505 06be
00000090: caef c0bd 28df bcbd 72af bfbd 6728 ddbd
000000a0: 6d34 b2bd c759 a9bd 89c3 eebd 5dee a3bd
000000b0: 6b3f 92bd c0a6 b3bd bef6 aabd 50cd 08be
000000c0: e376 dfbd 5c71 e4bd 80d1 133c bb76 afbc
000000d0: f93b 8f3d 75be 813c 1cd9 f4bc a0d4 063d
000000e0: 5c75 033d e2b9 bc3d 9e80 7b3c 7106 32bb
000000f0: eaa9 df3d 8a31 8c3d fb61 673e 30d7 aa3d
00000100: 9698 aa3d b599 f53c a257 923c ef5e a33d
00000110: 954f 7c3b 2db5 d6bc 0665 27bd 06f0 18bd
00000120: ef7d ac3d 457a bcbc 89e1 d5bb d4d2 97bc
00000130: bc45 2ebd 97fb cebd 6233 f7bc 2753 34bd
00000140: ab8b 8fbd 2e2d 8abd c84b c7bd 14f6 2bbd
00000150: 7eec 94bd bc9e 1cbd 154b 51bc 4eb7 32bd
00000160: 817d 1bbd 1c9d 4dbd 19fd 2ebc ba79 4abd
00000170: 5b46 8abd 85ef 79bd f462 83bd 7fc9 eebc
00000180: bf3f 94bd ba4b f2bd 6374 cbbd 31a7 01be
00000190: ea7b 9fbc a80b 213c f3bc c6bc 636a 053d
000001a0: ebeb 513d efeb da3b 4627 dbbc bde3 87bd
000001b0: c407 39bd 910c 743c 816b 8dbd 0062 d9bd
000001c0: a62b 50be 1c98 d1bd e98b 8fbd 012d 50bc
000001d0: 31fd b7bd f307 e4bd bdb9 ddbd 5fbc 66bc
000001e0: d222 7e3d 314f 1dbb 8b3b a2bd c227 a2bc
000001f0: 1c72 3c3d 8f6a b73d 0ce2 8b3d f009 e73d
00000200: 3c4f c03d a936 8a3d b559 9b3d ac70 8c3c
00000210: 669b 5e3d ccb8 9e3d 5d46 df3d e224 8e3d
00000220: 7a3d f63c eead c73d e216 8e3d 93bd fb3d
00000230: 6c63 543d 0af5 413d 9fc1 743d e62a 833d
00000240: f734 c93d 6f29 6e3d 2498 813d b116 663d
00000250: 81c3 513d 3832 9f3d 6e6c 5ebd 1b76 e9bc
00000260: c51f 9e3d f9e6 58bd 47a3 cfbb b4c7 27bc
00000270: 2e5d 0abc 2a27 873d 4265 5dbc d4a2 8dbd
00000280: fa3e a03d 4e16 813d 9f40 333e ef84 573d
00000290: 7197 943d e2a1 f3bc 08d9 73bd ef3d 383d
000002a0: e980 e8bc ea8b 23bd 4898 babd ec86 cdbd
000002b0: 53c0 713d 82e3 64bd 59bc 18bd df77 9bbd
000002c0: 5915 49bd 3fce 993d 419b 06bc eb58 40bd
000002d0: 61c9 84bd 2a3c 95bd a383 9d3d f393 08bd
000002e0: dc5f 9dbd 80b0 293d 6412 803d f419 6e3e
000002f0: 27c8 a33d e9ac 923d e1cd 55bd cd8a 8abd
00000300: 7784 f53d dda7 03bd 6434 52bd 111d 7fbd
00000310: 5800 b5bd 064d 8e3d e5fc 81bd 42b3 62bd
00000320: a316 4d3d 8e20 283d e621 eb3d aade 23bb
00000330: 37e9 ba3c 8c7d 543d ef52 263d 462a 043e
00000340: 5a8f 833c 0992 21bd d4cb 043e be4f 103e
00000350: 09ba 8a3e 4e1b d73d b51e 083e 5a44 023d
00000360: 10fe bc3b b9be c53d 06e8 0c3c 70f2 c7bc
00000370: 6e74 5d3d 9b39 3a3d f861 013e 9091 aabb
00000380: cb52 b53c 32a8 08bd 2d62 b7bc 214b e23c
00000390: 2e80 22bc 7870 763c 4376 e7ba 46be 16bd
000003a0: d1c7 edbc 9b30 c03c a194 2d3c 7dda 7b3b
000003b0: 5b3c d43b 1589 e93b ac49 cc3c 8fe9 923c
000003c0: 7937 cabc 6a3c 57bc bef8 1b3c d72c 35bd
000003d0: 6ae0 b43c b315 60ba d8f4 dbbc 4159 9b3c
000003e0: f4c7 d23c 8018 cdbc 81db 9d3c 38eb d93c
000003f0: bf6c 5d3c bcc0 bcba 013c e13c 9b91 0c3d
