weights/best_model_lapsr.pth (torch, 154583 bytes, 5 tensors)

conv1.weight f4 [64, 1, 3, 3]
00000000: f39b 2cbf 516d 84bf e4d5 c7be 2521 0bbf
00000010: b1c1 fcbe 1fac 3cbf 6881 35bf 6f74 8fbf
00000020: 67a2 82bf 0253 4dbe 22bd c03e 57c9 d5bb
00000030: 0935 803e ed41 9c3d 70fe 3b3b d15c 7dbe
00000040: 5e6f 383d 5a77 37be 37d6 7abe 659c 8ebe
00000050: 4146 f1be 958b 96be c74f 98be 5388 5bbe
00000060: cde8 84be 337d b8be 115a b5be 631e 2a3e
00000070: 46a2 563d 2677 80bd 94e9 0b3f 21e8 033f
00000080: 7e18 d53e 3279 fc3e eedc bf3e f19c 0c3f
00000090: de6c e1bd 3704 aa3d fdeb 6fbe 63ad 8fbe
000000a0: e925 c0bd a190 f3bd d16a b03e 1396 6f3e
000000b0: 0424 a03e 2816 f8be ca66 0ebe 8023 8cbe
000000c0: 4b6f 0bbf 8bf5 1ebf 423b 13bf 20e0 a8be
000000d0: 707d 9cbe 13ae 3abb d65b 043e 57a3 da3d
000000e0: 5dd4 643e 659b 5b3d 225c be3e cabf 183f
000000f0: 13f4 0c3f 0ebc 9e3e 20a9 093f 3517 843d
00000100: 795c e2be 31be 53be e7c6 b6be 5c9a 88bd
00000110: dae4 823e d81e 92bc 1a1e 05bf 3ddd dd3d
00000120: adbb f7bd 0d4f 5a3e 0473 ce3e 70bd 83bd
00000130: 6712 3f3e 9653 a73e f6c2 bd3b 9785 f1bd
00000140: e1cd 80be eece cfbe 26d9 abba 1ccd 823e
00000150: ff07 07be 9cf7 c6bc f8c7 5fbe b59b 0bbf
00000160: 1ea6 87be 640d 83bd 68f7 183e 2f6f 53be
00000170: 2fd1 383e f54b 47be 93f5 b8bd d86b 7fbd
00000180: ec27 973e 53d6 e03e 6c06 053f 7d69 b13b
00000190: 3039 3cbe 1794 a43e 572a f23d cee0 463d
000001a0: 1cca 1b3e 86ce 383e 275b a43d 3c6b 643e
000001b0: dcf2 13bf e7ad fdbd 331f 15be 85b9 c1be
000001c0: c4d1 c0be 02c8 bcbe 08e2 25be 4342 26be
000001d0: e832 09bf efcd a73e 0310 c43e 2397 c4bb
000001e0: f2b5 313d b906 b63e 2fd4 bf3e 0958 f83c
000001f0: f860 013f 914c 043f af87 ad3d a349 06bf
00000200: 52c1 bcbe 99f2 f1be 97b6 30ba 2949 b9be
00000210: 8f7d 6ebd d407 81be 40cb 86bd cafc 66be
00000220: b0f4 ddbd 51c2 09be 38ac e2be fa9d 18bf
00000230: 6b37 90be e367 c23b f764 13bf 2115 e7be
00000240: abb9 8b3e f12b 943e 78a4 963d 1df3 5c3c
00000250: 7a16 7e3a c4bd 00be 2246 993e fdf3 77be
00000260: 1fc1 243d 4fc5 793e c1df 6c3e b6ae b73e
00000270: f142 ef3e b6ad c6bd aa28 b73e ad81 8e3e
00000280: c386 e1bc a8f2 013f 3824 ebbe ba12 19be
00000290: cf8c aabe c01c 05be f645 063d faaf d6bd
000002a0: 2dbf e2be 0edb babc f4d9 02bf 171f dc3e
000002b0: 53e1 e13e 2640 d73e 8d29 d23e b347 a23d
000002c0: dbaf 8e3e 2d46 df3e 4fc9 8b3e df4e b83e
000002d0: ff78 e4bc 73b0 c33e 74a2 c93d 6a44 9d3d
000002e0: 6936 fe3e 6924 fb3e 677c bb3e ae05 f03e
000002f0: 6958 f23e 6b8f 99bd 7430 32bd 513b 143e
00000300: 789d 413e 9e4c 543e 0fc3 ce3e 1f1c 1abe
00000310: 7930 053f a216 f33d 7bf8 46be 80bf c73e
00000320: 04cd f23d ce74 8f3e ce13 6abe ab6e f43e
00000330: 5a29 503e b5a7 4e3e 57bc d3bd 7f35 83be
00000340: 6add f2be 280f 07bf 841a 6fbe c454 ccbe
00000350: bfe0 80bd 985b 053d df4a aebd ae06 abbe
00000360: 9e73 373e fe21 583e 23bb 993e 8e5a e03e
00000370: 1f6d 023e 4289 153f 003c 1c3f 458d e73e
00000380: 8618 d33e c767 f53e a30a 003f 529a e43d
00000390: ac09 4b3e 6d51 943e 5f7a 013e 20a0 d63e
000003a0: 23b3 103f 0665 0c3e 4fb9 093f 1860 b93e
000003b0: e717 063f e8d4 c53d a231 4d3d 0ae2 f6bd
000003c0: f677 003f 0c8c 0b3f 3722 0b3e 92da eb3e
000003d0: 80e6 103e 8be9 4ebd c8ef 073f 82eb 0f3e
000003e0: f953 063f 30a8 db3e c8f6 1d3f bbbf 503e
000003f0: 61eb bf3e 34d6 853e 1bdf 66bd b6d9 8a3e
-0.6742546 -1.0345861 -0.39030373 -0.5434745 -0.49366525 -0.73700136 -0.70900583 -1.1207408
-1.0205811 -0.20051196 0.37644297 -0.0065242457 0.25040463 0.07629762 0.0028685592 -0.24742438
0.045028083 -0.17916623 -0.24495779 -0.27853695 -0.47123912 -0.29403368 -0.29748365 -0.21438722
-0.25958863 -0.3603302 -0.35420278 0.16613154 0.05240085 -0.06272726 0.54653287 0.51526076
0.4162025 0.49311215 0.37473243 0.54926974 -0.11007093 0.08301585 -0.23429866 -0.2806197
-0.09382231 -0.1189282 0.34456494 0.23397093 0.31277478 -0.48454404 -0.13906398 -0.27370834
-0.54466695 -0.6209342 -0.57512295 -0.32983494 -0.3056445 -0.0028485104 0.12925658 0.10675686
0.22346635 0.053614993 0.37179667 0.59667647 0.5505993 0.3100285 0.5377369 0.06449739
-0.44211176 -0.20678021 -0.35698625 -0.06670067 0.25565225 -0.017836973 -0.51999056 0.108332135
-0.12096343 0.21319218 0.40322125 -0.06432617 0.18659364 0.32680959 0.0057910634 -0.11793058
-0.25157073 -0.40587562 -0.001311098 0.2554711 -0.13186644 -0.024287991 -0.21853626 -0.54534465
-0.26493925 -0.063990384 0.14938128 -0.20647882 0.18048547 -0.19462569 -0.090312146 -0.062358707
0.29522645 0.43913516 0.51962924 0.0054141865 -0.1838119 0.32144234 0.11824482 0.048554234
0.15213817 0.18047532 0.080251984 0.22306532 -0.5779245 -0.12386685 -0.14562683 -0.37836853
-0.37660038 -0.36871344 -0.16199505 -0.16236214 -0.535933 0.32774302 0.38293466 -0.005999462
0.043386407 0.35552004 0.3746657 0.030315416 0.5053859 0.5167933 0.08473145 -0.5245611
-0.36866242 -0.472554 -0.0006741075 -0.3618863 -0.05822521 -0.25201285 -0.065817356 -0.22557369
-0.10837686 -0.13453032 -0.44272017 -0.59616053 -0.2816728 0.0059327944 -0.57575935 -0.45133308
0.2729009 0.28939775 0.07355589 0.013485697 0.00096926803 -0.1257239 0.2993632 -0.24214168
0.040223237 0.24391674 0.2313223 0.3587548 0.4673076 -0.097011015 0.35773212 0.2783331
-0.02753008 0.5076089 -0.4592607 -0.1494855 -0.33310553 -0.12999249 0.032781564 -0.104827836
-0.4428648 -0.022809532 -0.5111382 0.4299247 0.4411722 0.4204113 0.41047326 0.07923832
0.27868542 0.43608227 0.27302024 0.35997674 -0.027889727 0.38220558 0.098454386 0.076790646
0.49650887 0.49051216 0.3661835 0.46879333 0.47333077 -0.07498058 -0.04350324 0.14475752
0.18907726 0.20732352 0.40383193 -0.1504979 0.5202709 0.11869551 -0.19430725 0.3901329
0.1185551 0.28018802 -0.22859117 0.47740683 0.20328274 0.20181163 -0.10338657 -0.25626752
-0.4743455 -0.527575 -0.23349959 -0.3990842 -0.06292867 0.032558054 -0.08510374 -0.33403534
0.17915198 0.21106717 0.30025586 0.43819088 0.12736939 0.58412564 0.6102905 0.45224968
0.41229647 0.47930738 0.5001623 0.11162247 0.19827908 0.28968373 0.12644337 0.4191904
0.5652334 0.13710412 0.53798383 0.36206126 0.5238022 0.09659749 0.05009616 -0.12054832
0.50183046 0.5451057 0.1358727 0.46065193 0.14150429 -0.050515693 0.5310025 0.14054683
0.5247188 0.42901754 0.61704683 0.2038564 0.37484267 0.26139987 -0.056365114 0.27119225

conv1.bias f4 [64]
00000000: af91 d13c f4a3 453e 58a3 45bd cec8 023e
00000010: 9d2a cb3d c81d b6bc 1ab6 873b 1988 3ebe
00000020: ff06 893e 5e2b 19be 27c9 8f3c 177f 813e
00000030: 785c 543e 9a71 cbbd b7ff 83bd b965 8d3e
00000040: ca5c 5a3e 83c1 63bd 6644 793e c1ad 803e
00000050: b0d2 e53d 233a 2b3e d282 bfbd 4300 94bd
00000060: 5796 5d3d 2655 203e 6fd6 9dbc 5b8d 17be
00000070: 0bd2 01be 62c6 1a3e 4e54 903e 33db 07be
00000080: 78f5 6b3e 2b6a eb3d 1b26 84be c8c9 bb3c
00000090: 4cec 193e 1766 7d3a d47e 74be bdeb f43c
000000a0: bb1b d1bd e0c9 563e f6f4 1cbd 44d7 593e
000000b0: c1ec 59be f190 2a3e 910f e13d 1fa9 593e
000000c0: a93d 3eba 46fb 033d f3c6 bf3d 9e95 9c3d
000000d0: 25ad 163e 2017 a5bd 3aab ee3d f23d 5cbe
000000e0: 0223 8fbe 6e14 45bd 09a6 94be e7db 64bd
000000f0: 8f97 5bbc a805 1b3e ce44 95bd 0522 233e
0.025582163 0.19300824 -0.04825148 0.12771913 0.09920237 -0.022230998 0.0041415812 -0.18606605
0.2676315 -0.1495795 0.017551972 0.25292274 0.20738399 -0.09933777 -0.06445258 0.2761667
0.21324459 -0.05560447 0.24342498 0.25132564 0.11221826 0.16721396 -0.09351124 -0.072266124
0.054098453 0.15657482 -0.019267289 -0.14800017 -0.12677781 0.1511474 0.2818932 -0.13267212
0.23042858 0.11494859 -0.25810322 0.022923365 0.15031546 0.00096663967 -0.23876506 0.029897565
-0.10210367 0.20975447 -0.03831955 0.21273524 -0.2128172 0.16656853 0.10989297 0.21255921
-0.0007257113 0.032222055 0.093641184 0.07645725 0.14714487 -0.08061051 0.116537526 -0.21508005
-0.27956396 -0.048115186 -0.29032925 -0.055873778 -0.013402834 0.15138876 -0.07288514 0.15930946

conv2.weight f4 [64, 64, 3, 3]
00000000: 67ab 69bc e535 97bc 0d65 d6bd 239e 3abd
00000010: cb97 98bd e3b3 d6bc 86fe 49bc 089b 81bd
00000020: 3c28 8abc f008 a9bc ae9e 0f3d 4cc5 a3bc
00000030: 6c05 143d 2b98 75bc 381a b83c 9b0a d53c
00000040: 8edb 463c 8f2e 32bc 8fc2 9b3b 93ef 513c
00000050: c679 dd3c 0eeb e5bb 5afd 8abb af5f c9bc
00000060: 785d cdbc 8401 d7bb 9e9b 5fbb fced 16bd
00000070: 124b d03c 83a5 563c 02de bf3c f520 b13c
00000080: 50a3 c6bc 4e69 18bd 6aea 9dbc cb42 fd3c
00000090: 006e 193d 18a5 26bc 5f00 113d a763 bfbc
000000a0: 80cb a6bb 4d6c 39bc ce6f 20bd f83f ba3c
000000b0: 352d 673c e0bb 333b d6bd 82bd 405d 37bc
000000c0: 0256 3d3c 7324 39bd 36a9 18bd 8f53 58bd
000000d0: 70ec 4abc 4609 aabb 6829 273d e826 bd3d
000000e0: dce6 c73d 6dd2 473d 2e23 f13d a810 f63d
000000f0: 3b98 fe3c db1c b83d d74e 103e f53d c33c
00000100: 12c3 7f3c 7658 0ebd 9afa 9f3c c34a d0b9
00000110: 6a6a 9e3b 1a16 973c 5cb3 c6bc b397 c7bc
00000120: c082 22bd aa2d 89bb 488a dabc d8ad df3c
00000130: 8b89 fe3c f67c 083d 5b7e 22bd 6ccc e1bc
00000140: 9e98 803c c01a 393c 5a6f d4bc 2b7a 0d3a
00000150: d582 273b b4be 21bc 6263 2e3d f980 aa3c
00000160: 2a2b b63b ba85 b43c 5683 a33c 0c92 84bc
00000170: e815 f13c 6ee7 5e3c febe 1cbd 6110 833a
00000180: 1e66 7b3c c553 923c 0c48 273c 0019 253d
00000190: fe5c e93c d2c1 0fbd 695f d53c 2cb1 963c
000001a0: 6bcd c9b8 02bb a9bc 30b6 f0bc 4d38 08bd
000001b0: 239d 973c 41fe e83c f795 39bd b0e3 fe3b
000001c0: ad24 163d 7528 33bc e841 fa3c a5e6 413a
000001d0: 1995 7dbc 8854 07bd ee52 1cbb 1f49 2e3d
000001e0: fa4f be3c 9bc9 0cbc 13a2 60bc bdf3 153d
000001f0: 1881 153c 9dcf 643b d542 3abb 092e a53c
00000200: c821 96bc 90b0 863c 632e 53bc ed8b 00bd
00000210: a6c2 1abd d49d 603b 4f3e 91bc 058a 8c3b
00000220: 881a a1bb b256 20bc 4258 29bc 0303 b53c
00000230: 4798 62bc e799 12bd c173 0f3d 6b8c 5bbc
00000240: 71c4 22bc 7297 10bc 7c21 f6bc 8619 583b
00000250: 1777 86bc f511 5e3c 74b3 123a 7bbd 9abc
00000260: 89ec 23bd 9a37 c7ba bc20 fc3c 7e88 06bd
00000270: f601 4f3c 5897 e13c 7c3c 113d 788f aabb
00000280: 9483 05bd cf0c 7abc d9a9 c23c 2dd9 d9bb
00000290: 5ee2 c4bc 3d0a 02bd 5f70 763c 0c9f cc3c
000002a0: dc97 f63c 646d 19bd aaaf 983b 7407 fd3c
000002b0: dbd6 c6bc cefc e7bc be01 403d c285 1a3d
000002c0: 4602 383d 76ca d5bc 0a42 b93c dae1 adbc
000002d0: 4bb3 68bc fe2b 08bd 384b 153d 9dde 9e3c
000002e0: 3484 193d 390d a93b 4ee1 b5bc 3740 0abd
000002f0: ef1c 403d aba7 903c 01c7 3cbc 9fff ec3b
00000300: de0b ddbb f4bc f33c 5558 273d 50f0 f43b
00000310: 1d2c a93b d4e0 1d3c 0846 63bc b67b 5c3c
00000320: 5080 a33c dd22 04bd 1d17 073d e5c5 ebbc
00000330: 3874 a43c ec3d 33bd eb6c 193c 3dbe b5bc
00000340: a2e6 d0bb 4cf5 4fbd 6fb7 ccbc 3464 243c
00000350: 6d61 bcbc 1f75 193c 3f47 69bc 127b a2bc
00000360: f592 6bbc ef48 0abc 0559 c63c 8006 093d
00000370: 8a57 76bc 8efe e13c 7a5f 0fbd c5af b63b
00000380: 055e b93c dda3 0ebd 76a2 743c d37a 603c
00000390: 5efe eabc aeb9 3a3b 80fb c2bc 4134 06bc
000003a0: acd5 8fbc 083f 143d 8d9e 8dbd 7537 363c
000003b0: 5035 703c 17a9 ccbd 1e8e 7fbc 699b d8bb
000003c0: ce7c 95bd 4f81 1dbd 069b aebc ace8 36bc
000003d0: 1b5c 08bd dee8 a0bc fa4b 6a3c e845 20bd
000003e0: 15e7 c63c 543e f2bc bf28 31bc c8e5 303d
000003f0: 75f8 aabc 0be1 8dbc e4b3 543d cbcb ce3c
-0.014262057 -0.018458316 -0.10468493 -0.045560967 -0.07450827 -0.026208824 -0.0123287495 -0.06328398
-0.016864888 -0.020634145 0.035063438 -0.01999154 0.036137983 -0.014989893 0.02247344 0.026006034
0.012137307 -0.010875358 0.004753418 0.012813467 0.027035605 -0.007016546 -0.0042416276 -0.024581758
-0.025068983 -0.00656146 -0.0034119855 -0.036848053 0.025426421 0.0131009845 0.023421291 0.02162216
-0.024247795 -0.0372098 -0.019276816 0.030915638 0.03745842 -0.010171197 0.035400745 -0.023362948
-0.005090177 -0.011317325 -0.039169125 0.02273558 0.014109899 0.0027425215 -0.063838646 -0.011191666
0.01155615 -0.045200776 -0.037270747 -0.052814063 -0.012385473 -0.0051890938 0.040810972 0.092359364
0.0976083 0.048784662 0.11774288 0.12014896 0.031078449 0.08989879 0.14092575 0.023833254
0.015610473 -0.03475233 0.019528676 -0.00039728553 0.004834463 0.018443156 -0.024255447 -0.024364328
-0.039675474 -0.004186352 -0.026677266 0.027304575 0.031071445 0.033322297 -0.039671283 -0.027563296
0.015697774 0.011297882 -0.025932003 0.00053969276 0.002556016 -0.009872127 0.042575248 0.020813452
0.005559345 0.022036422 0.019960087 -0.016182922 0.029429391 0.013604982 -0.03826808 0.0009999388
0.015344171 0.01786221 0.010210048 0.040307045 0.028486725 -0.03509695 0.026046472 0.018395029
-9.622689e-05 -0.020719055 -0.029383749 -0.033256818 0.018507546 0.02844155 -0.045309033 0.0077786073
0.03665607 -0.010934939 0.030549005 0.00073967344 -0.015477442 -0.0330396 -0.002385314 0.042550202
0.023231495 -0.008592988 -0.0137105165 0.0366094 0.009125017 0.0034913786 -0.0028421183 0.020163553
-0.018326655 0.016441613 -0.012889477 -0.031383444 -0.037783287 0.003427376 -0.017729906 0.004288914
-0.004916493 -0.009786295 -0.010335984 0.022096163 -0.013830251 -0.035791304 0.0350225 -0.0134001775
-0.009934531 -0.00882517 -0.030045263 0.0032974198 -0.016414208 0.013554086 0.00055961986 -0.01888918
-0.0400205 -0.0015199066 0.030777328 -0.032845013 0.012634745 0.027537987 0.035458073 -0.005205091
-0.032596186 -0.015261843 0.02376263 -0.006648204 -0.024033722 -0.031748045 0.01504144 0.024978183
0.030101709 -0.03745784 0.0046596127 0.030887343 -0.024272373 -0.028318789 0.04687666 0.037725218
0.044924043 -0.026097517 0.022614498 -0.021225858 -0.014202903 -0.03324508 0.036448687 0.01939326
0.037479594 0.005159047 -0.02220216 -0.033752646 0.046902593 0.017658075 -0.011522056 0.007232621
-0.0067457994 0.029753186 0.040855724 0.0074749365 0.0051627294 0.009636123 -0.013871677 0.013457229
0.019958645 -0.03225981 0.032981027 -0.028780887 0.020074949 -0.043760225 0.009364347 -0.02218544
-0.00637515 -0.050771043 -0.024989812 0.010033656 -0.022995675 0.009366303 -0.014238178 -0.019834075
-0.014378299 -0.00844024 0.02421237 0.033453465 -0.015035519 0.027587201 -0.035003163 0.0055751526
0.02262784 -0.03482424 0.014931312 0.013701159 -0.028685745 0.0028492021 -0.023801565 -0.008191169
-0.017557941 0.036192924 -0.06915007 0.01112162 0.014661148 -0.09993189 -0.015597848 -0.006610323
-0.07299195 -0.038453396 -0.021314155 -0.011163872 -0.033290964 -0.01964229 0.014300341 -0.039129168
0.02428011 -0.029570736 -0.010812937 0.043187886 -0.020870427 -0.017319223 0.05192937 0.02524366

conv2.bias f4 [64]
00000000: 0b5d a6bc 5083 3ebc c633 79bc e87f 16bd
00000010: 57ff 0c3d 3bf8 c93b 80f0 31bc a70e 573b
00000020: 45e3 803b 7251 343d 5df3 573d d568 51bc
00000030: 99c5 303d a85c 05bd 89cb e23c ab6f 383b
00000040: 0010 08bd c252 3abd e9a8 b8ba e8c0 68bc
00000050: 993e 853b d276 883c 5f30 c23c 8591 463d
00000060: 3851 dcbc c491 2dbd b597 31bd e621 8e3b
00000070: ec4a ab3b bfaa 33bd 80f1 523d 7401 853c
00000080: e940 9d3c 315f 46bc 34a0 0f3c 23a3 a8bc
00000090: d382 2bbc d6a6 0e3d 933d 2b3b aade f43b
000000a0: 85ed ceba f448 37bd 7bc6 babb 6664 ebbc
000000b0: d67d 52bc 19d7 f2bc 6cbe a53c 2ec6 693c
000000c0: 3756 d73c 1da4 28bd 32e7 9f3c 45c1 9cbc
000000d0: 3b3b fa3a 2014 0b3d 39c2 09bc 57ba 06bd
000000e0: 3ea6 fdbc 31c1 b23c e0bb f03c 45d3 0abd
000000f0: ec10 e43c 9cf9 03bc b2a8 873c 446c ba3c
-0.020308038 -0.011627987 -0.015210098 -0.036743075 0.0344232 0.0061636246 -0.010860562 0.003281513
0.0039333426 0.044022985 0.052722324 -0.012781342 0.043157194 -0.032559067 0.027684944 0.0028142731
-0.033218384 -0.04548908 -0.0014088425 -0.014206149 0.0040663 0.01665822 0.023704706 0.048478622
-0.026894197 -0.04237534 -0.04335757 0.004337537 0.0052274372 -0.043864008 0.051499844 0.016236044
0.01919599 -0.012107656 0.008766223 -0.020585602 -0.010468203 0.034827076 0.002612923 0.0074728327
-0.0015787339 -0.044747308 -0.0056999302 -0.028734397 -0.012847384 -0.029643582 0.020232402 0.014268441
0.026286228 -0.041172136 0.019519422 -0.019135127 0.0019091138 0.03395474 -0.008408123 -0.03289255
-0.03096306 0.021820636 0.02938646 -0.03389289 0.0278401 -0.008055117 0.016559932 0.022756703

conv3.weight f4 [1, 64, 3, 3]
00000000: 4370 18bb 51c9 b33c dfa3 1f3c e088 e8bc
00000010: dbad 623c 63cf 073d 14d1 35bc 7ba5 10bd
00000020: 8057 4f3c d7d7 a63c f175 4d3d 4d37 0b3d
00000030: 8ee1 d9bc 4eef 42bc e477 efbc 32bd 1bbd
00000040: fba0 ec3b 84a1 11bd 9f85 a23c 5f04 b8ba
00000050: 62b4 b33c 0766 8bbb e849 efbc 4bca 8bbc
00000060: 96e9 bf3c 764d e9bc 67ab 113c 9167 1cbd
00000070: 3948 193d 1f14 fa3c 38f3 1d3d 7f1a efbc
00000080: 9371 173d 9938 16bb 0122 923b 78db 343c
00000090: b4fe dfbc 057e 89bc aea9 dc3c 4ca1 803a
000000a0: ed1e 42bd e7e9 193d fdd0 b9bc 86ae a8bc
000000b0: daca 643c 0687 1e3d dc4e 453c 84fe 92bc
000000c0: 43b2 8fbc ba1b 15bd be01 013d 9290 d4bc
000000d0: 3af2 50bc 33b1 843c b88c 063d bb18 293d
000000e0: d4de 5f3d d31f 14bd 9a1c 4cbd 3e51 6d3c
000000f0: ba52 cbbc e2f3 27bd 5a02 8fbb efab 03be
00000100: d41f 0bbd 7507 debd 2da6 d3bd c9da 27bd
00000110: 4f27 d1bd 72db dfbd 323f 83bd 509e c0bd
00000120: 5a36 1dbd 297a c1bd d2be 97bd 60f7 d3bd
00000130: 9a36 01be c73d c1bd 4c69 c5bc 6f70 5dbd
00000140: 5776 80bc 222a 08bd 9d47 37bc 418f 803c
00000150: 6339 aa3c b6d7 623d 5836 a73c 1070 bcbc
00000160: 8a33 283a 54b6 3f3d f85c 16bd 4f47 25bc
00000170: 40c5 003a 5ea5 073d b215 653d c18c 543c
00000180: b2b8 c0bb 66ea 5d3a 9fd4 523d 3ab6 09bc
00000190: feab eabc 64ec 50bd d349 8f3d e8d0 f83c
000001a0: 69e2 7c3d cf24 5e3c e802 66bb 9648 683c
000001b0: 2886 1a3d 17cd b8bc 6204 bfbc ac89 8a3d
000001c0: 061f b23d 0d8e fb3c 26fb 443d a32c c43a
000001d0: 8d46 f4bc 7599 26bd 7d76 a33a ff93 25bd
000001e0: f4a2 20ba 32e5 babc ac7a f7bb 8b0f a0bb
000001f0: 720c 20bc caef 51bb c273 693c 59eb ad3c
00000200: 2fca f63b 3914 bf3c 2280 bbba 22a0 1b3d
00000210: 0524 353d 87af 113d ad50 cdbb ed03 af3a
00000220: 26a7 403d 314d 863b dede dbbb bbb2 8e3d
00000230: 5f2c dcbc 841e 7cbd 9e77 b43d 79cc 73bc
00000240: 26de 0abd 32d9 28bd 4399 823c feba f43c
00000250: 676f 29bc 0220 61bc 4e2b 8d3c 841f abbc
00000260: c903 e6bc 0e38 13bc dfca 95bc 6d05 02bd
00000270: 77d4 d7bc 0b9f 84bc 1bfd c7bc 3abf 0ebb
00000280: cc53 6ebc 5f90 dd3c 7dc1 79bd 4467 efbc
00000290: 44e0 3c3c b099 15bd a745 43bd aa45 2abc
000002a0: 7a83 71bd 0939 febc 15eb 70bd aa4e 08bd
000002b0: db57 3b3d a73f e8bc 71d2 93bc 2c16 8fbc
000002c0: c857 e43a 96bf 0fbc 0203 1f3c aba8 dabb
000002d0: f1b2 87bc 2e0c 573d 2d46 a33b 3685 f63a
000002e0: 165b 363d 1dea 353d 7a13 b23c 19a0 303d
000002f0: fbc6 b5bc c565 b53c 449b 323c 5d75 89bc
00000300: 57d0 503b 3dcf 01bd e8b4 5dbb 1a04 ed3c
00000310: f179 a5bc be0b 3a3c de46 393d bf28 033d
00000320: 7018 1abc 5ee8 0e3c 8edc 8a3d 3cef 573d
00000330: ceb7 ae3c e6d2 343d 77dc 6a3c 8c79 3ebc
00000340: fc43 30bd 58fb 49bd 0b63 ab3d 7eb7 d63d
00000350: b119 863d 66e1 2e3c c88e 1a3d 4529 bfbc
00000360: c5b3 e43c f91d 1bbd c2ca 0fbc ef35 2cbc
00000370: a33b 9cbd eb4e 00bc 6f22 2dbd ea88 01bd
00000380: 99e0 ef3c 3f39 15bc 53fd 0cbc 61b8 e7bc
00000390: 7bbb 483c 8e72 54bd 946e 08bb f397 0cbb
000003a0: 24aa e6bc 7637 14bd a214 f33b e534 04bd
000003b0: 7f39 383c b228 c83c 9a74 6bbc 962e b9bc
000003c0: f684 febc 8e1a 9ebc 33f0 7e3c 73a8 0ebd
000003d0: e723 c9bd 3405 a3bd 6a50 6dbd 6936 80bd
000003e0: 4f6c bcbd 3f82 09bd d8ca 43bd 2525 aabd
000003f0: 1cd1 213c dd00 173c 55ab 57bb 360f 1bb9
-0.0023260273 0.021946581 0.00974366 -0.02838558 0.013835396 0.033156764 -0.011097211 -0.035314064
0.012655139 0.020366592 0.050161306 0.033988286 -0.02659681 -0.011897875 -0.029231973 -0.038022228
0.007221339 -0.035554424 0.019839106 -0.0014039389 0.0219366 -0.004254106 -0.029210046 -0.017064234
0.023426812 -0.028479319 0.008890963 -0.038184706 0.037422393 0.030527173 0.03856203 -0.029187439
0.036973547 -0.0022921918 0.00445962 0.011038654 -0.027343132 -0.016783724 0.026936378 0.0009813695
-0.047392774 0.037576582 -0.022682661 -0.020591032 0.013964379 0.038702987 0.012042727 -0.017943628
-0.017541056 -0.036403395 0.031495802 -0.025947843 -0.012753064 0.016197776 0.032849044 0.04128335
0.054655865 -0.036163162 -0.049831964 0.014484702 -0.02481972 -0.04100407 -0.004364294 -0.12858556
-0.0339659 -0.10841266 -0.1033443 -0.040980134 -0.10212576 -0.10930528 -0.06408538 -0.09405196
-0.03838191 -0.09447128 -0.07409443 -0.103499174 -0.12618485 -0.09435611 -0.024098061 -0.054062303
-0.015681429 -0.033243306 -0.0111865075 0.015693309 0.020779317 0.0553815 0.020411655 -0.023002654
0.00064163713 0.04680474 -0.036709756 -0.010087802 0.0004912205 0.03311669 0.055928893 0.0129730115
-0.0058813924 0.0008465409 0.051472303 -0.008405263 -0.028646465 -0.05100669 0.06996503 0.030373052
0.06173936 0.013558581 -0.0035096947 0.014177462 0.037725598 -0.022558732 -0.02331752 0.0676454
0.086973235 0.030707384 0.048091076 0.0014966916 -0.029818797 -0.04067369 0.0012471225 -0.040424343
-0.00061277975 -0.022814367 -0.0075524654 -0.0048846654 -0.009768592 -0.0032033795 0.01424879 0.021230387
0.0075314264 0.023325073 -0.0014305154 0.03799451 0.044223804 0.035567787 -0.006265721 0.001335261
0.047034405 0.0040985574 -0.0067099174 0.06967684 -0.026876627 -0.06155254 0.08811878 -0.014880293
-0.033903264 -0.04122276 0.015942222 0.029874321 -0.010341502 -0.013740541 0.017232563 -0.020889051
-0.028077977 -0.008985532 -0.018285213 -0.031743456 -0.026346428 -0.016189119 -0.024412682 -0.002178146
-0.014546346 0.02704638 -0.06097554 -0.029224046 0.0115280785 -0.03652352 -0.047673848 -0.010392586
-0.058963276 -0.031033056 -0.05881794 -0.033278145 0.045738082 -0.028350664 -0.018044682 -0.017466627
0.001742118 -0.008773705 0.009705307 -0.006672939 -0.016564818 0.05250185 0.004982731 0.001880801
0.04452046 0.04441272 0.021737803 0.04312143 -0.022189608 0.022143254 0.010901276 -0.016779596
0.0031862461 -0.03169178 -0.0033829752 0.02893262 -0.020199748 0.011355339 0.0452336 0.03202128
-0.00940524 0.008722393 0.06780349 0.052718386 0.02132788 0.04414644 0.0143347895 -0.011625659
-0.043033585 -0.049311966 0.083685 0.10484217 0.06547869 0.010673856 0.037733823 -0.023335109
0.027917752 -0.03787038 -0.008776369 -0.010510906 -0.07628562 -0.0078313155 -0.042269167 -0.031624712
0.029281901 -0.009107887 -0.008605319 -0.02828616 0.01225173 -0.05186706 -0.0020817863 -0.0021452873
-0.028157301 -0.036185704 0.007418231 -0.032277007 0.011244177 0.024433468 -0.014371062 -0.022605222
-0.03106926 -0.019299772 0.015560198 -0.034828614 -0.09821301 -0.07959977 -0.057938017 -0.06260378
-0.09200346 -0.033571478 -0.04780087 -0.08307866 0.009876516 0.009216514 -0.0032908518 -0.00014787618
